trained_bsde_model_lq/d10_z_net_1.pth (torch, 25413 bytes, 6 tensors)

fc_in.weight f4 [64, 11]
00000000: 21fb ecbe 56c1 66bd aab5 e1bb 838f d83d
00000010: 5be0 afbc 8104 1abc f9c6 8c3c 5db2 34bd
00000020: 2722 8bbd febd bd3c 2763 2abe b244 b4bc
00000030: c1de ccbc 527b ba3a 129f e63c fc28 903d
00000040: 3104 5ebd 7c3e afbd 0d70 03bc 4668 633a
00000050: ebfb 1bbc 03dd 453d 2abd d73e 549f 42bc
00000060: cbe6 733b a044 213d 2fd8 ea3d 8d52 0dbb
00000070: c8a3 94bc 8039 23bc edd7 64bd 8a8a d43c
00000080: e3a9 1abc e9f6 813e 9173 b63b a7ab 79bb
00000090: 3012 413c 9b18 13bd c7b3 033e 6bc7 633c
000000a0: 302c 273d 1234 85bd 9cd1 5cbc 8fd8 a7bc
000000b0: 59f4 d73e 7c60 3bbd e7fd 7cba 24fa 4d3d
000000c0: f539 103e 501a 423d e239 08bd e366 a7bc
000000d0: e1c2 fc3c fe55 f43c 536d 6bbd fac5 003f
000000e0: 7c3c a43a eff5 413c 3bf8 223d 4c7d 1cbd
000000f0: f058 0f3c 01b4 adbd 6a3d 2f3d e999 a5bd
00000100: cbb5 1a3e eee2 10bd f71f 503e 836f 403b
00000110: dbcb bdba bb70 153e c025 3fbd a574 f8bb
00000120: a7f5 0dbc 66f9 593c bd88 443d 987c 7abd
00000130: b76a 9abd 8a72 233f 77ca 943c 5f49 c939
00000140: 18f0 b23d d887 ae3a 4eea dbbc 600e ecbd
00000150: 0fa6 c8bc fc10 d43c 8ecf 03bd 82a0 313d
00000160: e751 dfbd 4693 23bd 2c27 503c 74d4 ae3b
00000170: 2512 4ebd 364d 2e3b 6115 793d e4db 383c
00000180: 2430 e7bc 0826 d33d f96a 36bd f089 29bf
00000190: 0d0f 213c 6db4 9c3b cf12 e93d 416d ae3d
000001a0: 3d87 0ebe 8465 e3bc 9485 ca3a 14c0 cf3d
000001b0: f361 93bd b993 bbbd 03fb 02bf b144 873c
000001c0: b417 433b 6fc4 c73d 5123 e53d 4981 b43b
000001d0: bdac 553d af09 43bc 6470 65bd 2ecf 75bd
000001e0: b8ad a3bd c8b8 883f 1fc8 7e3c 503c 7ebb
000001f0: a749 713c 2dac 96bd 3149 483d 251d a3bc
00000200: 8345 c53c c358 5c3c 6ad7 253d 2e9e aabd
00000210: 8d56 b3bd e1b0 adbd de4b 803c 623d 2abd
00000220: 2497 c23d 2c68 803c 13e1 da3c ee56 423d
00000230: 9d73 f83b 9361 34bd c1f6 1dbc 384d e43e
00000240: 4161 0fbd c94c ceba 7a8d fabb 62aa 713d
00000250: 35a6 0a3d d894 bfbc 8deb 3c3c bcbb 283b
00000260: eba7 e33d bb84 333c 5fdc 45bf 0621 3fbd
00000270: 3bae 17bb 2d05 23bd 0262 85bd c7e7 8dbc
00000280: 9db1 263d ded9 9fbd 97ca 1fbd ed02 d2bc
00000290: 4496 8cbd fe29 3fbf 5bb0 8a3b b0d4 3039
000002a0: d86b cfbc 1536 32bd e815 8c3d 05e7 60bc
000002b0: 7d6a 543d 6571 3ebc 0b26 3ebd 1362 94bd
000002c0: 11be 2dbf 0401 8ebb 6d1c 86b9 b5f0 0abd
000002d0: f116 08bd 29fb 73bd 9563 203c b3bf d5bc
000002e0: 9614 1a3d 8ba4 153d 6196 93bd 7c3b fcbe
000002f0: 23f7 d1bb 48b9 cb3b 1515 a2bd ef4d 873d
00000300: ad0e 693d 7f20 dbbd 3ad4 6e3c 3932 91bd
00000310: 26d3 e2bd 6862 843c 9474 08bf 63a9 0ebd
00000320: cd5c 21bc 76f6 af3b f8bc 29bc 3c17 4bbd
00000330: f4fd be3d 18af 963c 84d7 413c a625 bb3c
00000340: be41 ca3d 3008 8e3f 8da4 253d 5fe4 3b3b
00000350: 7d3d 403d bc2e 91bc dfba 813c ff30 d13c
00000360: cc4e 18be 51b9 db3d 1aee 44bd e738 b0bd
00000370: cf19 e4be 700e 563c 389e 10bc 367a 5bbd
00000380: 5b56 1dbc ed46 cbbd d3b2 c0bc 0035 abbd
00000390: eb51 1dbd 6de7 24bc 6c04 7b3b 5fad 29bf
000003a0: 3c97 d13b a048 3abc 7185 ff3d 919d 6abd
000003b0: 6c82 973d b848 c6bc 8e24 ae3d 3586 f13c
000003c0: 5ed6 abbd 1868 eb3d b717 bfbe 147c 9cbc
000003d0: 750d 0fbc 2c13 de3c 820e 2fbb b4d5 02be
000003e0: 8a10 c1bd 0138 6f3d 2bf1 32bd 9bd4 ad3b
000003f0: 7eda 58bc 604f 403f 8c3f 95ba 00aa 03b9
-0.46285346 -0.056336723 -0.006888111 0.10574248 -0.021469286 -0.009400488 0.017184721 -0.044115413
-0.067936234 0.023161884 -0.16639386 -0.022005413 -0.025008561 0.0014227426 0.028152023 0.07039067
-0.054203216 -0.0855684 -0.00802232 0.0008674901 -0.009520511 0.048306476 0.42136508 -0.011878807
0.003721642 0.039372087 0.11467015 -0.0021564097 -0.018144503 -0.00996244 -0.055869985 0.025944967
-0.009439918 0.2538369 0.005567976 -0.0038096698 0.011784121 -0.035912137 0.12861548 0.013902525
0.040813625 -0.06504072 -0.013477709 -0.020489005 0.4217861 -0.04574631 -0.00096508715 0.05028738
0.14084609 0.047388375 -0.033258326 -0.020434802 0.030854644 0.02982616 -0.057477307 0.5030209
0.0012530233 0.01183842 0.039787512 -0.03820543 0.008749232 -0.08481599 0.04278318 -0.08085997
0.15108411 -0.035372667 0.20324694 0.002936334 -0.0014480309 0.14593785 -0.04666686 -0.0075822645
-0.008664525 0.01330409 0.047981966 -0.061153978 -0.075398855 0.6384665 0.018162949 0.00038392373
0.087372005 0.0013315631 -0.026845124 -0.11526179 -0.024493245 0.025887005 -0.03218036 0.043365963
-0.109042935 -0.039935373 0.012704652 0.005335385 -0.050310273 0.0026596314 0.060811404 0.011282895
-0.028221197 0.10309988 -0.04453561 -0.662261 0.009830249 0.0047822506 0.113805406 0.08516932
-0.13918777 -0.027758367 0.0015451186 0.10144058 -0.07196417 -0.09159035 -0.51164263 0.016512247
0.0029768767 0.097542636 0.11188377 0.005508576 0.05216669 -0.011904164 -0.056015387 -0.060012035
-0.079921186 1.0681391 0.015550642 -0.0038793273 0.014727033 -0.07357059 0.048897926 -0.019911358
0.024080997 0.013448897 0.040488638 -0.08330952 -0.087567426 -0.084810026 0.015661176 -0.041562445
0.09501484 0.015674673 0.026718652 0.047446184 0.0075821416 -0.044038367 -0.00964135 0.44590163
-0.035004858 -0.0015739436 -0.00764626 0.05900038 0.033849914 -0.023386404 0.011530769 0.0025746664
0.11116012 0.010956938 -0.77289385 -0.046662353 -0.002314462 -0.039799858 -0.06512834 -0.017322434
0.04069673 -0.07805227 -0.039011564 -0.02563616 -0.068645984 -0.7467345 0.004232449 0.000168639
-0.025319979 -0.043508608 0.06840116 -0.013726954 0.051859368 -0.011623715 -0.046423 -0.07245269
-0.67868143 -0.004333617 -0.0002557965 -0.033920962 -0.033225004 -0.059565697 0.009789367 -0.026092386
0.03761729 0.036533874 -0.07206417 -0.49264133 -0.006407635 0.0062171556 -0.07914177 0.066066615
0.05689876 -0.106995575 0.014576966 -0.07089657 -0.110754296 0.016160205 -0.53302884 -0.03482951
-0.009848786 0.0053699566 -0.010359995 -0.049582705 0.093257815 0.018394038 0.011831168 0.0228451
0.098758206 1.1096249 0.04044013 0.0028670055 0.04693364 -0.01772248 0.015836177 0.025536058
-0.14873809 0.10728706 -0.048078634 -0.08604603 -0.4455094 0.013064966 -0.008826785 -0.053583346
-0.009603108 -0.099256374 -0.02352277 -0.08359718 -0.0384082 -0.010064942 0.0038302196 -0.6628017
0.0063962024 -0.011369854 0.12476624 -0.057279173 0.07397923 -0.024204597 0.08503066 0.02948294
-0.08390497 0.11494464 -0.3732278 -0.019102134 -0.008731236 0.027108751 -0.0026711528 -0.12776834
-0.09426983 0.05840302 -0.043687027 0.0053048856 -0.013235686 0.75121117 -0.0011386736 -0.00012556463

fc_in.bias f4 [64]
00000000: 1401 423f 5b0d 89bd cb59 c8be a4d0 21be
00000010: 8708 04bf 33ad 20bf de3c 1dbe b447 1cbf
00000020: d892 783d 6c71 8d3f da48 d53e cea9 61bf
00000030: 689f 0a3e 8196 93be cff5 253f 3258 f63e
00000040: 54a1 f83e 1938 123f 6ef4 d13e 1a28 a0bf
00000050: 50e0 9d3e 7482 7a3f 686b b83e f988 4ebf
00000060: ab98 7e3f b3c1 873d 0e17 7a3f 28a9 60bd
00000070: 7fcd 5bbf ca8c 62bf 2090 8dbe 4b7e 5cbf
00000080: d6e6 e63e 9dda dbbe 3ae7 0bbf 32c3 54be
00000090: 1363 12be 855e d5be b68d 833e c366 7a3f
000000a0: 382c 66bf 9790 093e 4b0c 803e 1552 68bf
000000b0: e810 f13e cc67 4e3d 35e1 a4be c2a8 1c3e
000000c0: 56ad bbbd 405b 5fbf d3b1 78bf 634f 3d3f
000000d0: 8cce 943f 1681 66be 794e 033f 00f8 783f
000000e0: d33d 27bf 2945 95bf 9569 4e3e 4cc0 09bf
000000f0: 1062 1dbf d8ab 70be d6e7 dd3d 3bd7 45bf
0.75782895 -0.066920005 -0.39131007 -0.15802246 -0.5157551 -0.6276428 -0.1535525 -0.6104691
0.060686916 1.1050239 0.41657144 -0.88149726 0.13537371 -0.28825763 0.648282 0.48114163
0.48560584 0.5711685 0.41006798 -1.2512238 0.308352 0.97855306 0.36019444 -0.80677754
0.994517 0.06628742 0.9769143 -0.05484882 -0.8586044 -0.8849608 -0.2764902 -0.8613021
0.4509799 -0.42940226 -0.546497 -0.20777586 -0.14295606 -0.41673675 0.25694054 0.9781305
-0.8991122 0.13434063 0.2500938 -0.9075025 0.4708321 0.050391957 -0.3220307 0.15298751
-0.091639206 -0.8724861 -0.9714634 0.7394926 1.1625533 -0.2251018 0.51291615 0.9725342
-0.6532871 -1.1661731 0.20157464 -0.53809047 -0.61477757 -0.23503053 0.10835235 -0.7728154

layers.0.weight f4 [64, 64]
00000000: 7c09 6cbe f7cf 89be 48be 9cbe ceb2 8bbe
00000010: f603 953c fbb5 dcbe 2a13 2f3d f574 debe
00000020: 0a4e 013d 7d67 533e 1869 cebd ff7f 4fbe
00000030: ad8c b83e a61a 9d3d 24be d83e 1733 eb3d
00000040: 1fea d2bd c02f d03b 60d2 923d 7379 bbbe
00000050: 5176 16be c8f2 663e bea2 54be 3f3b afbe
00000060: b202 f83d 4d3e b0bc 349b 68be 8d60 1bbe
00000070: 96e7 94bb 5e6e a2be 00df 02bd 436c 43be
00000080: 62b5 b63d f7a5 6abe 5bdc febd 37fe f73d
00000090: f3da 64be 0b76 8b3e 1988 7f3e 8dba 153e
000000a0: 3d07 c1be bba3 2f3e a684 473d 267b 30bf
000000b0: 10b4 c1bd 1256 66be 967b 0a3e ac37 ee3d
000000c0: 9135 03bd 94dc a2be 9522 80be cd46 8bbd
000000d0: 7b63 4b3c 742a df3d 06ff db3d bf1a e33d
000000e0: 9422 eb3b 5d84 36bf 2fb9 61bd 6c31 5ebe
000000f0: 163b a13e 171e febd 78aa 22be 94ec 91be
00000100: e699 08bd 7ba6 223e 66fc 4f3e 94b3 44bd
00000110: 1eb5 c43d b0ad dc3e 0a3a 06be 86ac ce3e
00000120: c10a 2f3d 3ba7 89bd 73d0 3b3d 2d8d 073f
00000130: 8a79 a93c d3e6 ef3c 4681 a1be 6cd2 babd
00000140: 4ce4 9a3e 58e9 03be 4c7d 64bd 758c cc3e
00000150: de9f 74bd 8d0d c3be e136 253e 02ae e83e
00000160: 2e74 e9be 3e85 cb3d ae28 37be ce4f 1cbd
00000170: 624b 463e 0710 8d3e 46fa 87bc 0e4a 44be
00000180: d856 c5bd 4133 ddbd e1dc 26bd cdc5 913c
00000190: 68aa cebd b2b7 8a3d a2c1 d0bd c35a 26bf
000001a0: 0c00 2a3c a53f cb3d 6f67 42be e37c 7abd
000001b0: 0a34 3dbe 7442 7f3d 1cab 8f3d b5c4 8b3d
000001c0: 0c60 02bd 57b6 e03d c3f9 7a3e f769 803d
000001d0: f094 19bf ca00 ed3c 0d6f 0f3e 6053 0ebe
000001e0: cf97 afbe 8403 f73e 3a3e cdbd edb9 903d
000001f0: 3664 6ebe 460a febd 4aac 7ebd 1cd3 73be
00000200: 8034 7a3d e069 68be b877 78be 8080 0b3e
00000210: e481 9dbe 262a cebd 5921 15bd 0724 d5be
00000220: 97b0 31bb 910f 99bd 39b6 cfbd b838 2dbe
00000230: 2f9a 1abe a0d8 84be b05d e33e c6f6 b33e
00000240: eecf 683e 1aad 3d3e 2102 313e 4bfd 96bf
00000250: a83a db3e 6129 ee3e cffe 3e3d a84b 0bbf
00000260: d41e cf3e 875d 70bd bdb2 bf3e 6acd a5bd
00000270: 2734 3dbe 5820 ebbe 7264 5b3e 179c 1cbe
00000280: 316e 8a3e 84e7 82be ccf6 a9bc f42b 6ebd
00000290: 3fc9 0d3d 13fe a1be 6bac 873d 9d49 8e3e
000002a0: 7cd3 22bf 0bac ed3d f8fc b33e 722d 28be
000002b0: 6ef6 79be 8115 31be a9c5 62be 1a30 f23d
000002c0: ee4c 2fbe 25da 373d 28b6 28bf 6752 2c3f
000002d0: 5bc2 f63e acd2 e1bd e1f6 563e 2c44 8c3e
000002e0: 4384 c3bc e0ea 17bf a23b aa3e 48fc 3abe
000002f0: e3e7 bcbd 80ec cbbe 79c3 a03c 749e c0be
00000300: e858 08bf eee7 c43b 7bcd b13d e3c0 98bd
00000310: 4371 91bd e535 77be 9691 05be b28f 8d3e
00000320: e071 c83d 8fe4 4fbd c46e 12be 253a 82be
00000330: c99a 2b3e 7fa9 a53d 8aa7 15bf 7262 ffbe
00000340: 3f48 c7bd c80d 0bbe 2634 723e 897c 1f3f
00000350: dc61 163e 7f7c 86be 130f e1bd 67fe 413d
00000360: 7cbc e2be 6fbe c53d 42d7 8dbe 9c39 fd3d
00000370: abfb 5c3e e938 8f3e c760 95be 192a e43c
00000380: 7b90 07be bfab 283e bac4 b8bd 2653 b0bc
00000390: 46bb 5a3e f313 ef3e 5a82 e4bd 27bc 6cbe
000003a0: 34cf 563f 0910 8d3d 60c7 773d 7947 9f3e
000003b0: 62e1 00be 758d 2abd 1194 e5bc d0ef 4f3e
000003c0: 3746 683e 7a22 6a3e 480c 283e 40a7 f9be
000003d0: 26e1 06bf df69 803d 6740 6cbe 5ab8 afbe
000003e0: 01bd 6f3d 5403 203f 18d7 6ebe 34b5 e73d
000003f0: 02cf ba3e 9808 ec3d cd3d 88be 7ed4 f13d
-0.23050493 -0.26916477 -0.30613923 -0.27284855 0.018190365 -0.4310759 0.042742886 -0.43448606
0.031568564 0.20644946 -0.10078639 -0.2026367 0.36044827 0.076710984 0.42332566 0.11484354
-0.10298561 0.0063533485 0.07169032 -0.36616096 -0.14693572 0.22553551 -0.20765206 -0.3422489
0.12109889 -0.021514082 -0.22715455 -0.1517355 -0.0045442088 -0.31724828 -0.03195095 -0.19084267
0.08921315 -0.22914873 -0.12444373 0.121090345 -0.22349147 0.27238497 0.24954261 0.14621945
-0.37700835 0.17152302 0.048710488 -0.6893791 -0.09458172 -0.2249377 0.13523707 0.11631712
-0.032033507 -0.31808913 -0.25026384 -0.068006136 0.012413855 0.10896769 0.10742001 0.11089086
0.007175753 -0.7129572 -0.055108245 -0.2169854 0.31490391 -0.12408083 -0.15885341 -0.28500807
-0.033349894 0.1588382 0.20311126 -0.04802282 0.09604858 0.43101263 -0.13108078 0.40366
0.042734865 -0.0672135 0.04585309 0.5294979 0.020687837 0.02928487 -0.3154394 -0.09122166
0.30252302 -0.12881982 -0.055783555 0.3995091 -0.059722774 -0.38096276 0.16134216 0.45445257
-0.4559645 0.09937523 -0.17886612 -0.038162045 0.19364694 0.2755129 -0.016598832 -0.19168875
-0.09635705 -0.108007915 -0.04073799 0.017794514 -0.10091096 0.06773318 -0.101931825 -0.6498224
0.010375988 0.099242486 -0.1898477 -0.061154258 -0.18476883 0.062319234 0.070150584 0.06824628
-0.03182988 0.109722786 0.24509339 0.06270211 -0.59992886 0.02893104 0.14007206 -0.13898993
-0.34295508 0.4824487 -0.100216344 0.070667125 -0.23280415 -0.12404303 -0.062176026 -0.23811
0.061085224 -0.22696638 -0.24264419 0.13623238 -0.3076316 -0.10066633 -0.036408756 -0.4162905
-0.0027113312 -0.07473672 -0.10142178 -0.16916168 -0.15097879 -0.25946522 0.44407415 0.3514921
0.22735569 0.18523064 0.17285968 -1.1796049 0.4281819 0.46515945 0.046629723 -0.5441232
0.40453207 -0.058682945 0.37441054 -0.0809582 -0.18476926 -0.45923114 0.21425036 -0.15293919
0.27037194 -0.25567257 -0.020747565 -0.058147386 0.03461575 -0.31639156 0.06624683 0.27790537
-0.6360395 0.1160508 0.35153937 -0.16423586 -0.24410412 -0.1729336 -0.22145714 0.11825581
-0.1711919 0.044885773 -0.6590295 0.67313236 0.48195156 -0.110265106 0.20992614 0.2739576
-0.023866778 -0.59342766 0.3324862 -0.182603 -0.092239164 -0.39828873 0.019624459 -0.3762089
-0.5326066 0.0060090935 0.086817704 -0.07458665 -0.07101681 -0.24141653 -0.13043818 0.27648693
0.09787345 -0.05075508 -0.14300066 -0.25434986 0.16758265 0.080889694 -0.5845877 -0.49879795
-0.09730577 -0.13579476 0.23652706 0.622994 0.14685768 -0.26266858 -0.10989203 0.047361758
-0.44284427 0.09655463 -0.2770329 0.12364504 0.21580379 0.27973107 -0.29175398 0.027852105
-0.13238709 0.16471766 -0.090218976 -0.021524023 0.21360502 0.46694908 -0.11157675 -0.2311865
0.83909917 0.06887824 0.060492873 0.31109217 -0.12585977 -0.04163881 -0.028024705 0.20306325
0.22683035 0.22864714 0.16410935 -0.48760414 -0.526873 0.06270193 -0.23071443 -0.34320337
0.058529858 0.6250508 -0.23324239 0.11313859 0.3648606 0.11525077 -0.2660965 0.11808108

layers.0.bias f4 [64]
00000000: f883 023e 79d7 273d 1c78 903d 228a 0cbe
00000010: ee53 1a3c 8978 463d 33a0 853d c7d1 a63d
00000020: 8bec 7cbd 153b 95bd 4493 ca3d 0169 d23d
00000030: 992d e9bd daa9 1bbc 4159 7cbd 3282 a9bd
00000040: 9898 5b3d 7e0c a0bd ced2 19be 9f88 53bd
00000050: 3fca dcbd a6d1 16be 4eb6 0abc 16f5 85bd
00000060: 0835 203b 4575 c5bd ff66 2abb c2c7 923b
00000070: f1ac 773d b33e 363e 8e80 c53d 057e 703d
00000080: 0eda 0a3c ca82 a33d aaa1 c23d 8360 e63d
00000090: cb1f a4bd 4baa 52bb b4d8 48bd 2839 053e
000000a0: 1cda 5b3d 1384 c83d 4827 5fbd 15b1 28be
000000b0: 31ca 95bd f3c5 143c 2bae d33c 6a16 ce3c
000000c0: 6998 b4bc 2434 dabc ded1 52bd 0903 603c
000000d0: 42c5 343e 009b 673d 307e bfbc 4425 4bbe
000000e0: 08d0 43bd c023 cdbd 501f 893d 42fe b9bd
000000f0: 91f6 053d dee0 12be c191 37bd f54d 6dbd
0.12745655 0.040976975 0.07054159 -0.13724568 0.009419424 0.048454795 0.06524696 0.081454806
-0.061749022 -0.0728666 0.0989137 0.10273934 -0.1138565 -0.009500945 -0.061608557 -0.08276786
0.05361232 -0.07814883 -0.15021822 -0.051643964 -0.10780763 -0.14728412 -0.008466316 -0.06540887
0.0024445672 -0.09641508 -0.0026001332 0.0044793794 0.060467664 0.17797355 0.096436605 0.05871393
0.00847484 0.079839304 0.09503491 0.11248877 -0.080138765 -0.003214496 -0.04903479 0.13010085
0.053674802 0.09790816 -0.05448082 -0.16473801 -0.073139556 0.009080398 0.025839886 0.025157172
-0.022045331 -0.02663619 -0.051469676 0.013672599 0.17653373 0.056544304 -0.0233756 -0.19838434
-0.047805816 -0.100165844 0.066954255 -0.09081699 0.032705847 -0.14343593 -0.044816736 -0.057935674

fc_out.weight f4 [10, 64]
00000000: a3f1 28bd c706 233f 4317 583e 3b8d dd3e
00000010: 8648 a53c 7349 8f3e 2cae fb3e 9d81 e7be
00000020: 1c00 3dbf ec3a 67be 060d 493e 6d16 00bf
00000030: 4e38 75be f1e1 3e3e 38fa 9abe 280b 5cbe
00000040: 9d8a 323e 6414 04bf 4319 aebe 99f6 41be
00000050: 8ae1 92bd 0a2f 953e 7ee4 04bf 8eaa 4c3e
00000060: dacc 293e 92e9 31be 3296 f53d 1551 babd
00000070: 7725 5cbe be36 623e c742 983c 3a56 bf3e
00000080: 5150 61be a1c5 c23e 7040 cb3e 713c 74bd
00000090: d5c9 31bf 228d e33d 1e14 7ebe 1734 ef3d
000000a0: 0d51 fd3e db5e 243e 78bb adbe cc9d e4be
000000b0: 2997 4b3d 55b1 8dbe 48dc 04bf 8281 1cbf
000000c0: 89bc 2bc0 9234 ee3e 1417 c7bc 979b a63e
000000d0: 37f3 4bbc ac3b 723e 382e a5be 79df 0b3f
000000e0: 9865 543f f974 333f ac98 8b3c d487 a7be
000000f0: 2089 15bf 7f15 143f 1e1a 4bbf 7e5a a03e
00000100: e19e 343e 2d24 393e d3b0 aabc 42d0 423e
00000110: 99f9 163e b367 e7bd a4ec 41be fd9b 74be
00000120: 4703 2a3d e792 40be 6b8a 3f3d b3a6 53be
00000130: 44c5 a4bd 348a f03c 1692 143e 6b18 123e
00000140: 80ab d2bd 8a77 10be 0e2f 523d aaf7 0cbe
00000150: de96 48bc 8668 c8bd 25b1 5abd fb52 7abe
00000160: 7777 013e b306 e23b cf2e 453e a0dd b1bd
00000170: eb1e b03d ade0 25bd f893 05bd 6603 88bd
00000180: df67 813e 43ae 9138 bcbe 15be 7dc2 5bbd
00000190: f574 3c3d 7793 51be 312e 28be 30a7 dbbd
000001a0: 8a62 c33d 493e 1c3d ade3 863e a79d 2fbd
000001b0: 14b1 113e 1a27 c2bb 4285 403c efe0 b9bc
000001c0: 0eba c93d 1437 90bd 8586 44be 980d 2a3e
000001d0: 8ea5 98be 5193 2e3d e905 623e f1bc 793d
000001e0: 3000 e1bd b55b 8cbd ea66 b03b d9c8 c6bd
000001f0: 091b 8ebd db0b 723e 0ef3 a5bd 0e84 173e
00000200: 5e65 85bf 20b2 053e 8567 8bbf 52e8 01be
00000210: 9f37 4e3e 23e5 b1bf fb39 033f 9694 6d3f
00000220: bc61 99be d04f 32bf fe43 8cbe 5d4b dfbe
00000230: a0ef 5b3f 957b ab3d a6a5 06bf b45e 9dbf
00000240: 152d b7bd d8d5 2bbf 28af 023f 1864 893f
00000250: 6e88 aabd a083 89bf 348e 28bf d78e 00bf
00000260: 15de 91bf 9bf6 153f 4330 473e ea78 a3be
00000270: fb05 013f a3b0 31bf 2db1 4cbf 113d 093e
00000280: 6bb4 ac3e 3a72 02bf 1b56 773f 82ae 2bbf
00000290: 267f 303f 57d7 883f 0c4d 41bf e5ce d83e
000002a0: 7004 e9bd 0b1d 743f 74d1 62bf 4988 4cbf
000002b0: 050a 453f d8c1 993e 3ce6 143f a9f7 4e3e
000002c0: a533 41bd ce74 88bf c751 a93e 9f27 23bf
000002d0: 37c9 32be eb6a 7ebe 0650 933f 5f84 353f
000002e0: ac04 1dbf c645 b2be 88a9 9dbf de54 68bf
000002f0: 20b0 69bf df43 6d3f 22d4 dabe ea95 67bf
00000300: 732d 55be 0cc5 443e 5436 80bf f5da 343f
00000310: c885 54bf 55cc 8e3e 6e8f 17bf 32c5 01be
00000320: 092d 0f3f ab53 08bf 210f d53e 7ed3 f9be
00000330: 6200 f8be 860d 343f 6f3e 8bbd a092 01bf
00000340: 3d42 c93d 1267 1b3f 6e01 563f 5f39 5ebe
00000350: c167 59bf 106c d0be 8b7f f3bd 6d36 6d3f
00000360: 0441 993e b6e5 4b3f 8f26 1abe 2354 c03e
00000370: db64 bdbf 0b90 2fbf 2c79 663f 97ce 15bf
00000380: 158f 663f c9f3 14bf a238 10bf 8e1a 12bf
00000390: 6675 37bf 4abd 113e f2bc 333f 9dd9 843f
000003a0: 5970 abbf 1f90 853f cb48 85bf 9557 ec3e
000003b0: 17b7 943e 1d75 2a3e 5d14 643f 96cf 2ebf
000003c0: 8934 313f e396 f53e 4f01 37bf 0f21 383f
000003d0: 2ed6 533f f884 1a3f 1382 273f 9a30 813f
000003e0: 7993 aa3f 6f7a 343f d467 8ebf 9102 763f
000003f0: 9683 363f 33ff 4a3f d32c c83e 8513 763f
-0.041246068 0.63682216 0.21102624 0.43271813 0.020176183 0.27985725 0.4915632 -0.45216075
-0.7382829 -0.2258107 0.19633874 -0.5003422 -0.2394726 0.18640877 -0.30269027 -0.21488631
0.1743569 -0.51593614 -0.34003648 -0.18941726 -0.071719244 0.2913745 -0.5191115 0.19986936
0.16582051 -0.17374256 0.11991538 -0.090974964 -0.21498667 0.22091195 0.01858653 0.37370473
-0.22003295 0.38041404 0.396976 -0.059627954 -0.69448596 0.11110903 -0.24812362 0.11679857
0.494759 0.1605181 -0.3393209 -0.4465164 0.049704704 -0.27674356 -0.5189862 -0.61135113
-2.6833823 0.46524483 -0.024302997 0.3254058 -0.012448124 0.23655576 -0.32261825 0.5463787
0.8296752 0.7010036 0.017040573 -0.32720816 -0.5841236 0.578453 -0.79336727 0.3131904
0.17638732 0.18080206 -0.02083627 0.19024757 0.14743651 -0.11299076 -0.18937927 -0.2388763
0.04150703 -0.18806039 0.046762865 -0.2066906 -0.08045438 0.029362775 0.14508852 0.14267127
-0.10286617 -0.141081 0.051314406 -0.13766351 -0.012243001 -0.09785561 -0.053391594 -0.24445717
0.12643228 0.0068977713 0.19256137 -0.0868485 0.08599647 -0.04049747 -0.032611817 -0.06641273
0.2527456 6.9465976e-05 -0.1462354 -0.053652275 0.046009976 -0.2046641 -0.1642387 -0.10725248
0.09540279 0.038145337 0.26345578 -0.04287496 0.14227706 -0.0059250714 0.011750521 -0.022690265
0.0984994 -0.07041755 -0.1919194 0.16606748 -0.29813808 0.04262096 0.22072567 0.060971204
-0.10986364 -0.06853429 0.005383362 -0.097062774 -0.0693875 0.23637335 -0.08103 0.14796469
-1.042156 0.1305623 -1.0890967 -0.1268628 0.20138405 -1.3898052 0.51260346 0.9280485
-0.29957378 -0.69653034 -0.27395624 -0.43612185 0.85912514 0.08373181 -0.5259651 -1.2294526
-0.089441456 -0.67123175 0.5104852 1.0733671 -0.08326803 -1.0743294 -0.65841985 -0.50217956
-1.1395899 0.58579415 0.19452004 -0.31928188 0.5039975 -0.6941015 -0.7995785 0.13402201
0.33731398 -0.50955546 0.9661576 -0.6706315 0.68944013 1.0690717 -0.7550819 0.42345348
-0.113777995 0.95356816 -0.8860085 -0.79895455 0.76968414 0.30030704 0.5816381 0.20211662
-0.047168393 -1.0660646 0.33070204 -0.6373233 -0.1745957 -0.24845473 1.1508796 0.7090511
-0.61335254 -0.34818858 -1.2317362 -0.907545 -0.9128437 0.9268169 -0.4273997 -0.90463126
-0.20818119 0.19215792 -1.001658 0.706466 -0.83016634 0.27890268 -0.5920323 -0.1267288
0.55928093 -0.5325267 0.41613105 -0.48794168 -0.48437792 0.70333135 -0.06799018 -0.50614357
0.09827087 0.6070415 0.8359593 -0.21701573 -0.8492394 -0.40707445 -0.11889561 0.9266117
0.29932415 0.79647386 -0.15053771 0.3756419 -1.4796404 -0.6857917 0.90028644 -0.58518356
0.90062076 -0.58184487 -0.56336415 -0.5707177 -0.7166351 0.14232364 0.7021018 1.037891
-1.3393661 1.0434607 -1.041284 0.4616057 0.29045936 0.16646238 0.8909357 -0.682855
0.6922079 0.4796668 -0.7148637 0.71925443 0.8274869 0.60359144 0.6543285 1.0092957
1.3326255 0.7049932 -1.1125436 0.96097666 0.71294534 0.79295653 0.39096698 0.96123534

fc_out.bias f4 [10]
00000000: bfca 3b3e fd9e 263c 941e c3bd 2891 a23c
00000010: c20e 20bc 401b 53bb d98d 20bd f9a2 8aba
00000020: 55f3 6e3d 7f2a 9eb9
0.1833906 0.010169742 -0.09527317 0.019844607 -0.009769144 -0.0032212287 -0.039197776 -0.0010577134
0.05833753 -0.0003016777
