trained_bsde_model_lq/d2_z_net_x0_is_0.0.pth (torch, 21401 bytes, 6 tensors)

fc_in.weight f4 [64, 3]
0	0xbd8b17f1	-0.06791676
1	0xbe173317	-0.14765583
2	0xbd0b9c2d	-0.034084488
3	0xbde33715	-0.110944904
4	0x3db14092	0.08654894
5	0xbcb2a673	-0.021807885
6	0xbe93115b	-0.2872418
7	0x3dcd6a49	0.10030038
8	0x3d25e51c	0.0405017
9	0x3e19fbb5	0.15037425
10	0xbdfb2ec1	-0.12264777
11	0x3d5159c6	0.051111005
12	0x3eb99335	0.36245123
13	0x3e0255d5	0.12728055
14	0x3d04a617	0.032384958
15	0x3e098752	0.13430527
16	0xbcc7c94e	-0.024387982
17	0xbe157f60	-0.14599371
18	0xbee59034	-0.4483658
19	0xbdbc02fc	-0.09180257
20	0x3c63ddd5	0.013907869
21	0xbdab940f	-0.08377849
22	0x3e2340d4	0.15942699
23	0x3c247c3b	0.0100393845
24	0x3e9c5184	0.3053094
25	0xbe025033	-0.12725906
26	0x3d15cc61	0.036571864
27	0xbedb8c86	-0.42880648
28	0xbe141a7f	-0.14463232
29	0x3c827f46	0.01592983
30	0x3f097ce5	0.537062
31	0xbd7ea8de	-0.062172763
32	0xbbedc1f9	-0.0072557894
33	0x3e44163e	0.1914911
34	0xbdf81cdb	-0.12114879
35	0x3d1f9035	0.038955886
36	0x3ef501b4	0.47852862
37	0xbd56bda8	-0.052426964
38	0x3d6a5435	0.057209212
39	0xbec7eff4	-0.39050257
40	0x3e02abc7	0.1276084
41	0x3d3d1af4	0.046168283
42	0x3d46c6f6	0.048529588
43	0xbe018ba2	-0.12650922
44	0xbe3aaddc	-0.18230385
45	0x3e8147d6	0.2525012
46	0x3da4f819	0.080551334
47	0xbca54f21	-0.020179333
48	0xbd85a4b8	-0.06525558
49	0xbdecf515	-0.11570183
50	0x3c9a72b8	0.01885353
51	0xbea999e6	-0.33125228
52	0x3e168b71	0.1470163
53	0x3d5fb8d3	0.05461962
54	0xbefed2bd	-0.49770156
55	0xbe1ac37d	-0.15113635
56	0xbb8f45d2	-0.004372337
57	0xbe7c2af8	-0.24625766
58	0xbd0d5458	-0.034504265
59	0xbd3d590b	-0.046227496
60	0xbeec2c61	-0.46127608
61	0xbdcf13ef	-0.10111224
62	0x3d362e66	0.044477843
63	0x3e8aeb4f	0.2713265
64	0xbe229119	-0.15875663
65	0xbc2a5576	-0.010396352
66	0xbe9df210	-0.30848742
67	0xbda46b14	-0.08028236
68	0xbd13f4ff	-0.03612232
69	0x3e5c4471	0.21510483
70	0xbdf80e85	-0.121121444
71	0xbd6752ed	-0.05647557
72	0xbdc18852	-0.09449829
73	0x3e2ae35c	0.16688293
74	0xbdffba8f	-0.12486755
75	0x3dbef25f	0.09323572
76	0x3cd20130	0.025635332
77	0xbd022e4f	-0.031782445
78	0xbe322a85	-0.17399032
79	0xbdee9c53	-0.1165091
80	0xbde075f9	-0.109600015
81	0x3e84c80b	0.2593387
82	0xbcbc6476	-0.022997122
83	0x3d90ef4a	0.07076891
84	0x3ed26f61	0.411006
85	0x3e228611	0.15871455
86	0xbd177a9b	-0.03698216
87	0x3e2b8b10	0.16752267
88	0xbd8fc3ce	-0.07019769
89	0xbd8acb04	-0.067770034
90	0xbee41b1a	-0.44551927
91	0xbc22b25c	-0.0099302195
92	0xbd8b85bb	-0.068126164
93	0xbe406586	-0.18788728
94	0xbd565e13	-0.05233581
95	0xbcac7a87	-0.02105452
96	0xbdffee4c	-0.124966234
97	0xbe0a96d6	-0.13534102
98	0xbd41c246	-0.047304414
99	0xbed9e2d0	-0.42555857
100	0x3e32a559	0.17445888
101	0xba862d22	-0.0010236839
102	0x3db96b88	0.09053713
103	0xbe00c8b7	-0.12576567
104	0xbc2f073c	-0.010682877
105	0xbd89e777	-0.067336015
106	0x3dab4872	0.08363427
107	0xbc400bc5	-0.011721556
108	0xbe22682e	-0.15860054
109	0x3dabe35b	0.08392974
110	0xbd8dda77	-0.069264345
111	0x3e233ab0	0.15940356
112	0x3daea796	0.08528058
113	0x3c2d92f5	0.010594119
114	0xbe477311	-0.19477488
115	0x3dd8859d	0.1057236
116	0xbda07db7	-0.07836478
117	0x3e543532	0.20723417
118	0xbd497583	-0.049184334
119	0x3d75de2b	0.06002633
120	0x3daf3b18	0.08556193
121	0x3e2788f5	0.16360839
122	0x3bdfaea4	0.0068262387
123	0xbe74e3a4	-0.23914963
124	0xbdf0539b	-0.117346965
125	0xbd8ceacb	-0.06880721
126	0x3ef5c663	0.4800292
127	0x3ce977c4	0.028499492
128	0xbe2c60e9	-0.16833843
129	0xbf66bc52	-0.90131104
130	0xbbbe774a	-0.00581256
131	0x3b734349	0.0037118963
132	0xbf05483d	-0.5206335
133	0xbd73de58	-0.059538215
134	0x3d3765ca	0.044774808
135	0xbe16c9c8	-0.14725411
136	0xbbfad05e	-0.007654234
137	0xbe0dcead	-0.13848372
138	0xbcf391c7	-0.029732598
139	0x3e0fe630	0.14052653
140	0xbd136227	-0.035982277
141	0xbe7a8e65	-0.24468382
142	0xbe33aeaf	-0.17547105
143	0x3b8d4bf8	0.0043120347
144	0xbcf1fd74	-0.029539801
145	0x3d071982	0.03298331
146	0x3cd45a92	0.025922094
147	0x3d693b7f	0.056941506
148	0x3d852d4c	0.0650278
149	0xbd4aaaf7	-0.04947945
150	0x3e430dc5	0.19048221
151	0x3d74f21e	0.059801213
152	0x3e0d9eec	0.13830155
153	0xbe41038a	-0.18849006
154	0xbe3be9e6	-0.18350944
155	0xbda156dc	-0.07877895
156	0xbd9269f9	-0.07149119
157	0x3e00c4cc	0.12575072
158	0x3d8702d0	0.06592333
159	0xbe557110	-0.20843911
160	0xbd60f63f	-0.05492234
161	0x3e13397d	0.14377399
162	0x3c3cb12c	0.01151685
163	0x3db2e725	0.087354936
164	0x3c2ed9b0	0.010672018
165	0xbeb013ff	-0.34390256
166	0x3e1757e4	0.14779621
167	0xbd10a5d4	-0.035314396
168	0xbe4da10f	-0.2008097
169	0x3e428a7c	0.1899814
170	0xbd572cf4	-0.052533105
171	0xbe65b0ef	-0.22430776
172	0x3d726118	0.059174627
173	0xbd973d6d	-0.07384763
174	0xbd1bf987	-0.038079765
175	0x3ceb2b18	0.028707072
176	0xbdd8f6b6	-0.105939314
177	0xbedb45b0	-0.42826605
178	0x3e232542	0.15932181
179	0xbd37a4e3	-0.044834983
180	0x3eb954aa	0.36197406
181	0xbda1758e	-0.0788375
182	0xbd28dc29	-0.041225586
183	0x3ecef4cc	0.4042114
184	0x3dcbc609	0.099498816
185	0xbdb0a2f3	-0.0862483
186	0xbe1b7efe	-0.15185162
187	0xbba4295f	-0.0050098146
188	0xbdf3d0b3	-0.119050406
189	0xbe193a1d	-0.14963575
190	0xbe01d7b4	-0.1267994
191	0x3d9071c0	0.07052946

fc_in.bias f4 [64]
0	0xbe934d68	-0.28769994
1	0xbbe3f3dd	-0.006956561
2	0x3e8bf424	0.27334702
3	0xbdf852d7	-0.121251754
4	0xbf1a5235	-0.6028169
5	0xbeff0668	-0.49809575
6	0x3f0166a2	0.5054723
7	0x3f08ef72	0.53490365
8	0xbeed1381	-0.46303943
9	0x3ef16bc7	0.4715254
10	0xbeefe0d4	-0.46851218
11	0xbe4da719	-0.20083274
12	0xbecdaef8	-0.40172553
13	0x3f05089d	0.5196627
14	0xbf1340a5	-0.57520515
15	0xbe6e8a98	-0.23295057
16	0x3d920bda	0.07131167
17	0x3f009f28	0.50242853
18	0x3f278243	0.6543314
19	0x3e194892	0.1496909
20	0x3eeb77d7	0.45989868
21	0xbeb33927	-0.3500454
22	0x3e821a61	0.2541075
23	0xbe57acee	-0.21062061
24	0x3f07958b	0.5296256
25	0x3c4b0ba3	0.012392911
26	0x3f071599	0.5276733
27	0x3dbd0f86	0.092314765
28	0xbf105ec9	-0.5639463
29	0x3e3f168d	0.18660946
30	0x3ea84725	0.3286678
31	0x3dc12e5a	0.09432669
32	0x3e2024ae	0.15638992
33	0x3f1bdb57	0.6088156
34	0xbe355877	-0.17709528
35	0xbe8562df	-0.26051995
36	0x3e4266ac	0.18984479
37	0xbe860a6e	-0.26179832
38	0x3e9e1a37	0.30879375
39	0xbeb247d9	-0.3482044
40	0xbe0f8897	-0.14016949
41	0x3ea68dab	0.3252996
42	0xbf3e32cb	-0.74296254
43	0x3f2f1e6e	0.68405807
44	0x3ef96b08	0.4871447
45	0x3e7bb236	0.24579701
46	0x3ce4df6e	0.02793857
47	0x3ef911a7	0.4864628
48	0xbe0613e1	-0.1309352
49	0xbe0fa64a	-0.14028278
50	0xbec8bf8a	-0.39208633
51	0x3f09f3ff	0.53887933
52	0x3eb95f09	0.3620532
53	0x3eeb6ef4	0.45983088
54	0xb842f0ad	-4.647735e-05
55	0x3f0229c5	0.50844985
56	0xbf19a43d	-0.6001623
57	0x3e5630ad	0.20917006
58	0x3e591f6f	0.21203397
59	0x3f1bfd6c	0.60933566
60	0xbedce472	-0.4314304
61	0xbf09459a	-0.5362183
62	0x3da875a5	0.08225564
63	0x3eb25dc2	0.34837157

layers.0.weight f4 [64, 64]
0	0x3de5f5c6	0.11228518
1	0xbd6909cf	-0.05689412
2	0xbda88bc8	-0.08229786
3	0xbd95fa5c	-0.07323143
4	0xbe45669f	-0.19277428
5	0x3da4c2e7	0.08044987
6	0xbe21c815	-0.15798981
7	0x3bf87017	0.0075817215
8	0xbdc460a2	-0.09588744
9	0x3d8d93fa	0.0691299
10	0x3e6479b9	0.22312059
11	0xbdd49d7c	-0.103816
12	0x3e5312b1	0.20612599
13	0xbd8935ea	-0.066997364
14	0xbced5538	-0.0289713
15	0xbe3aff2c	-0.18261403
16	0xbdd9f547	-0.10642486
17	0x3df3f297	0.11911505
18	0x3c53d20d	0.012928498
19	0xbe4b0ac7	-0.1982833
20	0x3e26e9e3	0.16300158
21	0xbdef3725	-0.1168044
22	0xbdbff6dd	-0.09373257
23	0x3d9a8a7a	0.075459436
24	0x3e1d5ab4	0.15366632
25	0xbe755fa2	-0.23962262
26	0x3e37657e	0.1790981
27	0xbd965bc8	-0.07341725
28	0xbdcd79ef	-0.100330226
29	0xbc81c1e1	-0.015839519
30	0x3e3dca68	0.18534243
31	0x3e19ca5b	0.15018599
32	0x3e42f7ed	0.19039889
33	0xbe6f9745	-0.23397548
34	0xbe083776	-0.13302407
35	0xbd5ae5ab	-0.053441685
36	0xbe7adfb6	-0.24499401
37	0xbd9d5cff	-0.07683753
38	0x3dc2ffaf	0.09521424
39	0x3b88313e	0.0041562608
40	0xbd146792	-0.036231585
41	0xbd6ad4b2	-0.05733175
42	0xbe6eb914	-0.23312789
43	0x3e377e95	0.17919381
44	0xbd3a7a89	-0.045527015
45	0xbd9208eb	-0.07130607
46	0xbdbef3b4	-0.093238264
47	0x3e7ea91e	0.248692
48	0xbe2799b0	-0.16367221
49	0x3e320abc	0.17386907
50	0xbe3596d6	-0.1773332
51	0x3c2ce65d	0.01055297
52	0xbe198e1f	-0.14995621
53	0xbda475a1	-0.080302484
54	0x3e03e30e	0.12879583
55	0xbe106d09	-0.14104094
56	0x3e12e1f8	0.14344013
57	0xbe84305a	-0.2581814
58	0x3d2e5545	0.042561788
59	0x3d0debb1	0.0346486
60	0x3ca76b31	0.020436855
61	0xbe10da5c	-0.14145797
62	0xbe524915	-0.20535691
63	0xbe2525a8	-0.16127646
64	0x3dacb18c	0.08432302
65	0xbd40fe89	-0.047117744
66	0xbc7f3d58	-0.01557859
67	0xbdd7fe20	-0.10546517
68	0x3cdda991	0.027058395
69	0xbe0b0664	-0.13576657
70	0xbd0c4f73	-0.034255456
71	0x3e09b592	0.1344817
72	0xbdb416db	-0.08793422
73	0x3e7d1941	0.24716665
74	0x3d2e099a	0.042489626
75	0x3e7d3c84	0.24730116
76	0xbccff3c9	-0.0253848
77	0x3d0963ba	0.033542372
78	0x3d5c0c12	0.05372245
79	0xbd21f084	-0.039536014
80	0xbd302d9e	-0.043012254
81	0x3b0c5b71	0.0021416808
82	0x3e0ddb79	0.13853253
83	0xbd8c4812	-0.06849684
84	0xbd858f7f	-0.0652151
85	0x3e87543f	0.26431462
86	0x3e6d77e2	0.23190263
87	0x3e152e94	0.1456855
88	0x3d77b402	0.060474403
89	0x3e0e7c7f	0.13914679
90	0x3db1bec9	0.086789675
91	0x3c8e8dba	0.017401565
92	0x3c33edf5	0.010982026
93	0xbdfeabdb	-0.124351226
94	0x3e2ee00e	0.17077658
95	0x3c80c8ef	0.015720813
96	0x3e547e17	0.20751224
97	0xbe249c90	-0.16075349
98	0x3e1e0083	0.15429883
99	0xbe64322e	-0.22284767
100	0xbe240e84	-0.16021162
101	0xbca942da	-0.02066176
102	0xbcdec22f	-0.027192203
103	0x3d6a2727	0.057166245
104	0xbe4ee600	-0.20204926
105	0xbc26aff1	-0.010173784
106	0x3dbcc458	0.09217137
107	0x3b7a2c6a	0.0038173446
108	0x3d91fe30	0.071285605
109	0x3a9284f9	0.0011178545
110	0x3e38802a	0.1801764
111	0x3e7ead4b	0.24870794
112	0x3bd8a88d	0.0066118897
113	0x3e0883ac	0.13331479
114	0x3e27ae1b	0.1637501
115	0xbdeec524	-0.11658695
116	0xbcc57aef	-0.02410647
117	0xbcfcd57d	-0.030863518
118	0xbdc28291	-0.0949756
119	0xbd8fe7a4	-0.07026604
120	0x3dab447c	0.08362672
121	0x3d8f6c72	0.07003106
122	0x3b0b78c9	0.002128171
123	0xbd8dd208	-0.06924826
124	0x3e23204e	0.15930292
125	0x3e480792	0.19534138
126	0xbd12ddee	-0.03585618
127	0x3e17cf42	0.14825156
128	0x3e33d71d	0.17562528
129	0x3d572aa0	0.052530885
130	0x3b15df73	0.0022868782
131	0x3ca27fb5	0.019836286
132	0x3cbd7ed4	0.023131765
133	0x3dbca6bb	0.09211489
134	0x3e1f1952	0.15537003
135	0xbe38870a	-0.18020263
136	0x3d41ef5e	0.04734742
137	0x3e00fb49	0.12595858
138	0xbe1fb36a	-0.15595785
139	0x3e21d5ec	0.15804261
140	0xbc35be20	-0.011092693
141	0xbdb2fe7d	-0.08739946
142	0xba84dba0	-0.0010136254
143	0x3e26b58d	0.16280194
144	0x3e18a5aa	0.14906946
145	0x3e005348	0.1253177
146	0x3dfdd03c	0.12393233
147	0x3d455621	0.048177842
148	0xbe4ba5e2	-0.19887498
149	0xbd58efcc	-0.052963063
150	0xbdbea0f5	-0.09308044
151	0x3e5ff1cb	0.2186958
152	0xbd84e2e9	-0.06488592
153	0xbde3569d	-0.111005045
154	0xbd65abd3	-0.056072067
155	0x3dee3e2e	0.116329536
156	0x3e123b05	0.14280327
157	0xbe44a727	-0.19204389
158	0x3dd4e7be	0.10395764
159	0x3dd6b6fe	0.10484122
160	0xbdfe07c1	-0.12403823
161	0xbd4dd465	-0.050251383
162	0x3d3e626c	0.04648058
163	0xbc853484	-0.016260393
164	0x3d48c832	0.049019046
165	0xbe31c2b6	-0.17359433
166	0x3d682a45	0.056680936
167	0x3d7c0776	0.061530553
168	0x3df749d8	0.120746315
169	0x3db4a737	0.08820956
170	0xbcbf7ca3	-0.023374861
171	0xbea8bb56	-0.32955426
172	0x3df130e6	0.11776905
173	0xbd775d1a	-0.060391523
174	0x3ddafc47	0.10692649
175	0x3df4187d	0.11918733
176	0xbe5bfcf0	-0.21483207
177	0x3c12d0a9	0.008960881
178	0xbe6197d4	-0.22030574
179	0xbdb1bb00	-0.086782455
180	0x3cbc6fca	0.023002524
181	0x3dd70774	0.104994684
182	0xbe321260	-0.17389822
183	0xbe6a51e8	-0.22882807
184	0xbe64159b	-0.22273867
185	0xbe522955	-0.2052358
186	0x3d2710f3	0.04078765
187	0xbe3b0c7a	-0.18266478
188	0x3cc7f11a	0.024406958
189	0x3e52b5dc	0.20577186
190	0xbe2368b8	-0.15957916
191	0x3e48a5d1	0.19594504
192	0xbe7b57ec	-0.24545258
193	0x3d982345	0.07428602
194	0xbda13820	-0.07872033
195	0xbcbbd52d	-0.022928799
196	0x3e1d0443	0.15333657
197	0x3e22f74d	0.1591465
198	0xbdd9693a	-0.106157735
199	0x3e59b6cd	0.21261139
200	0xbde1c7c4	-0.110244304
201	0xbcb7da1e	-0.022442874
202	0xbd1af7b5	-0.037833888
203	0x3db64eb3	0.089017294
204	0x3d8a823a	0.0676312
205	0x3e312450	0.17299008
206	0xbdaabee1	-0.083371885
207	0x3e3138d8	0.1730684
208	0x3c67f617	0.0141577935
209	0x3e485fdf	0.19567822
210	0xbd587f16	-0.052855574
211	0xbe5feddc	-0.2186808
212	0xbc496196	-0.012291333
213	0x3dc56fa0	0.096404314
214	0xbe7a88c0	-0.24466228
215	0xbcea4e29	-0.028601723
216	0x3e0d1dc9	0.13780893
217	0x3e774943	0.24149041
218	0xbe10c5c0	-0.14137936
219	0xbdd414a5	-0.103555
220	0x3e3a9055	0.18219121
221	0x3e723ac8	0.23655236
222	0xbe16c560	-0.1472373
223	0xbe864244	-0.26222432
224	0x3e0226e7	0.12710153
225	0x3da17cd7	0.078851394
226	0xbd0c4eb1	-0.034254733
227	0x3e3952ac	0.18097943
228	0xbd3eda1a	-0.046594717
229	0x3e50eaf0	0.20402122
230	0x3a1e058c	0.0006028048
231	0x3cef0fd2	0.029182348
232	0x3e2c662b	0.16835849
233	0xbd7a6690	-0.061132967
234	0xbcb50e3c	-0.022101514
235	0xbdc14b13	-0.094381474
236	0xbd70f2dd	-0.058825362
237	0x3dc3c48a	0.09558971
238	0x3c08c87c	0.00834858
239	0x3d5e5c41	0.0542872
240	0xbe1a23f2	-0.15052775
241	0xbde36fb3	-0.11105289
242	0xbd9c6e92	-0.07638277
243	0xba50cfe2	-0.0007965547
244	0x3cc86617	0.024462743
245	0x3e37dc19	0.17955054
246	0xbca752fc	-0.020425312
247	0x3e054087	0.13012896
248	0xbdc6d533	-0.09708633
249	0x3da787d8	0.08180207
250	0xbcab2210	-0.020890266
251	0xbddb5572	-0.10709657
252	0xbd8808ee	-0.06642328
253	0x3d790339	0.06079409
254	0x3dedd985	0.11613754
255	0x3d85ff73	0.06542864

layers.0.bias f4 [64]
0	0xbd231c4d	-0.03982191
1	0x3dca1c68	0.09868699
2	0xbdf02f7e	-0.117278084
3	0x3dbd5014	0.09243789
4	0x3c32fb4f	0.010924174
5	0xbd446b16	-0.047953688
6	0x3c905e5f	0.017623125
7	0x3d44cfbc	0.048049673
8	0x3db60292	0.08887209
9	0x3d12a929	0.035805855
10	0xbd6d1a27	-0.05788627
11	0xbbb5a6a1	-0.0055435454
12	0xbe0d3595	-0.13789971
13	0xbd95ee78	-0.07320875
14	0x3dc952f6	0.09830277
15	0x3d3012ed	0.0429868
16	0xbd7d9fb2	-0.061919875
17	0xbe2f7777	-0.17135416
18	0x3d8bbf0c	0.06823549
19	0xbdd5339f	-0.104102366
20	0xbe5318ae	-0.20614883
21	0xbd746253	-0.05966408
22	0x3d395132	0.04524345
23	0x3d20a542	0.039220102
24	0xbdbc339e	-0.09189533
25	0xbd39b98e	-0.045342974
26	0x3e12561f	0.14290665
27	0xbe01c187	-0.12671481
28	0x3e8b03a9	0.2715123
29	0x3e297751	0.16549422
30	0x3e396e51	0.18108489
31	0xbde89f8a	-0.11358555
32	0x3dc58e50	0.096462846
33	0xbd5448ed	-0.05182736
34	0xbd0530ea	-0.03251735
35	0x3dd19058	0.102326095
36	0x3dfccb56	0.12343471
37	0x3d600cc6	0.05469968
38	0x3b0663b5	0.0020506207
39	0x3de77958	0.11302441
40	0x3d2fcf4c	0.042922303
41	0x3dbddd36	0.09270708
42	0xbca51ef7	-0.020156367
43	0x3bd9c87f	0.0066462155
44	0xbe12f1a6	-0.14349994
45	0xbd3fc7d3	-0.046821427
46	0x3df956e7	0.121747784
47	0xbcaab096	-0.020836156
48	0x3e8240bb	0.2544001
49	0xbc034751	-0.008012609
50	0xbcab7adc	-0.020932607
51	0xbd4b27f0	-0.049598634
52	0xbd977abf	-0.07396459
53	0x3df456ec	0.119306415
54	0xbda91583	-0.08256056
55	0x3dbc3019	0.091888614
56	0xbd4b7302	-0.049670227
57	0xbdd6ee91	-0.10494722
58	0xbd8a1cdd	-0.067437865
59	0x3e1275f2	0.14302805
60	0xbc37d6fa	-0.011220688
61	0xbdaca037	-0.08428996
62	0xbe1db46f	-0.15400861
63	0x3da623a8	0.0811227

fc_out.weight f4 [2, 64]
0	0xbe29b640	-0.16573429
1	0xbdb52c11	-0.088462956
2	0xbe08f661	-0.13375236
3	0xbd2a0163	-0.04150523
4	0x3deadf57	0.1146838
5	0xbdc4d2f9	-0.09610552
6	0x3cee1081	0.029060604
7	0x3e9d2790	0.30694246
8	0x3df1881a	0.117935374
9	0xbe83d6cb	-0.25749812
10	0xbd34fe72	-0.04418797
11	0x3d9635b4	0.07334462
12	0xbb5cde4e	-0.003370184
13	0x3da7c026	0.08190946
14	0x3df8c00b	0.12146004
15	0x3e0215c2	0.12703612
16	0x3e71773f	0.23580645
17	0x3e5373f8	0.20649707
18	0x3eb809cf	0.35944983
19	0x3de6985d	0.1125953
20	0x3ed358b4	0.41278613
21	0xbbf2622a	-0.007396956
22	0xbba07e15	-0.0048978426
23	0x3dfbd83d	0.122971036
24	0x3b5ba792	0.0033516628
25	0x3c2991e2	0.010349723
26	0xbdfda06b	-0.12384113
27	0xbd99eaa0	-0.07515454
28	0xbeaff396	-0.3436553
29	0x3ea4b4d4	0.3216921
30	0x3ec7701b	0.38952717
31	0x3eb19dde	0.34690756
32	0x3d9e22ce	0.07721482
33	0xbcc88b24	-0.02448041
34	0xbbf88e97	-0.0075853574
35	0xbd89d0c4	-0.06729272
36	0xbd937c71	-0.0720147
37	0xbcdd0177	-0.026978238
38	0xbddba3f1	-0.10724629
39	0xb9acea58	-0.00032980996
40	0x3c981405	0.018564234
41	0x3dd95eef	0.1061381
42	0xbc8530aa	-0.016258556
43	0xbe221051	-0.15826537
44	0x3e805074	0.2506138
45	0xbe4da1ab	-0.20081203
46	0xbe7183a4	-0.23585373
47	0xbe6d5772	-0.23177889
48	0x3ee9a94d	0.4563698
49	0xbc5e5a5f	-0.013571351
50	0xbd9507f2	-0.07276906
51	0x3bcc558a	0.006235783
52	0x3e2c9975	0.16855414
53	0x3c93de41	0.018050315
54	0x3ca1fce8	0.019773915
55	0x3c6b0e5c	0.014346685
56	0xbb833f0a	-0.0040053176
57	0x3e6738d7	0.22580276
58	0xbc988848	-0.018619671
59	0x3e8dad7a	0.27671415
60	0xbd4f5afd	-0.050623883
61	0x3e19a0ae	0.150027
62	0x3e7fbaaa	0.2497355
63	0xbb9d61a0	-0.0048028976
64	0x3db6e77a	0.089308694
65	0xbddfc744	-0.10926679
66	0x3cdf4bd8	0.027257845
67	0x3c0e760d	0.008695138
68	0x3bd7c61f	0.006584897
69	0x3d943034	0.072357565
70	0xbccae7bf	-0.024768708
71	0xbcaeb930	-0.021328539
72	0xbddc2826	-0.10749845
73	0xbe004d8e	-0.12529585
74	0xbd3ea727	-0.046546128
75	0x3d6158ac	0.055016205
76	0x3d28dbc5	0.041225214
77	0x3d6a6e95	0.057234365
78	0xbde7bade	-0.11314939
79	0x3cf2f44c	0.029657505
80	0xbe0d99d6	-0.13828215
81	0x3dd1e9db	0.102496825
82	0xbe0a8324	-0.13526589
83	0xbe0ffbab	-0.14060847
84	0xbe884d93	-0.26621684
85	0xbd3f6331	-0.046725456
86	0x3bb3fd40	0.0054928362
87	0xbdf2af19	-0.118498035
88	0x3c799b11	0.015234725
89	0xbd9596eb	-0.07304176
90	0xbc1ac14c	-0.0094455
91	0xbd8f5e63	-0.07000425
92	0xbd6518ae	-0.05593174
93	0x3df310b2	0.11868419
94	0xbd525609	-0.05135158
95	0xba04627f	-0.00050500775
96	0x3d96f46b	0.07370838
97	0xbd218f74	-0.03944345
98	0x3d242570	0.040074766
99	0xbdb8e18e	-0.09027396
100	0xbdfefc4c	-0.124504656
101	0x3ddfb7cc	0.10923728
102	0xbe102d79	-0.14079846
103	0xb9584e2f	-0.00020628491
104	0xbd3e5e8c	-0.046476886
105	0x3d3740dd	0.044739593
106	0xba0fa618	-0.0005479767
107	0x3d7f68fc	0.06235598
108	0x3d0b9c58	0.034084648
109	0xbd4d3f3c	-0.050109133
110	0x3d204f6c	0.039138243
111	0x3e507a86	0.20359239
112	0x3e349b15	0.17637284
113	0x3d3c01db	0.045900207
114	0x3d9e563a	0.0773129
115	0x3def467a	0.11683364
116	0xbe20aa74	-0.15690023
117	0x3dcfbb0c	0.10143098
118	0x3c9cf6f4	0.019160725
119	0x3e36a6c7	0.17837058
120	0xbd060834	-0.032722667
121	0xbc85b291	-0.016320499
122	0x3d483985	0.04888298
123	0xbd133294	-0.035936907
124	0xbd93d10e	-0.072176084
125	0x3dd9e903	0.106401466
126	0x3e171c4b	0.14756887
127	0xbd4da6b1	-0.050207797

fc_out.bias f4 [2]
0	0x3d099c85	0.033596534
1	0x3d159245	0.036516447
