trained_bsde_model_lq/d2_z_net.pth (torch, 9569 bytes, 6 tensors)

weight f4 [32, 3]
00000000: 90ca fabe 9166 fd3d 5fba ab3d e23e 9c3e
00000010: 7f06 623e 6586 683e 69a7 ef3e 5cd5 1d3e
00000020: a448 edbd 0181 10bf f7f8 c33d d076 48bc
00000030: 9889 15be 35a6 2fbe 9ea0 223e 90a2 e93e
00000040: f394 f4bc 8214 f83d fddd 203e 4f48 353e
00000050: ff00 6bbd ecc7 fdbc 5cfc 263e 1bfd ed3c
00000060: 9b40 173f 1e8a d33d e894 4a3d 9721 43be
00000070: 4905 6c3d 6c93 cd3d fad4 acbe fe89 313e
00000080: 07b4 c9bc d5bd 843d 8897 353e 7357 a93d
00000090: 73c8 b53d 0a0c 653e 77f2 34bc 9d7e 323e
000000a0: 2922 5fbe 5e6a 2bbc eba2 4b3f 8024 a53d
000000b0: 0c01 efbb 163e c6be da2c 34be 0e4b a8bd
000000c0: 4b4e 17be 06a6 0abe 1afb 78bd 8325 e23e
000000d0: d8c3 94bd cfb7 a9bd 90d4 093e cdc5 ce3d
000000e0: 6834 ad3d 56a1 993e e263 0cbe 9fef 933d
000000f0: 8a00 703e 8567 c9bd 1997 593d c072 943e
00000100: 38e1 2f3e c3c9 963d 3eb6 e6bd c949 3fbe
00000110: d95e 43bd bfab 04be da28 eb3c bef6 80be
00000120: 39c9 54be 8333 3c3e 43b8 92bd 3475 45be
00000130: 9cdd 30be eb47 fd3d ce20 97be 0ff0 a73d
00000140: 29bf 9ebd 60f8 1e3f 5d3a 343d 3d49 b83b
00000150: cac9 d03e 67cf f2bd cc3a c03d 8aeb 3bbd
00000160: 130f 783e 8682 163d f148 dc3d fc59 433e
00000170: bd1a 353d b14b 79bf ee7b 95bc a9ab 433d
-0.48982668 0.123730786 0.08385157 0.30516726 0.2207279 0.22707517 0.4680741 0.15413421
-0.11586121 -0.56446844 0.09568971 -0.012235358 -0.14603269 -0.17153247 0.15881583 0.45631838
-0.02985618 0.121132866 0.15709682 0.17703365 -0.057373997 -0.03097912 0.16307205 0.029051354
0.59082955 0.10329078 0.049458414 -0.19055782 0.057622228 0.10037884 -0.33756238 0.17337796
-0.024621977 0.0648152 0.17733586 0.08268633 0.08876123 0.22367874 -0.011044136 0.17431112
-0.21790375 -0.010462372 0.7954547 0.080636024 -0.007293826 -0.38719243 -0.17595235 -0.082174405
-0.1477596 -0.13539895 -0.060786344 0.44169244 -0.07263917 -0.08287012 0.13459992 0.10096321
0.08457261 0.30005902 -0.13709977 0.072234385 0.23437706 -0.09834198 0.053122614 0.28993797
0.17175758 0.07362702 -0.11265229 -0.1868049 -0.047697876 -0.12956141 0.028706003 -0.2518825
-0.20779885 0.18379025 -0.071640514 -0.1928299 -0.17272037 0.12367233 -0.29517215 0.082000844
-0.07751305 0.6209774 0.044000972 0.005623965 0.40778953 -0.11855965 0.093862146 -0.045878924
0.242245 0.03674557 0.107561 0.19077295 0.044214953 -0.9738112 -0.01824757 0.04777113

bias f4 [32]
00000000: 16a8 fe3e e467 4e3f 427d 3cbf 2634 193f
00000010: dabf 01bf 522a 9bbe 02eb 01bf abd2 3a3e
00000020: 8bec 22bf 1c33 023e bc6f fb3e 50c1 42bd
00000030: 40cb 98be eb18 e9be f82d 51bf 4d82 573f
00000040: 4622 453e 1a73 e3be 19a3 363d e13f c6be
00000050: 2ec8 c0bd 3f77 34bf 3029 8f3e cca1 513f
00000060: 7a5d 0c3f bba8 df3e ac76 823e 9c68 04bf
00000070: 6603 12bf f989 c33e 35ea b4bd feb2 563f
0.49737614 0.80627275 -0.7362863 0.598452 -0.5068337 -0.30305725 -0.5074922 0.18244426
-0.63642186 0.12714809 0.49108684 -0.04754764 -0.29842567 -0.45526823 -0.8171077 0.841832
0.19251356 -0.44423753 0.044589136 -0.3872061 -0.09413181 -0.70494455 0.2796111 0.8188751
0.54830134 0.4368342 0.25481164 -0.5172212 -0.57036436 0.38191202 -0.08833734 0.8386687

weight f4 [32, 32]
00000000: 75ac 51be 5865 89be 63e4 143f 56df 6abc
00000010: 9f94 a13e 7583 71be 4723 1a3f 7f51 863d
00000020: 16d3 9c3e 16e4 e73d 8cc8 5b3e bf01 64be
00000030: cc7c 883e 5eb3 103c 2db2 a73e 0236 d2be
00000040: dd13 1fbe 54c3 523e d949 86bc 9293 073e
00000050: 2cfa 94bc 6156 763e ab65 953d 5edc 8f3b
00000060: ca1c ca3c e2a5 d0be 0cd5 873e aa15 543e
00000070: db5b 7d3e 4eb9 2bbd 5755 10be 76d7 76be
00000080: c0c9 91bd bce4 053c a4b5 bf3d 51f3 f6bd
00000090: d1cd 373e 48ba 393d c18c 49be 7388 c83d
000000a0: c66b 31be 253d c2bd 673a 2abc f62b e3bd
000000b0: 4ec1 3dbe b760 c03e a0f6 713e bd1f a43e
000000c0: f17e 963d fd5d a33d b06f c73d eb28 80be
000000d0: 6a99 a43e 9938 2b3e 00b3 fbbd 7440 783e
000000e0: 4751 48be 515f 82be 7244 463e 54ef ce3d
000000f0: ba41 42be 23db 27be c5f6 a7be 761d a438
00000100: f6f3 033f d683 603e 60e3 01bf 9b9a ef3e
00000110: 22fd 403d 7408 ecbd 3146 7ebe 2b40 6d3e
00000120: 648b 4dbe 3491 a73e beac f63e b7aa 60bd
00000130: 7a8c 493d 57bd 03bf 5c18 04bf 3c53 7b3e
00000140: 068d 123e 787b 09be 39b9 543e 2282 78be
00000150: 9078 a7be f879 71be 6dd8 12be 0988 443e
00000160: cee2 0b3f b16a f73b ccf0 d63d 4156 c4be
00000170: 4ce8 afbe f1bf 2b3e ae5e 43be 4560 a23e
00000180: ff8e ff3e b89d 85bc 74e6 c7be b47f 433f
00000190: 09ba eabe 1cb0 36bd e673 2c3e 6d80 a83e
000001a0: 5968 e0be 4452 dc3d 9836 0e3f d7e6 6fbe
000001b0: 540d b6be 873f 37be 1bcb a9be e9ed a13e
000001c0: ad35 f73d 5e8f 80be 0125 8c3d 10a7 16be
000001d0: cdf5 93be 08a6 b6be c82a f8bd ed0a 5abd
000001e0: 6515 0e3f e9c0 fdbd c8e9 8a3e c033 1fbe
000001f0: d220 a0be 46c6 c33e f9ac 26be 019f c63e
00000200: fd32 90be e0a4 03be d47f f43c 2017 bcbe
00000210: 8d10 1e3e cda3 483e df8a 16be 0616 8cbc
00000220: 52b1 e63d df13 33be a480 9b3d 5eda 20bd
00000230: 09ac c1be f243 fb3d a9ee 91be 8a1d 08be
00000240: d726 273c 73cf a0bd ff91 e23d c3df d1bd
00000250: 24fb b63e 0e87 4b3d 8be9 b5bd 1978 6dbe
00000260: 5fb2 8cbe bba6 273e 9f6e 913e fadf 473e
00000270: 9479 02be b871 09bc ab19 6abe 84c8 8ebe
00000280: 8e0d 063f 2f34 ca3e 72ce 42be 61a1 183f
00000290: 2b03 d9bd 0583 babe c044 b3be 78a7 b73b
000002a0: 5982 eabe 52aa 33bd f5f8 a1bd ae35 3cbe
000002b0: fc51 c8be d885 d4bd 2a7f 51bf fd18 843e
000002c0: 7de3 183e 593d 47be 7fec df3c 4624 40be
000002d0: 48a6 3bbe 4271 1bbf b283 eb3e 8a22 d43d
000002e0: 3442 353e 2688 283e e7b2 46be fb31 1dbf
000002f0: 4c99 cabb 51be ddbd 305d 11be 6ca0 153f
00000300: aabc c83e 6f40 373e 7820 17bd 9d94 f93d
00000310: b787 013e 492a 133e 54a9 21be 998a b33e
00000320: 9aed cd3c 9719 b0bd 5f7f d63c 0d99 9d3e
00000330: 46e5 87bd f481 b0bc 1466 9c3d b6cd 05bd
00000340: e3a9 bdbe ae1b 2ebe 5a12 603e 5c78 0bbe
00000350: 323f d93d 878b 33be 0f69 72be 96e2 423e
00000360: 0920 2ebe 683b 0cbe bae1 00be e925 bebc
00000370: ffa7 fd3d 37d5 bebc 649d d23e 034f 0cbb
00000380: b90e ae3e 9bfc 60bd 9748 82bc 79c4 533d
00000390: b954 873e a5f2 be3e e207 143d cee3 d33d
000003a0: 1db5 6ebe 0cf2 8d3e 0ee7 21be 460b c13c
000003b0: 9ff8 2b3e 23ad 48be b40d 583d 69d0 193d
000003c0: 4e7c 13bd 3fdf a2be 84d1 85bc 7fe7 34bd
000003d0: cd0b 243b e4f3 863e 88ce 0d3e 51ee bbbe
000003e0: 9670 183d 3e14 823e 9827 eb3d ab1c b23d
000003f0: 3482 603c 1a76 6dbe 6f2f 34be d2b1 35bc
-0.20475943 -0.26835132 0.5816099 -0.014335474 0.315587 -0.23585303 0.6021008 0.06558513
0.30629796 0.11322801 0.21463221 -0.22266291 0.26657712 0.008831827 0.32753125 -0.4105683
-0.15534921 0.20582324 -0.016392635 0.13239887 -0.018185697 0.24056388 0.07294782 0.0043902835
0.02467193 -0.4075156 0.2652973 0.20711389 0.24742071 -0.041924767 -0.14095055 -0.2410563
-0.07118559 0.00817221 0.09360817 -0.12058128 0.17949606 0.045343667 -0.196826 0.097916506
-0.17326269 -0.09484319 -0.010389901 -0.11092369 -0.18530771 0.37573788 0.23629236 0.32055464
0.07348431 0.07976911 0.097380996 -0.25031218 0.32148296 0.16720809 -0.12290001 0.24243337
-0.19562255 -0.25463346 0.19362047 0.10104242 -0.18970385 -0.16392188 -0.32805458 7.825617e-05
0.5154413 0.21925291 -0.5073757 0.46797642 0.047116406 -0.1152505 -0.24831463 0.2316901
-0.20072705 0.3272797 0.48178667 -0.054850306 0.049206235 -0.51460785 -0.5159967 0.2454347
0.14311609 -0.13426006 0.20773782 -0.24268392 -0.3270917 -0.23581684 -0.14340372 0.19192518
0.5464295 0.0075505604 0.10495147 -0.38347057 -0.34356916 0.16772439 -0.19079086 0.31714073
0.49913785 -0.016310558 -0.3904301 0.76366735 -0.4584506 -0.044601545 0.16841087 0.3291048
-0.4382961 0.107578784 0.55552053 -0.23427902 -0.35557044 -0.17895328 -0.3316277 0.31626824
0.12070785 -0.2510938 0.068429954 -0.14712167 -0.2889847 -0.35673547 -0.12117535 -0.053233076
0.55501395 -0.1239031 0.27131486 -0.15547085 -0.3127504 0.38237208 -0.16276921 0.38793185
-0.281639 -0.12855864 0.02984611 -0.36736393 0.15436001 0.19593735 -0.14701413 -0.017100345
0.1126429 -0.17488049 0.075928956 -0.03927075 -0.37826565 0.12268819 -0.28502396 -0.13292518
0.010202131 -0.07852068 0.11063003 -0.10247757 0.3573848 0.049689345 -0.088824354 -0.23190345
-0.27479836 0.16372196 0.2840471 0.19519034 -0.12741691 -0.008388929 -0.22861354 -0.27887356
0.5236443 0.39492938 -0.19024065 0.59621245 -0.10596307 -0.36428085 -0.3501339 0.0056046806
-0.45802572 -0.043863602 -0.07908813 -0.18379852 -0.3912505 -0.10377091 -0.8183466 0.25800315
0.1493053 -0.19456996 0.02733445 -0.18763837 -0.1832515 -0.6071969 0.45998913 0.1035815
0.17701036 0.16458187 -0.19404183 -0.6140439 -0.006182825 -0.108273156 -0.14195704 0.5844791
0.3920644 0.17895673 -0.0368962 0.12186549 0.12649427 0.143716 -0.1578725 0.3506668
0.025137711 -0.08598631 0.026183782 0.3078083 -0.06635527 -0.021546341 0.07636657 -0.032666884
-0.37043676 -0.17002746 0.21882 -0.13620132 0.10607757 -0.17533694 -0.23672889 0.19031748
-0.17004408 -0.13694537 -0.12586108 -0.023211436 0.12385558 -0.023295028 0.41135705 -0.00214094
0.33995607 -0.054928403 -0.015903754 0.051701043 0.26431826 0.37294498 0.03614033 0.10346185
-0.23311277 0.2772373 -0.15810797 0.023564946 0.1679406 -0.19597296 0.052747443 0.03755227
-0.036007218 -0.31810948 -0.016335256 -0.044166084 0.0025031448 0.2635795 0.13848317 -0.36705258
0.037216745 0.2540607 0.11482161 0.08696874 0.013702918 -0.23189583 -0.1759622 -0.011089759

bias f4 [32]
00000000: 6e11 81be ab82 ebbd b708 653e b357 8b3e
00000010: e814 173e 3f00 643e 4e4b d23c 0649 023b
00000020: bf0a d83b 7127 e9bd 1716 d1bd 6974 d93c
00000030: 9233 503d 8529 ec3d 0fe1 37be 3a0e ffbd
00000040: c26a 8a3e 5edd 4fbe 641a f53d d2b4 5c3e
00000050: b084 11be 9471 4abe 59be 52be 151e 8abe
00000060: 12df 863c fce8 663e 62c3 f53d a53a 16be
00000070: a289 263d 0e51 6fbc 3b33 ef3d 5515 b1bd
-0.2520861 -0.11499532 0.22366606 0.27215347 0.14754069 0.22265719 0.025670674 0.001987995
0.006593078 -0.11384476 -0.102092914 0.026544767 0.05083043 0.11531357 -0.17956947 -0.124538854
0.27034575 -0.20299289 0.11967924 0.21553352 -0.14210773 -0.19769889 -0.20580424 -0.26976076
0.01646379 0.22549814 0.12000157 -0.14670809 0.0406586 -0.014606727 0.11679693 -0.08646647

weight f4 [2, 32]
00000000: 0d28 543e 58f0 cbbd a4b5 373e 77ff df3e
00000010: 2556 b0bd c8b6 d3be d921 693e d61a 0a3c
00000020: fbd4 65ba 8051 f53e b9df 8abd 768d 913e
00000030: d235 af3e bb82 81be 0758 e2be e3e6 b03e
00000040: 0a14 003f 13e7 c63e 421b d13e 4a62 b53e
00000050: 6e5d ef3c 500b b63e 9839 903e 36fc 76be
00000060: d628 b8bd 448a 69be 4774 d03d cd64 8a3d
00000070: d5a5 d03a 6898 953e 23c3 a8be 7cbb 57be
00000080: 4e83 86be 671a bbbd c238 8c3d ca40 bbbe
00000090: d927 aabc f7a9 bbbe c0b5 253e d567 853e
000000a0: aa87 213b 5635 4bbe 7eec 0bbd 107f 5fbe
000000b0: e7d4 31bc effd 88be 318c 8bbd 8369 4fbe
000000c0: 7a57 883e 6bca 9c3a 999d 06bd 47f7 2dbd
000000d0: 2dd3 e33d ee90 80bc 1976 423d 4d30 223c
000000e0: e36f 0b3e 4499 9d3d 2c0f dfb8 d504 0bbd
000000f0: 9e1b 073e e623 31bd d5b2 8abd 88ec fcba
0.20718403 -0.09957951 0.17940384 0.43749592 -0.08610181 -0.4135039 0.22766818 0.00842925
-0.00087673933 0.47913742 -0.06780953 0.2842824 0.3422075 -0.25295052 -0.44207785 0.34551153
0.5003058 0.3884817 0.4084111 0.3542655 0.029219355 0.35555506 0.2816894 -0.24119648
-0.08992164 -0.2280665 0.10178428 0.067575075 0.0015918562 0.2921784 -0.32961378 -0.21067613
-0.26272053 -0.09135895 0.06846763 -0.36572868 -0.020770954 -0.3665311 0.16182613 0.2605578
0.0024647512 -0.19844565 -0.034161083 -0.21825814 -0.0108539825 -0.26756236 -0.06813849 -0.20255093
0.2662924 0.0011962181 -0.03286514 -0.04247215 0.11124263 -0.015694108 0.047475908 0.009899211
0.136169 0.07695249 -0.000106362946 -0.033940155 0.13194129 -0.043247126 -0.06772391 -0.0019296566

bias f4 [2]
00000000: f03c 843d dec8 04bd
0.064569354 -0.032418124
