trained_bsde_model_lq/d2_z_net_x0_num_0.pth (torch, 22885 bytes, 6 tensors)

weight f4 [64, 3]
000000 3e 51 84 3e cd 57 1a bd 2e 50 55 3e b5 68 fa bd
       0.25843233 -0.03768139 0.20831367 -0.122270025
000010 ed 31 06 be 48 ac 79 3b 62 8a b4 be ad bf c7 3d
       -0.13104983 0.0038097072 -0.35261828 0.09753356
000020 e4 cf f5 3c a3 a5 64 3e b6 2f 66 bd 17 1c 19 3d
       0.030006357 0.2232881 -0.056197844 0.037380304
000030 a4 ca d1 bd 4c ce ee 3d 67 20 9e 3d 9e 9d 0d 3f
       -0.10243729 0.11660442 0.07721024 0.5531863
000040 be 4c 83 bd 05 24 cc 3c 1e 5f 49 3f ab 67 29 3e
       -0.06411122 0.02491952 0.7866076 0.16543452
000050 47 d2 91 bd 10 52 1c be 1c 31 93 bb 29 8d e1 3d
       -0.07120185 -0.1526568 -0.0044919383 0.11013252
000060 b2 1f 1d 3f 89 04 97 bd ce aa c1 3b 77 e7 94 3e
       0.6137649 -0.07373912 0.005910254 0.29082844
000070 49 46 28 bd 67 b8 16 3d 51 37 0b bf 1a fa a7 bd
       -0.041082654 0.036796954 -0.5438128 -0.08202
000080 93 85 b3 bd ac 49 2e be 6b 39 e3 bd 34 26 a5 bd
       -0.08765712 -0.17020291 -0.11094936 -0.08063927
000090 c6 78 4e 3e 96 d4 4b bd de f9 4d 3b cc 0a 02 bd
       0.20163259 -0.049763285 0.003142945 -0.031748578
0000a0 36 97 e6 bd d4 14 3e 3d 19 e9 b0 3e 9f 64 f6 bc
       -0.1125931 0.046406582 0.3455284 -0.030077277
0000b0 ab b5 dd 3d 09 c6 08 3e 7a 57 ad bd 0f 97 81 bd
       0.10825666 0.13356794 -0.084639505 -0.0632764
0000c0 3d 4f c2 3e 62 42 f2 bd 90 28 3f 3d 62 4c 92 3c
       0.3795108 -0.11829068 0.046669543 0.017858688
0000d0 e8 aa 2d 3b f7 3b e4 3d ec 2d 31 bf f0 78 69 3c
       0.0026499573 0.1114425 -0.69210696 0.014250025
0000e0 2b 68 61 3c 30 ee 8a 3e 7a 88 ed bc 1b bf 73 3e
       0.013757746 0.27134848 -0.028995741 0.2380337
0000f0 c7 56 90 3e 92 b5 54 bd c9 1b a7 3d 87 9c 57 be
       0.28191206 -0.05193097 0.081595965 -0.21055804
000100 60 3c e6 bd 55 0c f8 bd db 2d 06 bf 59 d8 8c 3d
       -0.11241984 -0.12111727 -0.5241372 0.068772025
000110 6f d4 a6 bc f5 30 10 3e ae b7 0f 3e 46 a5 58 bd
       -0.020364968 0.14081176 0.14034912 -0.052891992
000120 ef bd 87 3e 12 7e 09 bd 7a 9e 8e bd 77 05 0a 3e
       0.26512095 -0.033567496 -0.06963821 0.13478647
000130 66 5d 0b bd 6f 78 06 be 69 d2 89 3e 94 1a 34 3e
       -0.03402462 -0.1313188 0.26918343 0.17588264
000140 57 5c e9 bb c1 fd eb 3d d7 71 98 bd ff b1 60 bd
       -0.0071216035 0.11523009 -0.07443588 -0.05485725
000150 3d 49 d0 be 24 81 fe 3c 18 d9 5c 3d 2d 26 0c bd
       -0.40680876 0.031067438 0.053917974 -0.034216095
000160 b3 cc 9e bd dd 84 2c 3d 04 88 c1 be 27 8f 82 bd
       -0.07753887 0.042118896 -0.37799084 -0.063749604
000170 ee 37 b5 bd 53 0f 36 be da 34 24 3e 57 b4 72 3d
       -0.08848558 -0.17779283 0.16035786 0.059254017
000180 10 9d d5 be 9a 72 0e be dd 96 7a bc ac 58 ae 3e
       -0.41721392 -0.13910905 -0.015294758 0.34052026
000190 f1 32 13 bc 9c c7 b8 3a cd 1d 77 be 49 aa 83 3c
       -0.008984313 0.0014097574 -0.24132462 0.01607241
0001a0 45 c2 c5 3d d7 c8 da be 56 f8 1e 3c 79 2b 4e bd
       0.096561946 -0.42731354 0.009702763 -0.050334428
0001b0 f0 a5 d4 bd 40 1c ce 3d 6d 80 9f 3d a3 06 b3 3e
       -0.103832126 0.10063982 0.07788167 0.34966
0001c0 14 fd 55 bd 4f 37 34 be 65 25 cc 3e 33 a1 2e 3e
       -0.052243307 -0.17599224 0.3987228 0.1705368
0001d0 17 f9 3b be d1 4f 2a be 5d f1 2f be 3d 7c 81 bd
       -0.18356739 -0.1663201 -0.17181917 -0.06322525
0001e0 f7 bf b7 be b6 64 de 3d e7 47 61 3c 85 29 f8 be
       -0.35888645 0.10859053 0.013750053 -0.48469177
0001f0 7f b9 26 3b 3b d8 d9 bc ef 40 f3 be b4 39 fa 3c
       0.0025440154 -0.026592365 -0.47510478 0.030545093
000200 b2 99 29 3e 07 40 cd be b2 4c dc 3d e9 e1 b5 3c
       0.16562536 -0.4008791 0.10756816 0.022202449
000210 40 51 97 3e 80 fb 86 bd 2f 03 7b 3d ef 91 6d be
       0.29554176 -0.065909386 0.061282333 -0.232002
000220 e9 ed 2d be 24 0d 87 bd d2 1c b3 3e f7 26 c1 3c
       -0.16985287 -0.06594303 0.34982926 0.02357815
000230 e9 1a 3a be 2f f2 b9 bd 70 76 b3 3d 10 7e 3f bd
       -0.18174328 -0.09079396 0.087628245 -0.046751082
000240 26 c5 17 3f d8 d3 28 bd 96 dc 76 bd 2e e2 18 be
       0.592852 -0.041217655 -0.06026896 -0.1493003
000250 9f f1 1b be 3a 7e 28 3e 34 48 be 3e f6 f7 0a 3d
       -0.1522889 0.16454402 0.37164462 0.03392788
000260 e3 6a da bd 0b 98 02 3a 69 b8 47 3d 3c 23 e9 bc
       -0.10664918 0.00049817626 0.04875985 -0.028459184
000270 d8 a3 65 3e 46 90 55 3d 6d 6b 5d bc 00 70 c8 3e
       0.22425783 0.052139543 -0.013514382 0.3914795
000280 6b fe bf bd bb 8e 33 bb 15 74 c8 3d 8a 66 5c bc
       -0.09374698 -0.0027398306 0.09787766 -0.013452182
000290 cf 85 e6 3d 0b d5 66 3d c2 0d cd bd 61 01 5b 3d
       0.11255991 0.056355517 -0.1001239 0.053468112
0002a0 52 26 cb 3e f5 80 f1 bd 2f 4e 4c bd 19 74 8e 3d
       0.39677674 -0.11792175 -0.04987925 0.069557376
0002b0 af 53 77 3e aa fd 1d bc 18 ad 8a 3c e1 5e 33 3e
       0.24153017 -0.009642998 0.01692824 0.17516662
0002c0 b0 50 93 bd cd 16 9d be fe cf 0b be 28 9f 7e 3c
       -0.07193124 -0.30681458 -0.13653561 0.0155408755
0002d0 25 7c 1f bf 29 4f 84 bb f3 12 64 bd 11 41 94 bd
       -0.62298805 -0.004037757 -0.055682134 -0.07238973
0002e0 a5 b6 61 3d 9a c5 00 bd 7d a1 e8 be 81 92 2a be
       0.055105824 -0.031438448 -0.45435706 -0.1665745
0002f0 c8 73 82 be bb 13 6d be a9 41 56 bc c9 d7 9e 3c
       -0.2547896 -0.23152058 -0.013077178 0.019390004

bias f4 [64]
000000 2b 48 20 bf ef f0 a4 3d 1b 5d 05 3f a7 ad 3e be
       -0.6261012 0.08053767 0.5209519 -0.1862093
000010 f6 9e ab 3b 9a 89 13 bf 40 69 fd be ef 7b bd 3e
       0.0052374555 -0.5763184 -0.49494362 0.37008616
000020 ab 30 33 bf b8 48 e0 3e b8 6c 4a 3e 45 e6 27 be
       -0.69996136 0.4380548 0.19768035 -0.16396435
000030 05 06 0e 3f d9 fb 2f bd f1 8f af be f1 63 a4 be
       0.55477935 -0.04296479 -0.34289506 -0.321075
000040 3f f4 31 bf 61 9b 56 be 47 c3 0b 3f 82 64 04 bf
       -0.69513315 -0.2095771 0.54594845 -0.5171586
000050 6d 89 11 bf 70 ea 03 be e8 dc 04 3f 66 a1 b0 be
       -0.5685032 -0.128824 0.51899576 -0.34498137
000060 ac f7 b4 be 90 4a d6 be 30 6f 0f bf 58 92 a3 3e
       -0.3534521 -0.41853762 -0.56029034 0.3194759
000070 f8 80 ad 3e 44 0b 46 3e f6 d2 0c 3e 01 83 39 3f
       0.33887458 0.19340235 0.1375235 0.7246552
000080 5f 25 03 3f 4d 30 19 bf 04 d2 1b 3e 11 14 7c 3e
       0.512289 -0.59839326 0.15216833 0.2461703
000090 fb f2 83 3e fd a2 f3 be 11 5f 80 3e f5 85 35 bb
       0.25771317 -0.47585288 0.2507253 -0.0027698253
0000a0 08 8c 2a 3f f7 ca d7 3e 35 95 c3 3e a5 ff 1e 3f
       0.6661992 0.42147037 0.38199773 0.6210883
0000b0 90 f3 b9 be 0a 4c 77 3d db 96 e6 be a0 3b 0a 3f
       -0.36318636 0.06037525 -0.4503697 0.5399723
0000c0 78 13 22 bf e9 49 63 3e 87 d8 35 be d0 04 c9 3d
       -0.63310957 0.22196163 -0.1775838 0.09815371
0000d0 b5 a2 06 be c1 aa 07 bf d9 43 d2 be 5e ea c5 be
       -0.13148005 -0.52994925 -0.4106739 -0.3865537
0000e0 53 2d 17 bf 8e 82 e1 3e 0e d7 24 be ef 40 54 3e
       -0.59053534 0.44044918 -0.16097662 0.20727895
0000f0 e9 15 71 3e eb 70 bd be a8 0f 30 3f e9 35 11 3c
       0.23543514 -0.37000212 0.6877389 0.008862951

weight f4 [64, 64]
000000 1e 82 86 bd df 4e 42 3e 9f 43 99 3d 40 a1 73 be
       -0.06567787 0.189754 0.07483601 -0.2379198
000010 0e 2e 43 3e 42 a2 04 bd 10 30 01 be c0 4d 22 be
       0.19060537 -0.032381304 -0.1261599 -0.15849972
000020 42 06 13 3b b4 8d 45 3e a5 1b 81 bd b2 a8 27 be
       0.002243415 0.19292337 -0.06304101 -0.16372946
000030 07 d9 65 3d b0 05 4f be bc 63 c1 3d fb 35 3d 3e
       0.056115177 -0.20217013 0.09442851 0.18477623
000040 39 ff 38 bd f2 b1 01 bd 23 89 23 be 62 11 3a 3e
       -0.045165274 -0.031663842 -0.15970282 0.18170694
000050 19 21 13 3e 46 78 d6 3c 40 8a 3b be 04 d8 38 3d
       0.14368095 0.026180398 -0.18314457 0.045127884
000060 a8 7c 0b 3e 45 4e d2 3d 3c 7a 36 bd 18 42 82 3a
       0.13621771 0.10268835 -0.044550166 0.000993791
000070 a9 94 84 3d 18 ea fd bd 7b 39 02 bd c3 17 ae 3d
       0.06473667 -0.123981655 -0.0317931 0.08500626
000080 86 ff 82 3a fd 04 c8 bd 21 20 38 3e aa 00 3c be
       0.0009994365 -0.097665764 0.17981006 -0.18359628
000090 71 94 3d be 7d 2e a1 3d 47 42 0c be ca 42 00 3e
       -0.18513657 0.07870195 -0.13697158 0.12525478
0000a0 02 14 2d bd 35 32 3a bd 3b 7a d6 bd a6 b1 67 bd
       -0.04225541 -0.045458037 -0.10472532 -0.056565903
0000b0 e6 25 3d 3e b0 54 8c 3d 11 7e a4 bd c8 81 fd bd
       0.18471488 0.0685209 -0.08031858 -0.123782694
0000c0 e2 4c 84 bd 64 69 52 be a7 52 f0 3d 5e ff 63 be
       -0.06459977 -0.20548016 0.11734515 -0.22265384
0000d0 a0 b3 40 bd 62 c3 c2 bd 22 ed dc 3d 2d ea 93 3d
       -0.047046304 -0.095099226 0.10787417 0.072224
0000e0 35 eb 8f bc d2 f9 31 3e c7 ed 16 be ba 44 c5 bd
       -0.01756821 0.17380455 -0.14739142 -0.09632249
0000f0 38 d2 a8 bd 6a 0c aa bb f6 40 bb 3c ea 0c 58 bd
       -0.08243221 -0.005189468 0.022858124 -0.05274669
000100 05 6b a0 bd b6 1c 1c 3e b9 88 19 bd d1 e7 39 bd
       -0.07832912 0.15245327 -0.037483905 -0.045387093
000110 df a9 13 be 60 47 1b 3e 54 53 4c 3d b2 f8 65 be
       -0.1442027 0.15163946 0.049884155 -0.22458151
000120 55 29 67 3e ec 29 48 3d 45 73 45 3d f5 21 7a 3e
       0.2257436 0.048868105 0.048205633 0.24427016
000130 21 07 16 3e da 06 17 be 37 cb 4d be 0a cf c0 bd
       0.14651157 -0.14748707 -0.20097052 -0.094144896
000140 76 b9 bc 3e 41 90 42 bd fc 61 8e be 19 d8 08 3e
       0.36860245 -0.047500852 -0.2780913 0.13363685
000150 d2 d0 34 3e aa f7 32 3e 49 1c 50 bd 20 17 a7 3d
       0.17657784 0.17477289 -0.050808225 0.081587076
000160 f4 07 3b be 06 ee ff 3d b1 ed cf 3b 06 9d f2 3d
       -0.18264753 0.12496571 0.0063454737 0.11846356
000170 18 8d ad bd b3 0c 43 3c 01 9e 38 be 0c 9a 67 be
       -0.08474177 0.011904883 -0.18029024 -0.22617358
000180 df 3b 56 bd 07 42 47 be ee 2d 99 3d 64 57 29 be
       -0.05230319 -0.19458781 0.074794635 -0.16537243
000190 9b 46 2b be ca ac ba 3c 80 39 1d 3e a0 60 97 bd
       -0.16726153 0.02278747 0.15353966 -0.07391477
0001a0 ae b1 61 be de 82 d5 bd 3e 40 ba 3d d9 86 72 be
       -0.22040436 -0.104253516 0.090942845 -0.23684253
0001b0 e7 da 23 bd a7 00 b3 3b 5e e8 46 be 00 24 12 3e
       -0.040003683 0.0054627242 -0.19424579 0.14271545
0001c0 53 05 8e 3e fe df f0 bd 28 41 66 bd 42 79 1a bb
       0.27738437 -0.11761473 -0.05621448 -0.002357081
0001d0 73 9a 75 3d e0 0e ca bd 1a db 2a 3e e7 2d ff bd
       0.059961747 -0.098661184 0.16685143 -0.12459927
0001e0 4c a8 96 3e d2 3c 84 be 02 6f a3 3d b3 c9 07 3e
       0.29425275 -0.25827652 0.079801574 0.13260536
0001f0 1a 0c bb bd 2d d9 19 3e 98 fd b7 bd f9 b4 80 be
       -0.091331676 0.15024252 -0.08983916 -0.2513807
000200 dc c7 48 be 4e ec 6f bd 84 7b c8 bd 1e 1e 06 bd
       -0.1960749 -0.058574967 -0.09789184 -0.032743566
000210 31 15 b9 bc a0 0d 0a be 91 03 18 be 8b c4 c0 3c
       -0.022593113 -0.1348176 -0.1484511 0.023531219
000220 3d 1c 1f bd ff 45 ec bd 95 8e d9 3c 30 1c 22 3e
       -0.03884529 -0.11536788 0.026557246 0.15831065
000230 58 e1 5c be 54 d2 4a 3e fd 52 26 3e 4b 8f 8d 3d
       -0.21570337 0.19806796 0.16242595 0.069120966
000240 37 ef ae 3e 22 2d 95 3d 93 fd fe 3d 05 be 98 bd
       0.3416688 0.07283999 0.12450709 -0.07458118
000250 be d6 96 bb 8f ac 82 bd 4d 9b bc bd 75 52 64 3e
       -0.004603236 -0.06380569 -0.09209309 0.2229708
000260 a3 cd 27 be 85 b8 d3 bd b1 e2 24 3e 6d ee 0d 3c
       -0.16387038 -0.10337929 0.16102101 0.008662802
000270 d5 fe a3 bb 4a 34 d0 3d a7 6f 70 bd 08 3e 30 be
       -0.0050047436 0.10166223 -0.05870023 -0.17211163
000280 4e cf 3a 3e d3 da 3f be e7 00 99 bb 95 77 4d 3e
       0.18243143 -0.18735819 -0.004669297 0.20065148
000290 d0 8d 00 3e 1a 0a 0a 3e 45 eb 9e 3d 38 b2 28 3e
       0.12554097 0.13480416 0.07759718 0.16474235
0002a0 40 70 b8 bd 5b 17 1c be 04 7a 35 be 2e 57 a5 be
       -0.09005785 -0.15243284 -0.17722327 -0.32293075
0002b0 4e 3b c3 bd 53 3e 10 bd 26 7c 48 3e 29 5e 98 3d
       -0.09532796 -0.035215687 0.19578609 0.074398346
0002c0 0e a6 16 bd 2c e8 27 3e d1 6a a9 3d da 2d 4b be
       -0.036779456 0.1639716 0.08272327 -0.1984171
0002d0 5c 07 1c be 47 74 f0 3d b1 8e ed bd fe 75 21 3d
       -0.15237182 0.11740928 -0.11599482 0.039419167
0002e0 23 96 6e bd d5 0b 4a 3e 52 73 dd bd 4c da 34 bd
       -0.05824865 0.19731076 -0.10813011 -0.044153497
0002f0 5c 7a 49 be a2 28 ff 3d 15 43 a3 3d db cc 93 bd
       -0.19675583 0.12458922 0.07971779 -0.072168075
000300 ce 66 2f 3d a4 f3 5d be 13 88 9c 3d 70 01 60 be
       0.04282265 -0.21674973 0.076431416 -0.21875548
000310 2b 6b cf 3d ad 89 5a bd 04 e7 2f be 7b f4 10 bd
       0.101278625 -0.053353954 -0.17177969 -0.035389405
000320 f4 e1 d4 bd 7e cc 1f 3d 0f 72 c9 3d 6b 73 a4 bd
       -0.1039466 0.03901338 0.09836208 -0.08029827
000330 22 2c 55 3d af 43 58 be 88 81 64 be dd 93 22 be
       0.05204404 -0.21119569 -0.22315037 -0.15876718
000340 95 d0 44 be fe 3a 83 bd 01 3d 40 3e d6 40 b3 3d
       -0.19220193 -0.06407736 0.18773271 0.08752601
000350 e2 26 35 3c c5 ff 3e 3e 21 18 11 be 3c 39 5b 3e
       0.011056634 0.18652256 -0.1416936 0.21408552
000360 28 2b 1e be 55 e5 0a be 21 9b e3 3d 1f d1 fb 3d
       -0.1544615 -0.13564046 0.11113573 0.12295746
000370 c5 bf 60 3e c5 25 0e 3e 17 59 33 3e fa e6 20 3e
       0.21948154 0.13881595 0.17514454 0.1571311
000380 39 06 83 3d 16 cd a2 3d 3c de 56 3e f1 19 c8 3d
       0.06397671 0.07949273 0.20983213 0.09770573
000390 89 8f db 3d 25 6e 10 be 1c a7 c3 3c 60 52 17 be
       0.107207365 -0.14104517 0.023883395 -0.14777517
0003a0 10 e1 93 3d aa 3e 59 be db 66 a8 bd 4f b7 84 3e
       0.07220662 -0.2121531 -0.08222743 0.25921103
0003b0 bf 97 65 be 8b d7 61 be 93 ae 45 3d 58 e6 ad 3c
       -0.22421168 -0.2205488 0.04826219 0.021228
0003c0 f5 ff 3f be bb 25 2b bc f4 1b 0f be 63 7a 87 bd
       -0.18749984 -0.010446007 -0.13975507 -0.0661514
0003d0 d0 10 3b be 0a e5 ba 3d f6 e1 d7 bd 7c a0 da bd
       -0.18268132 0.09125717 -0.105411455 -0.10675141
0003e0 7d 3e 4d be 94 20 1a 3e e3 cf 19 be 95 1f b2 bd
       -0.20043369 0.1505149 -0.15020709 -0.0869743
0003f0 27 d9 61 3e 77 f4 a4 3d fe 78 28 3e fe b5 40 3e
       0.22055493 0.080544405 0.16452405 0.18819425

bias f4 [64]
000000 2c f7 bb 3d 37 91 d5 3d f5 89 3c 3d 8a 94 32 bd
       0.09178004 0.10428088 0.046030004 -0.04359869
000010 47 fa 2f be 22 00 e5 bd ba 99 29 bd 6a c8 29 3d
       -0.17185317 -0.11181666 -0.04140637 0.041450895
000020 ea b2 1f be 88 c3 f2 3b 6e 3c 29 3e 27 c0 fa bd
       -0.15595594 0.007408563 0.16526958 -0.122436814
000030 99 49 fc 3d 6d 84 05 be 2d a9 0e 3e 48 f6 51 3d
       0.12318725 -0.13038798 0.13931723 0.051260263
000040 b7 d7 18 bd 5d 71 4a bd f2 61 4f bd fe fc df 3d
       -0.037315097 -0.049424518 -0.050630517 0.10936926
000050 76 66 b2 bd aa 9b f7 3d c0 96 06 bd b3 14 9d bb
       -0.08710949 0.120902374 -0.03285861 -0.0047937273
000060 5e 2b 15 be 0d e7 c6 3d a2 87 08 3e 3c a3 11 3e
       -0.14567325 0.09712038 0.1333299 0.14222425
000070 a7 27 8e bd 8f 1d 1e 3e 26 4a 88 bd 4b 55 1b 3e
       -0.06941157 0.15440963 -0.06654768 0.15169255
000080 b3 3c 09 bd 10 b8 13 bc 5a b1 46 3c 17 21 48 be
       -0.033505153 -0.009016052 0.012127245 -0.19543873
000090 49 37 5b be ec 70 ab 3d 7f fe e5 3d fb b7 16 bd
       -0.21407808 0.083711475 0.11230182 -0.03679655
0000a0 6d bb 33 be 8f 05 16 be 05 8c 1a be b3 35 fc 3d
       -0.17551966 -0.14650558 -0.15092476 0.1231493
0000b0 de 63 a0 bd 87 af 96 bd d2 7c bc 3c fe ac b7 3d
       -0.07831548 -0.07357698 0.023008738 0.089685425
0000c0 19 aa 63 be 99 d6 f0 3d 12 1b c0 3d 37 1a e4 3c
       -0.22232856 0.11759681 0.09380163 0.027844531
0000d0 26 3a 0e 3c 5c 08 10 be 9f 8b ec bc d1 16 25 be
       0.008680856 -0.14065689 -0.02887517 -0.16121985
0000e0 e4 ea e2 3d df fd 73 3e 4a 97 be 3d c8 46 ab bd
       0.11079958 0.23827313 0.093062 -0.0836311
0000f0 b3 86 d7 3d fa 01 c8 bd cf 9e 5f 3d 81 5f e4 3b
       0.10523739 -0.09766002 0.05459481 0.0069693928

weight f4 [2, 64]
000000 41 ff 89 bc bd d2 3d be eb c2 74 bc 45 d3 15 bd
       -0.016845347 -0.18537422 -0.01493905 -0.036578435
000010 c6 03 a2 be 78 e1 20 be 01 3f 8d 3e 84 67 85 bc
       -0.31643504 -0.1571101 0.2758713 -0.016284712
000020 aa 20 96 3e ad 3d 58 3d fc 4b 4b 3e e5 38 73 3e
       0.29321796 0.052793194 0.19853204 0.23752172
000030 64 ad 4c be 96 14 87 bc 32 52 9e be fb 0c e0 3d
       -0.19988018 -0.016489308 -0.30922085 0.10939976
000040 8f 1f be be cf 51 8f 3e d6 60 4f be 25 77 80 be
       -0.37133452 0.27992103 -0.20251784 -0.250909
000050 0b 0a 1a 3e ca 5d 81 3e 62 8b d3 bc 8a 19 9c bd
       0.15042894 0.25266868 -0.025823299 -0.07622059
000060 da 98 a0 3d f5 71 8b 3b 6c a4 e0 bd 0d 07 95 3e
       0.07841654 0.004255528 -0.10968861 0.29106942
000070 45 6f f9 bd 63 fe 89 be 7a 9a 03 3e f1 ea b0 3e
       -0.12179426 -0.26951894 0.12851897 0.34554246
000080 e3 24 59 3d fe fb fc bc 8f e9 53 3e a7 de ae 3e
       0.053013694 -0.030881878 0.20694564 0.34154245
000090 5c 1e 7b 3e ba 10 22 3d 51 1b 24 3e 58 a7 3b 3d
       0.245233 0.039566733 0.16026045 0.04581389
0000a0 d6 8c 82 3e bf e4 4f 3e f4 d9 b4 3e 6c 35 bd be
       0.25498074 0.20302103 0.35322535 -0.3695482
0000b0 2c 3a 0c bd fc c9 18 3d 99 26 37 be bf 55 51 be
       -0.034235165 0.037302002 -0.17885818 -0.20442866
0000c0 60 b8 94 3e 86 e9 94 be 8b ad df 3d 6b 65 73 bd
       0.29046917 -0.29084414 0.109217726 -0.05942289
0000d0 ba f8 69 bd 99 02 69 3e 94 27 8b 3e f5 4a 81 be
       -0.05712197 0.22754897 0.27178633 -0.252525
0000e0 cb 5a 01 be 2c b6 43 be cf df 03 3e 61 22 93 bd
       -0.12632291 -0.19112462 0.12878345 -0.07184292
0000f0 ea d4 7a 3e d4 ea 1e be 05 d3 2a be 07 d9 bb 3b
       0.24495283 -0.15519267 -0.1668206 0.005732659
000100 82 42 65 3c 97 c1 7f 3c b6 6b 7d bc 11 05 59 bd
       0.0139929075 0.01561012 -0.015467575 -0.052983347
000110 a0 f2 1b be d3 64 3b 3e 6f 1c 06 3e f9 8c 0a bd
       -0.15229273 0.1830018 0.13096784 -0.03382585
000120 fb 19 4f be 4d cd 2d 3c a4 f7 1b 3e 0a 1a 0d bd
       -0.20224755 0.01060803 0.15231186 -0.03444866
000130 d0 b6 d0 bc 34 04 62 bc 42 28 2f 3d e3 54 eb bd
       -0.025477797 -0.013794947 0.042763002 -0.114908
000140 ba 58 09 be 15 a6 3d be d8 0f b9 3d 02 33 92 bd
       -0.13412753 -0.18520387 0.09036225 -0.07138635
000150 f9 6c 63 bd 8b c5 30 3c e2 b2 05 bd 67 5a 8b 3d
       -0.055523846 0.010789285 -0.0326413 0.06804352
000160 bf bf d2 3c be f0 93 3d e6 44 fe 3d c5 91 63 bb
       0.025726197 0.07223652 0.12415485 -0.0034724337
000170 f6 60 a2 3d f2 29 90 3e 4c 09 a0 bd cb ae 95 bd
       0.0792865 0.28157002 -0.07814273 -0.0730873
000180 74 7f 68 bd 1b 91 81 bd 3f e5 4d 3e 5b 56 8a 3e
       -0.056762174 -0.06326505 0.20106982 0.2701901
000190 5a fa ac bd 0b 17 a7 bc 62 d9 26 3d 23 40 a8 3b
       -0.08446188 -0.02039673 0.040734656 0.005134599
0001a0 0b 02 2a 3e f5 ef 25 bd 72 3c 94 be 3c c9 84 be
       0.16602342 -0.040512044 -0.28952366 -0.2593478
0001b0 6b 54 45 3d e9 bd 00 be 10 01 96 3d 75 b8 40 be
       0.04817621 -0.12572445 0.073244214 -0.18820365
0001c0 3c 01 b0 bd f8 b9 8a 3e 55 f4 d0 bd 1c 77 18 bd
       -0.085939854 0.27095008 -0.10202853 -0.037222967
0001d0 e2 ef 81 bd 47 7f 85 3e a2 4b 25 3e e6 48 f0 3d
       -0.06344582 0.26073667 0.16142133 0.11732654
0001e0 fa 56 84 bd 0e 23 ea bc ef ff 12 3e 58 99 24 3d
       -0.06461902 -0.028581169 0.14355443 0.040185302
0001f0 d2 74 f1 bd a9 5e c5 3c 05 65 35 bd 20 33 0b 3e
       -0.1178986 0.024092989 -0.044285793 0.13593721

bias f4 [2]
000000 80 f3 ad bc f7 a0 89 bd
       -0.021234274 -0.06720155
