trained_bsde_model_lq/d2_z_net_x0_is_2.0.pth (torch, 21401 bytes, 6 tensors)

fc_in.weight f4 [64, 3]
000000 66 ab 1d 3d 36 73 50 bd 7d 6a d5 bd a3 90 92 3e
       0.038493536 -0.050891124 -0.10420702 0.28625974
000010 af 11 cf 3d d6 24 d5 bc 10 32 e2 bd 23 da 9f 3c
       0.10110795 -0.026018541 -0.11044705 0.019513195
000020 03 57 8b bd fc 88 5b 3e a3 e1 29 bd 25 20 0b bd
       -0.068037055 0.21438974 -0.04147495 -0.033966202
000030 1f 75 1c be 1b 6e dc bc fb 6a 77 3d f9 36 b9 3e
       -0.15279053 -0.026907971 0.06040476 0.36174753
000040 8c 02 2e be 59 db 33 bd e6 71 f9 be e2 0e 01 3d
       -0.16993159 -0.043910358 -0.4871971 0.031508334
000050 85 b6 83 bd ed 54 b7 be e2 d8 c2 bd 45 20 18 bb
       -0.06431297 -0.3580698 -0.09514023 -0.0023212594
000060 9b 69 77 3e c6 7e 70 bd 3d e4 87 bd 52 4d 2a 3f
       0.24161379 -0.05871465 -0.0663533 0.6652423
000070 dd 06 be bd 80 9f ae 3d 03 27 02 3f 4b 71 2a be
       -0.09278653 0.08526516 0.5084078 -0.1664478
000080 dc 62 e1 bd d3 4d ef 3e 82 20 ec 3d 36 93 41 bd
       -0.11005184 0.46739063 0.11529638 -0.047259532
000090 5f 03 8b 3e 08 f1 89 3d 98 5f e8 bd 32 15 10 3e
       0.2715101 0.06735426 -0.11346358 0.14070585
0000a0 c4 89 96 bb 50 0e 9d 3d d3 05 b3 3d 45 2c 0c be
       -0.0045940597 0.076687455 0.08741345 -0.13688762
0000b0 b4 3f f8 3c b0 0b ba 3e af ae 22 be 1a 04 1f 3c
       0.030303814 0.36337042 -0.15886949 0.009705568
0000c0 91 e4 cf 3e f9 40 43 3d 47 fc ae 3d 78 f5 ba 3e
       0.4060407 0.047669385 0.08544212 0.36515403
0000d0 b9 69 e8 3c a9 f8 25 3d 01 2c 6f 3e c9 e4 d6 bd
       0.028370725 0.040520344 0.2335663 -0.10492856
0000e0 85 57 f2 bc 56 14 ad 3e e1 53 cd bd 98 07 04 3e
       -0.029582748 0.33804578 -0.10025764 0.12893522
0000f0 c9 94 14 3c 90 f8 c1 3d fd b5 21 bd eb 21 11 bf
       0.009068676 0.09471238 -0.0394802 -0.5669238
000100 94 50 dd bc 9b c1 0f bd 5f a8 4a 3e f6 cc 6b bb
       -0.027015962 -0.035096746 0.19790791 -0.003598032
000110 11 2e e5 bd e0 2d 06 be 27 ef 18 be ef ae 59 bc
       -0.11190427 -0.13103437 -0.1493498 -0.013286336
000120 be 14 53 3e f1 1d a8 3d 4f 9b 52 bb 5a 89 d4 be
       0.20613381 0.08208836 -0.0032136028 -0.4151104
000130 10 f8 65 bb d8 cc 6f bc 79 3e 9e be 65 39 a0 bd
       -0.0035090484 -0.014636241 -0.30907038 -0.07823447
000140 e3 54 c9 3d b4 63 a8 be 90 42 d1 bd 80 31 be bc
       0.09830644 -0.32888567 -0.10217774 -0.023216963
000150 94 76 9b 3e a9 de c9 3d 16 3b 4f 3c c2 4d 89 3e
       0.30363905 0.09856922 0.0126483645 0.26817137
000160 55 0a 3c be 67 fc a1 3d 48 eb d1 be 55 65 f3 bb
       -0.18363316 0.0790947 -0.40999818 -0.007427851
000170 97 66 99 bd b5 84 27 be a3 34 23 3e 6d 32 d5 bc
       -0.074902706 -0.16359217 0.15938048 -0.026025021
000180 fe 7c d4 3e 17 59 9b bc d7 f9 17 be 00 c6 bc 3e
       0.4150161 -0.01896338 -0.148414 0.36869812
000190 ee dd 8d 3d c1 d3 34 bc 69 73 e5 be dd bf 29 bd
       0.06927095 -0.011036814 -0.44814613 -0.04144274
0001a0 79 d4 e3 bc 1e c3 8a 3e 8a 4c f6 3d f4 b0 d3 bc
       -0.027811276 0.27101988 0.120263174 -0.025841214
0001b0 bb 72 7b bd 88 de 47 3c 44 79 1f 3e f0 ab 46 3e
       -0.061388712 0.012199052 0.15573603 0.19401526
0001c0 cd 3a 2f 3d 03 a5 96 3c 87 57 00 bf 21 5e 1c bd
       0.042780686 0.01838923 -0.50133556 -0.038175706
0001d0 94 1a 39 3d fc 1b d5 3e f5 ae 94 3d 9f 61 53 bc
       0.045191363 0.41622913 0.07259933 -0.012901693
0001e0 bb 4f c0 3e f9 0d d2 3d 0e f4 81 3d 35 b5 bc bd
       0.3756083 0.10256571 0.06345378 -0.0921425
0001f0 3e cc 3e be 7e 84 02 3c 71 5d 2c be d0 1c 4a 3b
       -0.186326 0.007966159 -0.1683252 0.0030839927
000200 89 51 22 3a a6 5e 4c 3e 0e b2 c1 3d 6e fb 54 bd
       0.0006191959 0.1995798 0.09457789 -0.051997595
000210 b6 bf b0 3e 7a bd 96 3d 3f 2c 2d bd f4 74 75 3e
       0.34521264 0.073603585 -0.042278524 0.23970395
000220 53 1d cd 3d 43 ff 12 3b 84 a3 ed 3e 14 69 28 bd
       0.10015359 0.002242998 0.46413815 -0.041115835
000230 b6 cc ff 3c 8c ba da 3e 1c b5 81 3d e7 24 bf bc
       0.031225543 0.4272045 0.06333372 -0.023333026
000240 03 13 91 3e ce 18 27 3d fb de c3 bd 9a c2 d2 bc
       0.28334817 0.04079514 -0.095640145 -0.025727559
000250 63 f6 2c be 7f 61 9a bd 8d 00 af 3d 81 db e9 bd
       -0.16890864 -0.07538127 0.08545027 -0.1141882
000260 7f b3 b1 bd a0 6a fc bd 52 be 1b 3e 74 c9 a0 bc
       -0.08676814 -0.123250246 0.1520932 -0.01962731
000270 a1 34 a7 3e 67 b1 52 be 2a 7d ec bc c6 85 09 3f
       0.3265734 -0.20575486 -0.028868277 0.5371975
000280 ae 74 5a bc ed 41 c0 3d 66 e1 cf be 7a e2 b5 3d
       -0.013333483 0.09387574 -0.40601653 0.088810876
000290 d5 a9 63 be f4 6c 64 be 37 83 b5 bc e8 24 32 3c
       -0.22232755 -0.22307187 -0.022157295 0.010873057
0002a0 c3 24 36 3e e2 f8 88 3d 06 42 3b 3d 90 68 22 3d
       0.17787461 0.06688096 0.04571726 0.0396505
0002b0 6a cf d2 3d f1 e2 24 bd 6d 02 9b be c2 dd 3c 3e
       0.10293467 -0.04025549 -0.30275288 0.18443969
0002c0 c8 61 b3 3a d7 81 84 3e 87 bb fa 3c bd 40 b3 3b
       0.0013685757 0.2588031 0.030606998 0.005470364
0002d0 ba 94 9c 3d 91 57 27 be 71 7e 8c 3d 42 34 72 3c
       0.07645555 -0.16341998 0.06860054 0.014782967
0002e0 43 3e 4a 3d 89 57 a1 3d 61 71 e3 bd c3 7d 45 3c
       0.049375784 0.07878024 -0.1110561 0.01205391
0002f0 3e 81 03 be c8 32 d1 3c c3 87 f7 3d df dc 3a bc
       -0.1284227 0.02553691 0.12086441 -0.011405199

fc_in.bias f4 [64]
000000 a8 92 15 bf 1e d4 12 bf 49 ad 79 3d 2e 6d 28 bd
       -0.58426905 -0.57354915 0.060956273 -0.041119747
000010 c4 57 95 3e cb df 26 bf 52 e9 c0 3e 9e 73 02 3f
       0.29168522 -0.6518523 0.3767801 0.5095767
000020 6f e0 3e be 6b 38 f6 be a1 e7 50 be 34 53 36 bf
       -0.18640302 -0.48089918 -0.2040086 -0.7122071
000030 2e ef 19 bf 52 1d 9c 3c 7d 0b 08 3e 64 9a 11 bf
       -0.60130584 0.01905695 0.13285632 -0.56876206
000040 fa 93 de be 0c 76 43 be 36 ca 14 be 6e 4f 48 bd
       -0.43472272 -0.19088 -0.14530262 -0.048903875
000050 a7 82 04 3f ea 4a e5 3e 25 75 fc bd 2f 25 a6 3e
       0.5176186 0.44783717 -0.12327031 0.32450244
000060 1c af 0d bd f7 ec 24 3e ec 71 f4 3e eb 66 08 3f
       -0.034590825 0.1610602 0.47743165 0.5328204
000070 4f da 1c bf 0f 42 ee 3d 44 5a 17 3f db 3f f8 3d
       -0.6127061 0.116336934 0.5912211 0.121215545
000080 b9 6d bd be 1d 97 e2 be 07 af 14 3f de a3 fa be
       -0.36997774 -0.44255915 0.5807957 -0.48953146
000090 5f 1d 26 3f 9f 17 98 be 3e f0 d0 3e f2 a6 e8 be
       0.64888567 -0.2970552 0.4080829 -0.4543987
0000a0 17 04 1a bf c2 37 3b 3e 4c 8f bc 3d 29 44 6e be
       -0.6016249 0.18282989 0.09207019 -0.23268189
0000b0 20 a3 0f bf c3 5e c3 be 9d 2c 1c bf 14 22 f8 be
       -0.56108284 -0.38158235 -0.61005574 -0.484635
0000c0 f5 fc 00 bf 29 f5 02 3f 3e fe 98 3e 99 6a d4 be
       -0.5038598 0.51155335 0.2988147 -0.41487578
0000d0 74 9d a6 bd d8 23 d1 be 4d 66 a2 3e 9d 96 ed 3d
       -0.081355006 -0.4084766 0.31718674 0.11600993
0000e0 25 73 03 3f ec 8f 48 3e 46 cb ee 3e 5c 20 06 3c
       0.5134757 0.19586152 0.4663946 0.008186426
0000f0 0b ce 6d bc 2f f3 90 be 19 49 c9 3e ac ab d4 be
       -0.0145144565 -0.28310534 0.39313582 -0.41537225

layers.0.weight f4 [64, 64]
000000 cc 48 fb bd 18 e3 86 3d 03 5d 03 be b5 ef 7a 3e
       -0.12269744 0.065862834 -0.1282845 0.24505503
000010 d5 26 38 bd 32 85 22 3e c1 e6 d8 bd cd 7a b4 3e
       -0.044958908 0.15871122 -0.10590888 0.3524994
000020 4b ba 99 3d 9c a9 8a bd 79 b4 a0 bc 97 b8 66 bc
       0.07506236 -0.06770632 -0.019617306 -0.014082096
000030 2f c6 38 3e 21 ef 43 be 85 80 d5 3d 47 7c c1 bd
       0.18044351 -0.19134189 0.10424904 -0.09447532
000040 51 0f 94 3d 37 ab 8a 3d fd 0f 71 3e 9b 87 cf 3d
       0.07229484 0.06770938 0.23541255 0.101332866
000050 18 95 4b 3b dc 0d 83 3e 4b b1 3d 3d bf 06 f3 3d
       0.0031064209 0.2559651 0.046311658 0.11866521
000060 6a 01 3d be 4f 26 52 bd b3 22 78 bd 91 d0 ed 3d
       -0.1845757 -0.051306065 -0.060579967 0.116120465
000070 11 7b 11 3d e4 08 76 3e 59 94 82 3d 95 9a cf 3d
       0.035517756 0.24026829 0.06375951 0.10136906
000080 8e 45 46 be ef e6 33 be e4 d7 6f 3d 06 4b 90 3d
       -0.1936247 -0.17568563 0.0585555 0.070455596
000090 7e d1 30 3e b6 c1 1a be c2 1e b6 3e be ff 94 be
       0.17267415 -0.15112957 0.3557034 -0.29101366
0000a0 19 82 8a bd 8a 37 01 3e 2c e6 a3 bd 65 da 63 be
       -0.067630954 0.12618843 -0.08002886 -0.2225128
0000b0 a7 da 33 3e 99 9a 57 3d 43 f2 15 3d 06 ad df bd
       0.17563878 0.05263767 0.036607992 -0.109216735
0000c0 ba 75 98 3d 10 4a 95 3e c6 09 8e 3d fe e9 1c be
       0.074443296 0.29158068 0.06935458 -0.15323636
0000d0 3b a2 25 be 97 a6 b6 3d 4f be f9 3d b8 a6 c4 3d
       -0.16175167 0.08918493 0.121945016 0.096021116
0000e0 44 4c 4c be ab fd 2c 3d 16 4a dc 3d b3 af 56 3c
       -0.19950968 0.042234104 0.10756318 0.013103413
0000f0 7c 7a 1a 3e 60 16 05 bd ba c5 78 3d fb 4e 1c 3e
       0.15085787 -0.03249204 0.06073544 0.15264504
000100 23 1e cc bd 52 11 19 be 1c 8c 54 3a 5d 7b 37 be
       -0.099666856 -0.14948013 0.0008108036 -0.17918153
000110 e0 0b be 3d 4e 6a 27 be 70 f5 85 3d c8 2d b4 bc
       0.09279609 -0.16349146 0.06540954 -0.021994486
000120 96 b1 a0 3a ee e9 35 be e6 84 f7 3d 80 85 a9 3d
       0.0012259956 -0.17765018 0.12085895 0.08277416
000130 d8 70 e5 3d 4f ab 0d 3d b5 45 68 bd 33 a8 fd 3d
       0.11203164 0.0345872 -0.056707103 0.12385597
000140 56 ee 38 3e 05 9b 58 3e 42 64 9d bd b8 7a 3b be
       0.18059668 0.21152885 -0.07685138 -0.18308532
000150 fe 5f 6b 3e 2c 79 da 3d b4 f3 41 be 9c 89 63 be
       0.22985837 0.10667643 -0.18940622 -0.22220463
000160 38 45 07 3e 73 da bc 3d 26 38 27 3e 30 fc 9f 3d
       0.13209999 0.092213534 0.16330013 0.07811773
000170 65 bb fa bd b3 a6 0f 3d f5 57 04 bd c9 b9 94 bd
       -0.12242774 0.035071086 -0.032310445 -0.07261998
000180 a8 00 cc 3d fc a4 78 3d 17 ab 40 3e 90 be b0 ba
       0.09961063 0.060704216 0.18815266 -0.0013484526
000190 07 7d 81 3e 6b a8 45 be 91 66 50 bd 5d c7 68 3d
       0.252907 -0.19302528 -0.050879065 0.056830753
0001a0 e5 98 4c bd 61 48 74 be 9d 83 d1 3c 21 4d 99 3d
       -0.0499505 -0.23855735 0.025575453 0.07485414
0001b0 9a 0a 77 be 88 58 c9 bd 0d 6d 14 3e c4 3d 26 3e
       -0.24125138 -0.09831339 0.14494725 0.16234499
0001c0 4b d8 b1 3d 1f b3 57 bd 53 bc 49 bd f5 35 3c be
       0.08683833 -0.052661058 -0.049251866 -0.18379958
0001d0 7e 45 eb bd 0b 47 5b 3d ee e3 98 bd b2 bb 93 bd
       -0.11487864 0.05353455 -0.07465349 -0.072135344
0001e0 f9 e7 32 3e 2d 27 d4 3b 86 fc 67 3e 4f e7 47 3e
       0.17471303 0.0064743967 0.22654924 0.19521831
0001f0 4b f7 8f bd 08 c6 0e be 8e 48 ac 3d eb 29 53 be
       -0.07029589 -0.1394273 0.08412276 -0.20621459
000200 3f 1d d0 3d 2b 4d a5 3d 5f d7 8f bc 4c 65 74 be
       0.10161828 0.08071359 -0.017558752 -0.23866767
000210 b3 23 86 3d 04 09 55 3d 29 b6 ac 3e fc 57 30 3e
       0.06549778 0.05201055 0.33732727 0.17221063
000220 8f eb 3d bd 4e bf d2 bd f7 23 a3 3d 0d 12 ce bd
       -0.046367224 -0.10290395 0.07965844 -0.10062037
000230 d6 77 88 be 52 fe 4f 3d 44 8f fd bd 66 1b 96 be
       -0.26653928 0.050779648 -0.123808414 -0.29317778
000240 79 69 c9 3d cd 56 11 be c7 a8 8b be f8 82 b0 3d
       0.098345704 -0.14193268 -0.27277204 0.0861873
000250 3a d7 76 3e b1 d5 9f 3c f3 b6 c0 bd 60 5d 71 be
       0.2410554 0.019511076 -0.09409895 -0.23570776
000260 e5 af 81 bd 73 a7 0c bd ac 31 99 3d 35 8f f9 3d
       -0.06332377 -0.03433938 0.07480177 0.12185518
000270 01 39 58 be 96 36 27 be 45 8a 9c 3c 90 cf 0e 3d
       -0.21115495 -0.16329417 0.0191089 0.034865916
000280 eb ab 67 be 77 d5 f8 3c 5d 97 a8 3e 78 5b ed 3d
       -0.22624175 0.030375225 0.3292798 0.11589712
000290 f1 e2 38 bd 31 9e b3 bd 9c 6a 92 3c 03 cf b8 bd
       -0.045138303 -0.08770407 0.017873101 -0.09023859
0002a0 c9 e2 17 be db 4a d5 bd 82 c6 0c 3d 20 85 81 bd
       -0.14832605 -0.10414668 0.034369 -0.0632422
0002b0 81 a5 f1 bc b7 47 3e 3e 1e 72 a3 3c 7e 3c 5d be
       -0.029497864 0.18582045 0.019951876 -0.21605107
0002c0 2d b7 1a be 56 01 ba 3d 90 1a d2 3c 09 e1 12 bd
       -0.15108939 0.09082286 0.025647432 -0.03585914
0002d0 7e 03 81 be 55 0f 2b be 8e 3b aa 3d 07 51 0a be
       -0.25197977 -0.16705067 0.083121404 -0.13507472
0002e0 28 08 9f 3e c7 66 19 3e 31 93 90 3e ec a0 2f 3e
       0.3106091 0.14980613 0.28237298 0.1715123
0002f0 37 95 19 be f9 85 a5 3d 36 31 49 3e 5c 3b 96 bc
       -0.14998327 0.08082194 0.19647679 -0.018338852
000300 36 9f e1 bd 29 60 92 bd 0b e5 41 be 60 0f df bd
       -0.11016695 -0.07147247 -0.18935029 -0.108916044
000310 f5 6d 64 3e 66 53 38 3e 81 7c 12 be 06 50 bf bd
       0.2230757 0.18000564 -0.14305307 -0.09341435
000320 cb 97 a3 3b aa f6 36 3e 2a ac 1a 3e 88 ca 10 be
       0.0049924604 0.17867532 0.15104738 -0.1413976
000330 f4 3e 85 bc bb a7 78 3e 8c 62 1d be 20 1a 2e be
       -0.01626537 0.24282734 -0.15369624 -0.17002153
000340 2d d6 ea 3d 04 a1 9f bd 88 bb ec 3c 61 c9 f3 bc
       0.11466632 -0.07794383 0.028898016 -0.02975911
000350 4f b5 83 bd 71 e4 89 bd 51 4b b2 bd 47 6a d1 3d
       -0.06431066 -0.06733025 -0.08705772 0.10225349
000360 a1 41 33 be c3 09 16 3e 68 df 31 3e 6a 61 28 3e
       -0.17505504 0.14652161 0.17370379 0.1644341
000370 d1 a3 76 bb 88 dd 5a be d8 47 f7 3d d0 75 47 be
       -0.0037634263 -0.2137357 0.1207425 -0.19478536
000380 85 30 4c be 2a d0 04 be 24 85 25 3e eb 86 0c 3e
       -0.19940384 -0.12970033 0.1616407 0.13723342
000390 3b e3 3a be 0a 86 f8 3d 91 2c 88 3e b8 a8 37 3e
       -0.18250744 0.12134941 0.265965 0.17935455
0003a0 1e c8 84 bd 82 ed ac bc dc 33 d1 3d be 19 3a 3e
       -0.06483482 -0.021109346 0.102149695 0.18173882
0003b0 0b a8 e0 3d fe b3 2c 3c 04 e3 4c 3e e3 bf 94 3d
       0.10969552 0.01054096 0.20008475 0.07263162
0003c0 a4 09 34 be b0 22 26 be 55 aa 10 be 64 42 a2 bd
       -0.17581803 -0.1622417 -0.14127477 -0.07922819
0003d0 11 59 00 be b5 39 3d 3d 62 61 6e be 1c a8 2c 3e
       -0.12533976 0.04619761 -0.23279336 0.16861004
0003e0 ee df 33 be 4f a6 cf 3c 55 92 56 3d e0 e2 1d be
       -0.17565891 0.025347857 0.052385647 -0.15418577
0003f0 bb e8 c3 bd 9d ce 61 3d 77 b7 45 be cb f7 47 3e
       -0.09565874 0.055128682 -0.19308268 0.1952812

layers.0.bias f4 [64]
000000 e7 77 cd 3d 81 e2 19 3d 56 1e ed 3d d1 d1 e7 3d
       0.10032635 0.037569527 0.11578052 0.11319316
000010 9b e5 35 be 67 25 28 be 6f 41 dd 3d 0d e1 c0 3d
       -0.17763369 -0.16420518 0.10803496 0.09417925
000020 65 20 7f 3d 38 65 39 3e 61 ae 1f be d5 ff 7f bd
       0.062286753 0.18105018 -0.15593864 -0.06249984
000030 9c 2b c8 3d 5b 68 e8 3d f4 f9 0c be 0d 5f cd 3c
       0.09773943 0.11348029 -0.13767225 0.025069738
000040 4d db de 3d a0 4b ad 3c 09 4c 90 bd ec 2f 8e bd
       0.10881672 0.021154225 -0.070457526 -0.06942734
000050 64 a7 7d 3d e4 92 af bd f0 b5 d4 3d 6d b1 ee 3d
       0.061927214 -0.08572939 0.10386264 0.11654935
000060 45 c5 30 3e 77 00 b6 bd e8 08 45 3e eb 91 37 3b
       0.17262752 -0.088868074 0.19241679 0.0028010558
000070 a6 f3 90 bd ed 30 82 bc e2 cc 90 bd 11 ae b4 bd
       -0.07077722 -0.01589247 -0.07070328 -0.08822263
000080 7b 6c ce 3d 93 a4 8a be 0c ef 04 3d a1 9b 33 be
       0.10079285 -0.27078685 0.032454535 -0.17539836
000090 0e 37 a3 bd f8 69 05 3d 7f c9 66 3e c8 a9 0e bd
       -0.07969485 0.032571763 0.22537802 -0.034829885
0000a0 a9 d6 56 bb fa 2c 7f 3e 13 02 5a 3a 12 ac 9b bc
       -0.0032781756 0.24919501 0.0008316349 -0.019002948
0000b0 9f c9 88 3c f0 9b ce 3d df f0 39 be 16 b2 20 bd
       0.016697703 0.100883365 -0.18158291 -0.039232336
0000c0 0b 1c 85 3d 21 11 e5 3c c4 b6 55 3d 47 c1 38 3d
       0.064994894 0.02796227 0.052176252 0.0451062
0000d0 f8 b7 93 3d 93 41 ac bc e9 69 bf bd 86 7f a2 3d
       0.07212824 -0.021027362 -0.09346373 0.079344794
0000e0 8c 0f 81 be 56 81 fb bd 91 52 f4 bd 34 e3 2e 3c
       -0.25207174 -0.12280528 -0.11929811 0.010674287
0000f0 36 51 3d bd 44 99 6f 3d e1 c5 70 bd 98 07 8e bd
       -0.046220027 0.058495775 -0.058782462 -0.06935042

fc_out.weight f4 [2, 64]
000000 26 b0 2c be 09 9a 46 3e 7d 45 96 3e bf 24 a2 bc
       -0.1686407 0.19394697 0.2934989 -0.019792913
000010 82 dd 90 be 17 20 da 3e bd d8 94 bd af 9a ae be
       -0.28293997 0.42602608 -0.07267902 -0.3410239
000020 ff 5f 1d bd af cb bf be db 2a 54 be 04 39 8b bc
       -0.038421627 -0.37460086 -0.20719473 -0.01699496
000030 05 9e 39 be 9b 61 54 3d 85 53 5b be f9 1c ee bd
       -0.18126686 0.051850896 -0.21418579 -0.1162662
000040 b6 0c cb 3c 79 86 1e 3d 1b be 31 bd 2a c4 aa 3e
       0.024786334 0.038702462 -0.04339419 0.33352786
000050 17 8a 25 3d fb 7d 41 3e 6c 8c 9e 3e b7 21 45 be
       0.040414896 0.18895714 0.30966508 -0.19251142
000060 cd 17 0b 3e 5f 8c 05 bd 01 44 27 3e b8 25 9e bd
       0.13583298 -0.03260457 0.16334535 -0.07722038
000070 ec 46 58 be 69 dc a4 bd 23 1d 8e be 7e 89 d3 bc
       -0.21120805 -0.080498524 -0.27756605 -0.025822397
000080 2d 32 ba be 61 c6 bc be 14 39 d1 bd 31 6a 8d bd
       -0.36366406 -0.368701 -0.10215965 -0.0690502
000090 12 df 08 bc d9 a2 34 3e af 84 c0 3e 9d 09 cc 3d
       -0.008353965 0.17640246 0.3760123 0.09962771
0000a0 48 5b 74 bd 8b a0 a1 3e 22 6f 09 be c2 a9 29 3e
       -0.059657365 0.31567797 -0.134213 0.16568664
0000b0 19 5c 2f 3e 4e b1 1a 3e 64 78 9d bd a2 57 82 be
       0.17124976 0.15106699 -0.07688978 -0.25457484
0000c0 6e 4a 02 3e ab 1b 0d 3e 94 f6 b9 3e f5 2f 87 bc
       0.12723705 0.13780086 0.36320937 -0.01650236
0000d0 71 f1 64 3e d7 34 d0 3d 54 01 2e bc b9 2e 85 be
       0.22357728 0.101663284 -0.010620434 -0.2601221
0000e0 01 a3 5f be 05 17 5e be 05 ee 78 be 03 b5 d3 3d
       -0.21839525 -0.21688469 -0.24309547 0.103372596
0000f0 b0 0b da bc 77 31 ab 3d 31 e3 bb bc e5 94 60 be
       -0.026616901 0.08359044 -0.022935482 -0.21931799
000100 e4 de f8 3b b0 83 08 3e 45 6d 8a bd c3 23 06 3e
       0.00759493 0.13331485 -0.06759123 0.1309958
000110 38 7d 37 be 15 b9 7e bd 14 d3 99 3d 61 a3 77 bd
       -0.17918861 -0.062188227 0.07510963 -0.060458545
000120 42 41 69 3d ab 3b 40 3b 76 b9 02 3e 9a 46 e5 3d
       0.056947 0.002933244 0.1276606 0.11195107
000130 56 87 de 3c 6d 0f 26 3d d9 31 9d bd 48 ad f9 bd
       0.027164143 0.040542055 -0.07675523 -0.12191254
000140 cc 71 1e 3c b5 b7 4e bc ac 54 f9 bd 02 08 e1 bc
       0.009670686 -0.012617041 -0.12174353 -0.027469639
000150 b3 6c f3 3c 18 d9 64 3d 5c 18 6a bd 39 17 46 bd
       0.029714918 0.0558711 -0.057152137 -0.04836199
000160 9e 0b 26 be 1e f1 18 3e 20 b1 7c 3e 78 0f 0f bd
       -0.16215369 0.14935729 0.24676943 -0.03492686
000170 9b b0 79 3d c0 82 ba 3d 72 f5 45 3e 5d 21 f7 bd
       0.06095944 0.0910697 0.19331911 -0.120669104
000180 86 8a 11 be 29 77 16 3e fd 47 c5 bc 9f f2 90 be
       -0.14212999 0.14693893 -0.024082178 -0.28310105
000190 12 f9 85 3c d2 bd 9e 3d 7c 1a f3 bc 97 0e 28 bd
       0.016354118 0.07751049 -0.029675715 -0.04102954
0001a0 4e f3 0b 3e af 53 58 be 3b 64 8e bc 4f 9c 1e 3e
       0.13667032 -0.21125673 -0.017381778 0.15489314
0001b0 38 97 d1 bd 3b 57 f9 bb d7 cb 99 be 8e 6b 2a 3e
       -0.10233921 -0.0076092756 -0.3003833 0.16642591
0001c0 22 df 82 3d 13 a8 16 be a3 7b 23 be 8d d4 f5 bd
       0.063902155 -0.14712553 -0.15965132 -0.120034315
0001d0 61 14 c7 bd 8f 48 11 3e 26 09 02 3e 2e 21 1a 3e
       -0.09720684 0.14187835 0.12698802 0.1505172
0001e0 41 a2 c5 3d 8b 57 e7 bd 83 9e 2e 3e e1 aa 71 bd
       0.09650088 -0.11295994 0.17052655 -0.059000853
0001f0 dc 68 58 bd 05 a8 52 3e c0 43 cc bd a5 a2 47 be
       -0.052834377 0.20571907 -0.0997386 -0.19495638

fc_out.bias f4 [2]
000000 79 ef 6d 3d c3 35 00 bd
       0.058089707 -0.03130127
