trained_bsde_model_lq/d2_z_net_x0_is_-1.0.pth (torch, 21413 bytes, 6 tensors)

fc_in.weight f4 [64, 3]
000000 1e a3 b4 3d ad 71 92 3d b1 26 41 3e 28 51 1c 3e
       0.08820175 0.07150588 0.18862416 0.15265334
000010 dc 3d f7 3d 5d 0a 56 3d b4 3e 8f be 76 1a ea 3d
       0.120723456 0.052255977 -0.27977526 0.11430828
000020 90 27 9f bd 8e 16 62 3d 7d ff e1 bd 6e 49 91 3d
       -0.07771218 0.05519729 -0.11035059 0.07094084
000030 38 df 35 3d ce 79 bf bd dd ca 2a bd 12 9f d1 be
       0.04440233 -0.09349404 -0.04169737 -0.40941674
000040 10 25 81 3d 54 85 49 bd cf 77 5a bd 00 0f da 3d
       0.06305897 -0.049199417 -0.053336915 0.10647392
000050 85 03 34 3d f0 9d b5 3e f6 0c 9c bd ef f5 8c bc
       0.04394867 0.3547206 -0.076196596 -0.017207114
000060 4e c2 a1 be 89 85 11 3e 12 ac 0c bb 0a 43 41 3d
       -0.31593555 0.14211096 -0.0021464867 0.047183074
000070 31 63 01 3e 19 f1 20 3d 35 be ed bd c3 85 43 3c
       0.12635495 0.03929243 -0.11608545 0.011933747
000080 a6 0b d9 bd cf 0e 57 be d9 25 00 be 78 f1 03 bd
       -0.10597925 -0.21001743 -0.12514438 -0.032212704
000090 7b c4 d8 3e 61 05 6b 3b a0 39 cd 3d e7 c6 53 3e
       0.42337403 0.003586136 0.10020757 0.20681344
0000a0 a0 35 d2 bc c6 73 f2 3b 5c bf 7c 3e 9a 53 3b 3e
       -0.025660336 0.007399055 0.24682373 0.1829361
0000b0 3e bd a0 3d 0e 10 6c bd 61 59 32 be 1a 23 1b bd
       0.07848595 -0.0576325 -0.17416908 -0.037875272
0000c0 d8 84 10 be 7b 53 08 3e a2 ef 7a bd 19 55 b3 be
       -0.14113176 0.13313095 -0.061263688 -0.35025862
0000d0 4a b5 15 3c d5 9b 70 3d db 9b ce 3e 36 96 9f bd
       0.009137461 0.058742363 0.40353283 -0.07792322
0000e0 f5 0b 4c bd 7e 63 06 3f 50 78 78 3c ae d8 c6 bd
       -0.04981609 0.52495563 0.0151654035 -0.09709297
0000f0 c6 9e 10 bf 60 ac e3 3d b5 38 c0 3c f5 af 5f 3e
       -0.5649227 0.11116862 0.02346454 0.21844466
000100 51 2b 96 3d cc a2 0e be 8d 65 44 be ca fc 85 be
       0.07332481 -0.1392929 -0.19179364 -0.26169425
000110 16 48 d5 bd ea d1 f2 3d 92 8d 90 bd e5 0d a7 bc
       -0.1041414 0.11856444 -0.070582524 -0.020392368
000120 b0 7b 27 3e 07 f5 3c bd a4 81 48 3d 28 c0 93 3e
       0.16355777 -0.046132114 0.04895176 0.2885754
000130 96 e0 9e bd 00 2f a2 3d 54 09 7b 3e e2 82 0c be
       -0.0775768 0.07919121 0.24515277 -0.13721803
000140 c2 88 e6 bd b5 2e 00 be a6 bf af 3d 16 aa a1 bc
       -0.11256553 -0.12517817 0.08581476 -0.019734424
000150 fe 39 8b be 73 0f 91 bd 73 34 5e be 93 c4 92 3d
       -0.27192682 -0.07083025 -0.21699695 0.071664
000160 ca af 2e 3e 84 54 06 3c ec 24 1d 3f 90 76 3a bd
       0.17059246 0.008198861 0.61384463 -0.045523226
000170 5b 57 96 3d d2 54 23 3f ae fb bb 3c 49 57 ec bd
       0.073408805 0.638013 0.022947159 -0.11540086
000180 fb d1 8e be 15 e0 8c bd 77 1c ba 3d 48 45 e9 3b
       -0.27894577 -0.06878678 0.090874605 0.0071188547
000190 60 31 35 be 53 45 da 3b db 2b 01 3f 63 8a 1c 3e
       -0.17694616 0.006661096 0.50457543 0.15287165
0001a0 fa d0 e6 bc 6b aa 52 3e 1c 38 2b be e1 b6 20 bd
       -0.02817582 0.20572822 -0.16720623 -0.039236907
0001b0 23 f2 4b bf 37 d6 c6 bc f6 dc 12 bd dd bf 9f 3d
       -0.79666346 -0.024272067 -0.035855256 0.07800267
0001c0 e5 e3 96 bd dc 7c b0 3a ad 94 68 3d 97 c0 9b 3d
       -0.07367686 0.0013464945 0.056782413 0.07605093
0001d0 b0 d6 a0 bd a2 c2 ec bd 51 bb dd bd 40 68 18 3d
       -0.078534484 -0.11560561 -0.108267434 0.037208796
0001e0 f8 0f b6 be da b1 a4 bd f0 d2 5c 3d 2d 9a 89 bc
       -0.35559058 -0.08041735 0.053912103 -0.01679715
0001f0 d8 ef ca 3d d4 0b 48 bd fc 5a 83 3e 52 19 bb bd
       0.09909028 -0.048839405 0.25655353 -0.09135689
000200 5e 50 24 bd 3c 4f e5 bd 5f 38 35 3e d5 ca 9b bc
       -0.040115707 -0.111967534 0.17697285 -0.019017616
000210 b3 be f5 be 5c 52 1d 3d ae 32 a7 bb 9f 4a 60 be
       -0.47997054 0.038408622 -0.005102477 -0.21903466
000220 2d c5 04 bd 66 d9 c3 bd 10 86 84 be 4d 94 2a 3e
       -0.032414604 -0.0956295 -0.25883532 0.16658135
000230 7f 64 67 3d 0f 7b 09 bf b6 fe 4e bd e0 26 9f 3d
       0.056492325 -0.537034 -0.05053588 0.07771087
000240 12 4c d9 be 84 c7 d5 b9 02 61 29 bd bf ef b4 bd
       -0.4244085 -0.00040775177 -0.04135228 -0.088347904
000250 c9 2a a6 b8 f2 22 92 3c 9e 84 4d 3e 34 ea 07 3e
       -7.923466e-05 0.017838929 0.2007012 0.13272935
000260 0e 9f 25 bd 2c 8e 93 be b4 05 88 bd 4b ed f3 bc
       -0.04043489 -0.28819406 -0.06641713 -0.029776236
000270 00 3e c3 be 97 d4 c3 ba 67 81 9c bd 7a 7f 38 3e
       -0.3813324 -0.0014940676 -0.07641869 0.18017378
000280 84 af 41 3d b9 fc db 3c 21 0e e9 3b 27 b7 23 be
       0.047286525 0.026853906 0.00711228 -0.15987836
000290 80 89 37 bd 01 e5 25 3d d1 be a2 bd 9e b2 1c 3e
       -0.044808865 0.0405016 -0.079465516 0.15302512
0002a0 6c d6 d2 be 62 14 c3 bd c6 13 36 bd 17 ff f9 be
       -0.41179216 -0.09525372 -0.04445245 -0.4882743
0002b0 33 0a d7 3c 2c 41 a3 bb b5 69 ff 3d 53 17 d7 3d
       0.02624998 -0.0049821343 0.12471334 0.105024956
0002c0 72 5f 23 be d3 24 e2 3e 3d ba ad bd d8 39 c6 bb
       -0.15954378 0.4416872 -0.08482788 -0.006049376
0002d0 9a f7 a2 3e fb ff 68 bd 78 3e ee 3d 2d e1 aa bd
       0.3182953 -0.056884747 0.11633009 -0.0834373
0002e0 1f 71 8f 3d e6 63 f9 3c 47 13 ac be ae 9d 11 be
       0.07003998 0.030443143 -0.33608457 -0.14220306
0002f0 11 37 cd 3d ab 4d 7a be 79 19 15 be e6 85 82 3d
       0.10020269 -0.2444369 -0.14560498 0.06373195

fc_in.bias f4 [64]
000000 09 b6 ad be 18 f1 86 be b4 f5 ab 3e 38 dd 90 bd
       -0.33927944 -0.26355815 0.33585894 -0.07073444
000010 32 95 64 3d f3 4a da 3e 80 92 b8 3e 74 22 c6 be
       0.055806346 0.42635307 0.3604927 -0.3869816
000020 14 af 1e 3f f6 2d 60 3e 1a a0 5a bd b2 69 8c 3d
       0.619859 0.21892533 -0.05337534 0.06856097
000030 3c 62 96 be 97 27 0a 3e d9 8a f6 be 70 f4 2e 3d
       -0.29371822 0.13491665 -0.48152807 0.042713583
000040 37 61 9d 3e ae 81 b9 3e 65 a9 fe be 65 67 06 bf
       0.30738232 0.3623175 -0.49738613 -0.5250152
000050 12 9e 3d 3f 71 8e 6a 3e b4 6e 54 3c d5 b3 3b be
       0.7406932 0.229059 0.012965847 -0.18330319
000060 5a 3b 85 bc 70 2d d9 be 26 35 1e bf b3 8e 0e be
       -0.016263653 -0.4241748 -0.6179985 -0.13921623
000070 13 ee 25 3f b1 68 76 be bc 92 2e bf 71 70 15 bf
       0.648164 -0.24063374 -0.6819265 -0.58374697
000080 89 73 df 3d 02 2e f9 3d 88 24 2b bf 24 21 06 bf
       0.109107085 0.121669784 -0.6685262 -0.5239432
000090 4c 0a 1f 3f cd 2a 36 be a6 bd ca be f5 96 07 3c
       0.62125087 -0.17789765 -0.39597815 0.008275737
0000a0 ee 4b 40 ba b8 4d 8a 3e 29 6b c2 be d5 c0 f1 bd
       -0.0007335533 0.2701242 -0.37972382 -0.11804358
0000b0 1a a9 d5 3e 34 0d a7 3d 5a e2 26 3f 7f 8d fc 3e
       0.41730577 0.08156815 0.65189135 0.49326703
0000c0 23 88 2c 3e 58 3b 94 3e 4a d1 25 bc 57 92 f7 3d
       0.16848807 0.28951526 -0.010120699 0.12088459
0000d0 41 4e e1 3e ea ca 3d bd 29 16 cd 3d b3 82 a6 be
       0.44005015 -0.046336092 0.10013992 -0.3252159
0000e0 94 f9 9f 3e 0a 46 c1 3e be 9f 2e bf 92 6d 04 bf
       0.312451 0.37748748 -0.682125 -0.5172969
0000f0 69 b8 9a be 65 d3 d4 bd bf f3 08 3e 33 a4 9f 3e
       -0.3021882 -0.10391883 0.13374232 0.31179962

layers.0.weight f4 [64, 64]
000000 00 f6 82 3e f6 f0 56 3e d4 c0 48 be 07 ec 4b bd
       0.25578308 0.20990357 -0.19604808 -0.04978564
000010 ce 02 81 be c6 80 aa be 92 ff 1d be f3 65 40 3e
       -0.25197452 -0.3330137 -0.15429524 0.1878889
000020 5f 67 82 be 50 b3 54 3d a0 93 38 3e 68 fe 97 be
       -0.2546949 0.05192882 0.18025064 -0.29686284
000030 8d e7 8c 3e 35 4f 76 be 1d ff 74 3e b8 97 d8 3d
       0.2752041 -0.24053653 0.23925443 0.10575813
000040 13 9d 93 bd 63 05 00 3d 12 1f a6 bd 0f f9 9e 3e
       -0.07207694 0.031255137 -0.08111395 0.31049392
000050 c4 49 70 be 14 dc 1e 3c 21 95 86 be 59 a0 ff 3d
       -0.2346564 0.009696025 -0.2628565 0.12481756
000060 ed 99 fa bd 09 ae 2e 3d e0 04 c7 3d 5c 08 1f bd
       -0.1223639 0.04264644 0.09717727 -0.03882633
000070 86 aa 9c be 04 b7 97 3e ba 3f 86 bb 07 ec e8 3e
       -0.3059885 0.29631817 -0.0040969523 0.45492575
000080 89 a3 57 be d9 f8 8f be f1 9e 4d 3e 6a c7 53 3d
       -0.21058477 -0.28119543 0.20080163 0.051703848
000090 27 01 31 be 05 57 08 3c 60 8e 59 3d 2f 38 53 be
       -0.17285596 0.008321528 0.053114295 -0.20626901
0000a0 e9 a8 0c bd 22 02 ce 3d 22 18 cf 3d 74 48 69 3b
       -0.034340773 0.100590006 0.10112025 0.0035596164
0000b0 39 8a 55 be 1d f7 e2 bd 6a bb f7 bd 2c 92 9b be
       -0.20853509 -0.11082289 -0.12096293 -0.30384958
0000c0 64 c1 8b be de 16 9a be 02 30 90 3d 9c ca ff bd
       -0.27295983 -0.3009557 0.07040407 -0.124898165
0000d0 60 ee 79 bc da f7 86 bd 7c bf 21 be 9c a7 8e 3d
       -0.015254587 -0.06590243 -0.15795702 0.06965563
0000e0 b8 a3 f1 bc e3 a2 2a bf f4 1f 9a 3e 8c 0f 8a 3e
       -0.029497012 -0.66654795 0.30102503 0.26964986
0000f0 ab 2c d8 b9 55 2e 00 3e 51 ed 76 be d2 63 eb bc
       -0.0004123201 0.12517674 -0.24113967 -0.028734121
000100 37 cd 90 3d 83 1a 60 3e 91 80 af bd a6 f9 b0 3c
       0.070703916 0.21885113 -0.08569444 0.021603417
000110 ae 63 11 be bc 93 1d 3e 40 53 64 3e 4e e7 21 bd
       -0.14198181 0.15388387 0.22297382 -0.03952723
000120 d7 67 a3 bd d6 5c e7 bd 76 45 05 3e d7 ae 3d be
       -0.0797879 -0.11297004 0.13014778 -0.18523727
000130 4c fd 25 be e4 2d 3b be 2c c9 39 bd ac 74 20 be
       -0.16209906 -0.18279225 -0.045357868 -0.15669507
000140 2b 70 a2 bc b9 b6 d2 bd 4f f8 cc bd 31 ec 96 bc
       -0.019828876 -0.10288758 -0.100082986 -0.018423172
000150 25 70 0c be d2 fa 67 be 7f 15 87 bd 6b 58 1d 3e
       -0.13714655 -0.22654274 -0.06595897 0.1536576
000160 00 dd 85 3c d9 e7 0c be 59 1d e3 3c fa 3a 03 3e
       0.016340733 -0.13760318 0.027723955 0.12815467
000170 16 b0 73 bd eb d5 1c be cc 87 b4 bc 33 e5 33 3e
       -0.0594941 -0.15315978 -0.02203741 0.17567901
000180 95 88 92 3d a9 b2 f2 3d 04 e9 70 3c 4c 2d c2 bd
       0.07154957 0.11850483 0.014703993 -0.09481296
000190 aa d7 49 3e d6 43 80 bb f2 c7 df bd a9 ac 5d 3e
       0.19711176 -0.0039143367 -0.109268084 0.21647896
0001a0 cc c9 4a be db aa 87 bc 84 0f 84 be dc 70 a6 3d
       -0.19803542 -0.016560962 -0.25793087 0.08126995
0001b0 27 10 27 bc de 9d 3b be d9 f4 0b 3e 5b 32 2a bd
       -0.010196722 -0.1832194 0.1366762 -0.04155193
0001c0 52 9c a2 bd 78 88 0c 3e 7c 7a 39 3e 58 a0 10 3e
       -0.07939972 0.13723934 0.1811313 0.14123666
0001d0 df 01 42 3e 2e 48 38 3e 96 f9 2f 3e 49 6c 26 be
       0.18946026 0.17996284 0.17185053 -0.16252245
0001e0 97 fe 02 be f6 b1 52 3e d7 7e 98 3d 34 6c 8f be
       -0.12792431 0.20575699 0.07446068 -0.2801224
0001f0 3f 79 2f be b6 5c 01 be ad 71 15 be ac fd 38 3e
       -0.17136095 -0.12633023 -0.14594145 0.18065518
000200 41 b3 8f 3c de 26 c1 3d af 4a c4 bd df 88 93 3d
       0.01754153 0.094312415 -0.09584557 0.072038405
000210 6b 93 d9 3b 99 9b 23 be 24 c5 52 3e a3 02 84 bc
       0.006639888 -0.15977325 0.20583016 -0.016114539
000220 a6 c1 92 3b f8 bf 62 3e 0a eb 45 3e 8b 1f 15 3e
       0.004478651 0.22143543 0.19327942 0.14562814
000230 92 11 97 3d 99 74 31 be 42 71 1a 3d 68 5a 7e be
       0.07376398 -0.17329635 0.037705667 -0.24839175
000240 48 88 8b 3e c9 9a 00 3d 60 05 0c be 30 29 10 be
       0.27252412 0.031397615 -0.13673925 -0.14078212
000250 ec 95 e8 3d 82 68 38 3e 16 e7 1e be ff ed 36 bd
       0.1135672 0.18008617 -0.1551784 -0.044660565
000260 3f 63 91 3d 81 5c 17 bd d1 e8 a0 bd 24 cd c1 bd
       0.07099008 -0.036953453 -0.07856906 -0.094629556
000270 fc 17 57 bd ee df e4 bd 48 fb ca bc ca 3b 3f 3e
       -0.052513108 -0.11175524 -0.024778023 0.18675151
000280 7b 2d 2d 3e 65 28 eb bd 75 a8 a9 bd 78 fd be 3d
       0.1691188 -0.11482314 -0.08284084 0.09325689
000290 d8 56 e2 3d a5 71 98 3d c1 b5 a3 3d 59 1b 83 be
       0.110517204 0.07443551 0.07993651 -0.25606802
0002a0 fe b5 5e be 91 82 f5 3d e5 a7 bf bb e4 87 82 3e
       -0.21749112 0.11987794 -0.005848872 0.254943
0002b0 ae f7 e1 bd 44 44 3b 3d 7b 2e be 3d ef 44 ae 3c
       -0.11033569 0.0457194 0.09286209 0.021273104
0002c0 4b c4 16 3e f5 a6 32 be a8 bc 9b 3d e0 60 40 3d
       0.14723317 -0.17446502 0.07604343 0.046967387
0002d0 78 ca 2a be bd 32 34 3e 73 34 92 bd 98 2e 42 3d
       -0.16678798 0.1759748 -0.0713891 0.047407717
0002e0 95 c0 a3 bd 81 89 4b be 06 1f bd bd ae 83 4a 3c
       -0.079957165 -0.19876672 -0.09234433 0.012360496
0002f0 63 dd 41 be d0 74 30 3e 71 53 dc bd 30 c2 1e 3e
       -0.18932109 0.1723206 -0.10758103 0.15503764
000300 70 18 92 3d b7 03 c5 3c 22 71 05 be 74 e5 e7 bd
       0.07133567 0.024049623 -0.13031438 -0.113230616
000310 92 75 16 be 56 7f 89 3d 80 d1 0d be 75 8e bb 3d
       -0.14693287 0.067137405 -0.13849449 0.09158031
000320 2e 03 80 be 16 c8 e1 bd 0e de d9 bd de 66 cb 3c
       -0.25002426 -0.110244915 -0.10638057 0.024829324
000330 31 31 58 3e bf 3f 6d 3d ff 5b 32 3e be 74 98 bd
       0.21112515 0.05792212 0.17417906 -0.07444142
000340 02 41 e1 bb 94 e1 ca bd c1 0e 92 3e 3d f8 45 bd
       -0.0068742046 -0.09906307 0.2852688 -0.04833244
000350 71 bb ab be 07 9b a7 bd d2 05 8a bd ce 19 88 3e
       -0.33541444 -0.08183866 -0.067393914 0.26582187
000360 cd ae a8 ba 8c f3 2e 3c b3 44 4f 3e 28 46 7d 3c
       -0.0012869478 0.010678183 0.2024105 0.015458621
000370 5a 9c 43 be 3c 9b 43 be a8 d1 c2 bd c5 c4 16 bd
       -0.19102612 -0.19102186 -0.09512645 -0.036808748
000380 9e 04 68 be 24 0f 11 3e 42 2b 4b be b9 1f 96 3e
       -0.22658011 0.14165932 -0.1984072 0.29321077
000390 62 df fa bc 92 00 29 3e c2 33 b8 3d 9a ae 6a 3d
       -0.030624095 0.16504124 0.08994247 0.05729542
0003a0 5b 1b 75 be a8 ec 41 3e d7 71 a2 bd 81 0c bd bc
       -0.23936217 0.18937933 -0.079318695 -0.023077251
0003b0 06 41 9d bc 6b ae 1c be 83 d9 b3 be 8c f1 ba 3d
       -0.019196045 -0.1530091 -0.35126886 0.09128103
0003c0 99 9c a7 3a a1 fa 0a be 57 b5 58 3d 57 9a 03 be
       0.0012787759 -0.1357217 0.052907314 -0.12851845
0003d0 66 2b 22 3e bd 12 34 39 d7 e0 ec 3c 98 bc f5 3d
       0.15836868 0.00017173118 0.028915806 0.11998862
0003e0 15 79 f3 3b e6 b7 b4 be 71 e8 50 be cb 0c 72 3e
       0.0074302056 -0.35296553 -0.2040117 0.23637693
0003f0 4c 25 17 bd 2b 36 5d be 47 78 1c bd a0 25 34 bd
       -0.036900803 -0.21602695 -0.038200643 -0.043981194

layers.0.bias f4 [64]
000000 bb e6 45 be 56 1b 9b bd 6f 22 cc bd 96 c8 f5 bd
       -0.19326298 -0.07573573 -0.09967505 -0.12001149
000010 08 8d 33 3d 0e e7 1d be 49 cf ea 3b a8 e9 3c bc
       0.04383567 -0.15420172 0.0071658236 -0.011530317
000020 c7 da 43 bd 97 ab 12 be 5a 6b 94 3c 15 28 41 3d
       -0.047816064 -0.14323269 0.018117595 0.047157366
000030 61 94 47 bd 0c 46 66 3e b5 32 6d bd a3 87 f5 bd
       -0.04872549 0.22487658 -0.057909686 -0.11988761
000040 87 ef fa 3d a3 b6 b2 3e cf 63 f6 3d 14 fd bc 3d
       0.122527175 0.34904966 0.12030756 0.09227958
000050 f7 1d 48 bc 5f b7 b7 3d 9d 9e 5c 3d df 41 03 be
       -0.012214175 0.08970522 0.053862203 -0.12818097
000060 0c 9d cc bd d9 67 0e be a6 f3 b2 bd 17 f9 6f 3d
       -0.09990892 -0.13906802 -0.087378785 0.05858716
000070 2f a9 19 be 3f b3 86 3d b9 de 24 3d ab 2e 29 3e
       -0.15005945 0.06577157 0.040251467 0.16521709
000080 d9 d5 c8 3c 24 d7 e1 3d ef ff 22 be ef 5a ff 3a
       0.024516033 0.11027363 -0.15917943 0.0019482056
000090 f6 8b af bd e9 3b dc bd 8b 6d d4 3c 22 a1 f9 bd
       -0.08571617 -0.107536145 0.02593114 -0.12188937
0000a0 59 9c f6 bd 7e 33 23 bd cc 00 e4 bb 92 57 73 be
       -0.1204154 -0.03984403 -0.006958103 -0.23763874
0000b0 e5 7a bb 3c 0a 27 f6 bd f2 d4 3e bc 5a 95 d1 3d
       0.02288575 -0.12019165 -0.01164745 0.10233565
0000c0 8b 92 ee 3c b5 21 a8 bd 46 ea 71 bd b0 2c 55 be
       0.029122612 -0.08209554 -0.05906131 -0.20817828
0000d0 19 4c 33 be 04 da 46 bc c8 96 60 3e f3 5d 99 3d
       -0.17509498 -0.01213694 0.21932518 0.074886225
0000e0 bd 7a df bc e8 04 d8 bd 6c e7 36 3e 64 0f ea 39
       -0.027280206 -0.10547811 0.17861718 0.00044643425
0000f0 d3 19 c4 bd 0b 69 6b be 15 48 65 bd 06 b9 7d 3e
       -0.09575238 -0.2298929 -0.055976946 0.24777612

fc_out.weight f4 [2, 64]
000000 3b 7e 89 3e 6a 8c 58 3d 7f 0d 18 3e 26 3e 0d be
       0.2685412 0.052868284 0.14848898 -0.13793239
000010 e0 a1 f8 3c dc e4 19 be 46 40 03 3e d9 05 29 be
       0.030350626 -0.15028709 0.12817487 -0.16506137
000020 27 d5 be 3d 31 70 91 be 06 e9 8a 3d fc e2 8c 3e
       0.09317999 -0.28405908 0.06782727 0.27516925
000030 8b 0c 5a 3d 17 c0 8a 3e ca d6 2a bd a9 2a 1d 3c
       0.05323462 0.27099678 -0.041708745 0.0095926905
000040 af 6e f3 bd 60 14 ab be 0e c8 42 bd f9 50 36 3c
       -0.118863456 -0.33413982 -0.04755407 0.011127704
000050 56 4b 5f 3c 2d 4e a0 bd 0e 7b 73 3d 97 33 85 3d
       0.013628801 -0.07827411 0.059443526 0.065039806
000060 0a e3 a3 3d c4 2b 4d 3d f3 f4 e7 3d 06 a0 09 be
       0.08002289 0.050090566 0.11326017 -0.1343995
000070 29 6c ff 3d 23 e3 9b be c1 55 d9 3e 7d cd 58 be
       0.12471802 -0.3044673 0.42448238 -0.21172138
000080 f0 50 27 3b 3d ab 0f bd 74 8c 08 bf bf 87 8e 3e
       0.002553042 -0.035075415 -0.53339314 0.2783794
000090 fd 3f d7 bd d8 12 ca bc a4 8e d8 bd 2d 94 04 3e
       -0.10510252 -0.024667189 -0.105740815 0.1294715
0000a0 aa 84 9f 3c 51 d7 0a be 5e 1c a0 bd 43 b0 8e 3e
       0.019472439 -0.13558699 -0.078179106 0.27868852
0000b0 f6 69 1d 3e d8 f6 ad 3d f7 05 4f 3d b4 3e 2c 3e
       0.15372452 0.08494347 0.050542798 0.16820794
0000c0 19 46 44 3b f5 b7 6b 3d 12 da 66 3d 26 a7 6c 3e
       0.0029949008 0.057548482 0.05636031 0.23110637
0000d0 8a e0 8c 3e 7f c6 85 3c 87 94 fb 3e 06 e0 29 bd
       0.2751506 0.016330002 0.49136755 -0.04147341
0000e0 e9 fc 1c 3d b8 85 86 3e 91 87 94 be 04 4a 3b 3e
       0.03832713 0.26273894 -0.2900968 0.18289953
0000f0 b7 b9 24 3b b2 90 03 3e ef 54 a7 bc 95 ea aa be
       0.0025135109 0.12848166 -0.020426242 -0.33382097
000100 c3 31 79 3d 8b cb 06 bc ae b1 93 3c d8 c8 e9 bd
       0.060838472 -0.008227239 0.01802906 -0.11415261
000110 fc 97 00 3d 20 00 3f be b2 75 66 bc 44 b1 7f bd
       0.031394944 -0.18652391 -0.014066147 -0.062424913
000120 81 13 cf bd 7a 5e 93 3d 06 bd 17 3e a5 2c 6a be
       -0.10111142 0.07195754 0.148182 -0.22868593
000130 92 1b b5 ba f8 07 89 3d e2 9d 27 bd 37 0c f0 bb
       -0.0013817421 0.06690973 -0.040922053 -0.007325675
000140 b0 30 86 bd f0 4f e9 bd f3 61 11 3e 0e 25 cc 3d
       -0.06552255 -0.113922 0.14197521 0.09968005
000150 82 0c 65 bc a3 5a 13 3e 0f 33 fb bb 32 8b e6 3d
       -0.013980033 0.14390044 -0.007665999 0.11257018
000160 ee b4 15 3e bc 31 83 bc 2a 77 f2 3c 31 08 83 bd
       0.146198 -0.016014926 0.029597837 -0.06398047
000170 7d 06 58 be 68 98 54 be ea 25 36 be 40 cd 1a be
       -0.21096225 -0.20761263 -0.177879 -0.15117359
000180 65 6e 1f be e6 6c 76 3d 72 5e 50 bd b4 74 72 be
       -0.15569456 0.060162447 -0.05087132 -0.23677331
000190 55 59 df bb 24 d1 1d 3d b1 7b 62 3d 48 75 d1 bd
       -0.006816069 0.03852953 0.055293743 -0.10227448
0001a0 a6 be bd bd 6c 7e 87 bd 53 9f 1d 3e 1e 6a 90 bd
       -0.09264879 -0.0661591 0.15392809 -0.0705149
0001b0 c8 40 d5 bd 27 73 a5 bd 37 61 95 3d 83 a4 54 3e
       -0.10412747 -0.08078604 0.07293933 0.20765881
0001c0 8b aa 76 3c b4 a9 81 3b af 73 be bb 44 f6 cc 3d
       0.015055309 0.0039569978 -0.0058121304 0.10007909
0001d0 16 c0 8e be 97 56 34 3c 83 e0 fe 3c 33 cf 86 3b
       -0.27880925 0.011006973 0.031112915 0.0041140555
0001e0 a3 f8 40 3e a5 d5 9e 3c e7 79 0c bd 9b c3 e7 bd
       0.18844847 0.019388983 -0.034295943 -0.11316606
0001f0 ce de 55 bb 84 5d 33 3e bd 44 25 be 2b 29 1d 3e
       -0.0032634023 0.17516142 -0.16139503 0.15347736

fc_out.bias f4 [2]
000000 8a 38 27 be 28 64 e3 bd
       -0.16330162 -0.11103088
