trained_bsde_model_lq/d2_z_net_x0_is_1.5.pth (torch, 21401 bytes, 6 tensors)

fc_in.weight f4 [64, 3]
0	0x3da7426b	0.08166965
1	0x3e0fdfb7	0.14050184
2	0x3b4bf61e	0.003112204
3	0xbdfc94bb	-0.123330556
4	0xbd06c7b6	-0.032905303
5	0xbd799200	-0.060930252
6	0x3e069d49	0.13145937
7	0x3dd69965	0.104784764
8	0x3d914f4d	0.070952035
9	0x3cc18446	0.023622643
10	0xbe24a108	-0.16077054
11	0x3cf2c3fe	0.029634472
12	0x3e36837d	0.17823596
13	0x3e01fb67	0.12693559
14	0x3d3fd8a3	0.04683746
15	0x3eee4121	0.46534064
16	0x3d572b8c	0.052531764
17	0xbc946cd8	-0.018118307
18	0x3daab3c2	0.08335067
19	0xbdd4f432	-0.10398139
20	0xbcc2971d	-0.023753697
21	0xbf40fade	-0.7538279
22	0x3de25dfa	0.11053081
23	0x3de78944	0.11305478
24	0x3e8e536c	0.2779802
25	0x3dd4e12a	0.10394509
26	0x3c6e6183	0.014549616
27	0x3eb0efc8	0.3455794
28	0xbd0a586b	-0.03377573
29	0x3d3baa5d	0.045816768
30	0xbd309019	-0.043106172
31	0x3e4c9ca7	0.19981633
32	0x3d63bd99	0.055600736
33	0x3db32280	0.08746815
34	0xbdf86898	-0.12129325
35	0x3c029185	0.007969265
36	0xbde70c13	-0.112816
37	0xbbd53cf1	-0.006507509
38	0x3d3c86fb	0.046027165
39	0x3cb38c81	0.021917583
40	0xbe5fb0e4	-0.21844822
41	0x3afea401	0.0019427539
42	0xbe96307f	-0.29333875
43	0xbdd6a09a	-0.10479851
44	0xbd635ff0	-0.055511415
45	0xbec9c560	-0.39408398
46	0xbd2162df	-0.03940093
47	0xbdacef42	-0.08444072
48	0xbe74b959	-0.2389883
49	0xbe1683da	-0.14698735
50	0xbd08fb50	-0.033442795
51	0xbe929f5c	-0.28637207
52	0x3c38065e	0.011231987
53	0xbe8267be	-0.25469774
54	0x3e1f4e72	0.15557268
55	0x3e0bc338	0.13648689
56	0x3d0c010a	0.03418068
57	0xbeae828a	-0.34083968
58	0xbddde352	-0.108343735
59	0xbc0ed253	-0.008717137
60	0xbdb649dc	-0.08900806
61	0x3c492c83	0.012278679
62	0xbd0e0499	-0.034672353
63	0x3f3a74a5	0.72834235
64	0xbe420faf	-0.18951295
65	0x3d80e7df	0.06294226
66	0xbf210a7c	-0.6290662
67	0xbc3add53	-0.011405307
68	0x3c1af341	0.00945741
69	0xbec72ea3	-0.38902768
70	0xbcb185a6	-0.021670174
71	0x3e094977	0.13406931
72	0xbf2148e7	-0.63001865
73	0x3e16b68d	0.14718075
74	0x3d89a135	0.06720201
75	0x3eae5f30	0.34056997
76	0xbe14151b	-0.14461176
77	0xbe257b0a	-0.16160217
78	0xbb874b26	-0.0041288314
79	0xbe03959e	-0.12850043
80	0xbe80d3d9	-0.25161627
81	0xbe1e9e96	-0.15490183
82	0x3d94b91b	0.072618686
83	0xbdeb6f60	-0.114958525
84	0xbe99b89a	-0.30023652
85	0xbda8bc3c	-0.08239028
86	0x3d351417	0.044208612
87	0xbec35e0a	-0.38157684
88	0xbdb8aef2	-0.09017743
89	0x39a3de17	0.00031255253
90	0xbf14bc38	-0.580997
91	0x398aca53	0.00026472154
92	0x3cc05544	0.023478158
93	0x3e9e8a92	0.30965096
94	0xbb869e14	-0.0041082
95	0xbc90a65e	-0.017657455
96	0xbe8affd8	-0.27148318
97	0xbe053b56	-0.13010916
98	0x3ceb73e8	0.028741792
99	0x3e67aead	0.22625227
100	0xbb8db4d0	-0.004324533
101	0xbdc844b7	-0.09778731
102	0xbe16ef3c	-0.14739698
103	0xbe27fb4f	-0.1640446
104	0x3d8b55c6	0.06803469
105	0x3b66a14a	0.003519135
106	0x3d55025a	0.052004196
107	0x3ccd4a08	0.025059715
108	0xbe2aa064	-0.16662747
109	0x3da25898	0.07927054
110	0x3e074d12	0.13212994
111	0x3d91ab8c	0.07112798
112	0x3deb461b	0.11487981
113	0x3c583ceb	0.013198118
114	0x3ee6ad4b	0.45054087
115	0x3d7c8b37	0.061656203
116	0xbd98fa02	-0.0746956
117	0x3e8ff387	0.28115484
118	0xbe28f437	-0.1649941
119	0x3d129ec2	0.035795934
120	0x3c94fdf5	0.018187502
121	0x3e19b6b6	0.15011105
122	0x3d0a10c7	0.033707406
123	0x3e476020	0.19470263
124	0x3e036168	0.12830126
125	0x3c200deb	0.009768943
126	0xbe4d721b	-0.20063059
127	0x3e156f13	0.14593153
128	0x3d73743a	0.059437014
129	0x3cbad0ab	0.022804579
130	0x3dcba21b	0.099430285
131	0xbd15efea	-0.036605753
132	0xbe83c655	-0.25737253
133	0xbdc27b03	-0.09496119
134	0x3db78cbf	0.08962392
135	0x3ed7de9f	0.42162034
136	0x3d0a3e15	0.033750612
137	0x3d8a6ddf	0.067592375
138	0x3e3deab3	0.18546562
139	0xbdc0c2ba	-0.09412141
140	0x3d7bd302	0.06148053
141	0xbe1df213	-0.15424375
142	0x3d0e8693	0.03479631
143	0x3deae764	0.114699155
144	0x3e8ad5de	0.27116293
145	0xbd495114	-0.049149588
146	0xbd9421b9	-0.072329946
147	0x3cbf40e1	0.023346366
148	0x3e048ca6	0.12944278
149	0x3d6025fb	0.05472372
150	0xbdebeb9c	-0.11519548
151	0x3da542d8	0.0806939
152	0xbdc305d4	-0.09522596
153	0xbf0ef44c	-0.5584152
154	0xbcb64725	-0.022250721
155	0xbd2751c7	-0.040849473
156	0x3e0b9503	0.13631062
157	0x3dbb13b6	0.09134619
158	0xbcb68218	-0.02227883
159	0x3e357337	0.17719732
160	0x3c1c24b8	0.009530239
161	0x3d7c3ead	0.06158321
162	0xbdf35b19	-0.1188261
163	0xbd313685	-0.043264885
164	0xbcdf2652	-0.027239952
165	0xbb569312	-0.003274147
166	0xbd9e7152	-0.07736458
167	0x3d5f959c	0.054586038
168	0xbdca7e9d	-0.09887431
169	0x3de1fd3c	0.11034629
170	0xbded6224	-0.115909845
171	0xbda12664	-0.078686506
172	0xbdc25e64	-0.0949066
173	0xbd0455e6	-0.03230848
174	0xbd4c75a0	-0.049916863
175	0xbcbf213c	-0.023331277
176	0x3c8ac5e3	0.016940063
177	0x3ebd0269	0.369159
178	0x3e10723b	0.14106075
179	0xbcb1f2f0	-0.021722287
180	0x3f2b1924	0.66835237
181	0x3d51a5e0	0.05118358
182	0xbc4e9d3d	-0.012610731
183	0xbe7e7fe8	-0.2485348
184	0xbde1b191	-0.11020196
185	0xbd028cdb	-0.03187261
186	0x3f16383d	0.5867956
187	0x3d8b1c5f	0.06792521
188	0x3d0aad59	0.033856723
189	0x3e8e32bb	0.2777308
190	0xbe5388b5	-0.20657618
191	0x3cd12473	0.025530076

fc_in.bias f4 [64]
0	0xbef7dddd	-0.48411456
1	0xbe80fe49	-0.25194004
2	0xbea055f5	-0.3131558
3	0xbe6e2bf2	-0.23258951
4	0xbec9cb6b	-0.39413008
5	0xbea981ee	-0.3310694
6	0x3e222472	0.15834215
7	0x3f0d1af3	0.55119246
8	0xbf068a25	-0.5255454
9	0xbe36c512	-0.17848614
10	0xbea9deca	-0.33177787
11	0xbe884cd7	-0.26621124
12	0x3db41a60	0.08794093
13	0x3edd4e98	0.43224025
14	0x3ee3c59c	0.444867
15	0x3ee47830	0.44622946
16	0x3ea250b0	0.31702185
17	0x3f137fab	0.5761668
18	0x3e28ace0	0.16472197
19	0x3f03e6a5	0.5152381
20	0x3d78a348	0.060702592
21	0xbf529e4a	-0.8227278
22	0x3eed3497	0.46329185
23	0x3e4dda8f	0.20102905
24	0x3eed8ee1	0.4639807
25	0xbf1289ef	-0.5724172
26	0xbd419156	-0.047257744
27	0x3ec8e1ac	0.39234674
28	0x3f024327	0.50883716
29	0x3f0d9c0a	0.5531622
30	0x3edb5782	0.428402
31	0xbf15b1de	-0.5847453
32	0x3f273ea5	0.6532996
33	0xbe581610	-0.21102166
34	0x3e68a02d	0.22717352
35	0xbdfd5fd5	-0.12371794
36	0xbf179ab4	-0.59220433
37	0xbe399543	-0.18123345
38	0xbefe14df	-0.49625298
39	0xbdbafa9c	-0.09129831
40	0x3d726eb7	0.059187617
41	0xbf14660a	-0.579682
42	0x3ede380e	0.4340214
43	0x3eead991	0.45869115
44	0x3ee15a1e	0.44014066
45	0xbed39a4a	-0.4132865
46	0x3dbc0bbd	0.091819264
47	0x3e0aefb9	0.1356801
48	0xbe7cc055	-0.24682744
49	0xbe8d53ba	-0.2760294
50	0xbc372a5d	-0.011179534
51	0x3ed53699	0.41643217
52	0x3c3ca9ff	0.01151514
53	0xbf16ccfb	-0.58906525
54	0xbf051a47	-0.5199322
55	0xbc1a6f02	-0.00942588
56	0xbed29006	-0.41125506
57	0x3d8ed301	0.069738396
58	0x3dc54630	0.09632528
59	0xbf3bd9b4	-0.73379064
60	0xbf28d088	-0.65943193
61	0x3efffda0	0.49998188
62	0xbf26298d	-0.6490715
63	0xbeddb051	-0.4329858

layers.0.weight f4 [64, 64]
0	0xbe1fa3ab	-0.15589778
1	0xbe45a486	-0.19301042
2	0xbe0630d7	-0.13104568
3	0xbb08541b	-0.0020802084
4	0xbd724cee	-0.059155397
5	0x3e860a5d	0.26179782
6	0x3e638f0c	0.22222537
7	0xbe106659	-0.14101543
8	0xbe1ece15	-0.15508302
9	0x3de408b6	0.11134474
10	0x3c82d4bf	0.015970586
11	0xbda2fe77	-0.079586916
12	0x3dea8d1f	0.11452698
13	0x3e2a85aa	0.16652551
14	0x3e1cfd74	0.1533106
15	0x3e03f7ca	0.12887493
16	0xbe62129c	-0.22077411
17	0xbd90c1dd	-0.070682265
18	0x3c998adf	0.018742977
19	0xbe07ab4a	-0.13248935
20	0x3e0f65b1	0.14003636
21	0xbdd4f977	-0.10399144
22	0x3ce7b0c7	0.028282536
23	0xbe17e9dd	-0.14835306
24	0xbdfd7e23	-0.12377574
25	0xbe8cd77b	-0.2750815
26	0xbe5d42d0	-0.21607518
27	0xbcac06c8	-0.020999327
28	0x3dd537bf	0.10411023
29	0x3d0b8e91	0.03407151
30	0x3da00dfc	0.07815167
31	0xbe1e6c02	-0.15470889
32	0xbdb02db6	-0.08602469
33	0xbe015757	-0.12630974
34	0xbe523d56	-0.2053121
35	0x3e2135ab	0.15743129
36	0xbe270f07	-0.16314326
37	0x3d389fb8	0.045074195
38	0x3d73e065	0.05954017
39	0xbdfac048	-0.12243706
40	0x3e7e620e	0.24842092
41	0x3d8c0291	0.06836427
42	0xbdf3c9af	-0.119037025
43	0x3e915f0f	0.28392836
44	0x3c80c186	0.01571728
45	0xbe399f2f	-0.1812713
46	0x3e1dff6e	0.1542947
47	0x39076b59	0.00012914593
48	0xbe2434c1	-0.16035749
49	0x3e2fd3d9	0.17170657
50	0xbe0871b1	-0.1332462
51	0xbc9da1fb	-0.019242277
52	0x3e6f0173	0.23340397
53	0xbda329bc	-0.079669446
54	0xbe80b28b	-0.25136217
55	0xbdd858cf	-0.10563814
56	0xbe42ea27	-0.19034635
57	0xbe1af648	-0.15133011
58	0xbe1968db	-0.14981405
59	0xbe048dbc	-0.12944692
60	0xbe3ab429	-0.18232788
61	0xbdc61acf	-0.09673082
62	0xbe7237e3	-0.23654132
63	0xbe830e44	-0.2559682
64	0x3e32b61d	0.17452283
65	0x3e2a1348	0.16608918
66	0x39f17609	0.00046055045
67	0xbe4f3de5	-0.20238455
68	0xbe325fa5	-0.17419298
69	0xbddfb407	-0.10923009
70	0x3e21b615	0.15792115
71	0x3d517e20	0.051145673
72	0x3e0dba9a	0.13840714
73	0x3dfcd32e	0.12344967
74	0xbde4ed36	-0.11178057
75	0xbdbd1631	-0.09232748
76	0x3d0649de	0.03278529
77	0x3d321c1e	0.043483846
78	0x3ddd68f0	0.10811031
79	0x3e17b9b2	0.14816931
80	0x3e01cfcc	0.12676924
81	0xbcac9b60	-0.021070182
82	0x3dd74115	0.1051046
83	0x3e081d06	0.13292322
84	0x3df5834f	0.11987936
85	0x3de666a1	0.11250044
86	0xbe5ccd3e	-0.21562669
87	0x3ce0179a	0.027355004
88	0x3e4742ba	0.19459048
89	0xbd948c67	-0.07253342
90	0xbe00b4ad	-0.12568922
91	0x3d38913f	0.045060392
92	0xbde4cb11	-0.11171544
93	0x3d3bb6e1	0.045828704
94	0xbdf6a3d9	-0.1204297
95	0x3e5ce185	0.21570404
96	0x3d9eaa0c	0.077472776
97	0xbd55ce17	-0.052198496
98	0x3e4f0d3f	0.20219897
99	0xbe429b57	-0.1900457
100	0xbd7693a2	-0.060199387
101	0xbe35f629	-0.17769684
102	0xbdb0ce1b	-0.086330615
103	0xbe1db514	-0.15401107
104	0xbe160a13	-0.1465228
105	0xbe234f5b	-0.1594824
106	0x3d5e3e32	0.054258533
107	0xbe369748	-0.17831147
108	0xbe497a2e	-0.19675514
109	0xbd0d8712	-0.03455264
110	0x3dbb4bd6	0.09145324
111	0xbca69ec1	-0.020339372
112	0xbd8438b8	-0.06456131
113	0xbdc61b61	-0.09673191
114	0xbe091af0	-0.13389182
115	0x3da06b40	0.07832956
116	0xbe5db39e	-0.2165055
117	0xbe352546	-0.1769
118	0x3e578383	0.21046261
119	0xbe4005e7	-0.18752252
120	0x3e32f4cd	0.17476197
121	0x3e4ce5c1	0.20009519
122	0xbe2048c3	-0.15652756
123	0x3dee7077	0.11642545
124	0xbd5983bc	-0.053104147
125	0x3e11ab50	0.14225507
126	0x3e15fa9e	0.14646384
127	0xbd4a0ad4	-0.049326733
128	0xbe132b9d	-0.14372106
129	0xbe4064d2	-0.1878846
130	0x3e3eea06	0.1864396
131	0x3e35e9a5	0.1776491
132	0x3e177043	0.14788918
133	0x3e79f479	0.24409665
134	0xbe15df90	-0.14636064
135	0xbd4a250d	-0.04935174
136	0x3e67f6a9	0.22652687
137	0x3dfe47ef	0.12416064
138	0xbe424d0e	-0.18974707
139	0x3e47379d	0.19454809
140	0xbdde3ffb	-0.10852047
141	0xbd12998a	-0.035790958
142	0x3dadb262	0.084812894
143	0x3e1733e6	0.14765891
144	0x3d952159	0.07281751
145	0x3e143535	0.14473422
146	0xbc6d5f26	-0.014488017
147	0xbe593432	-0.21211317
148	0x3e4a3078	0.19745052
149	0xbdcea169	-0.1008938
150	0xbdc3c5d4	-0.09559217
151	0xbdbeded6	-0.09319846
152	0x3d0e9a13	0.034814905
153	0xbcee3ba0	-0.029081166
154	0x3c97999d	0.018505866
155	0x3d9dea99	0.077107616
156	0x3e53d3b4	0.20686227
157	0x3d7c0397	0.06152686
158	0xbb078718	-0.0020679887
159	0xbdf1ef83	-0.11813261
160	0x3dfa1e1f	0.122127764
161	0x3e03bc28	0.12864745
162	0x3d531fed	0.05154412
163	0x3df1b0f2	0.11801328
164	0x3e5e4ed2	0.21709755
165	0x3c0b34da	0.0084964875
166	0xbe3ff581	-0.18745996
167	0xbe365629	-0.17806305
168	0x3d8837dd	0.0665128
169	0x3e6cc707	0.23122798
170	0x3dbb3b1a	0.09142132
171	0xbc662b2c	-0.014048379
172	0x3e04c6f2	0.12966517
173	0x3e186bad	0.14884825
174	0x3e211d4f	0.15733837
175	0xbc8e0324	-0.017335482
176	0xbdb4937c	-0.08817193
177	0xbdb7607c	-0.0895395
178	0xbe43f9df	-0.19138287
179	0xbe3bf1aa	-0.18353906
180	0xbbb4459c	-0.005501462
181	0x3c21b0d8	0.009868823
182	0xbdeace16	-0.11465089
183	0xbe3468bb	-0.17618077
184	0xbd3e8806	-0.04651644
185	0xbda33a51	-0.07970107
186	0xbda6cc79	-0.08144469
187	0x3e448fb8	0.1919545
188	0x3e1363bd	0.14393516
189	0x3d7bdd88	0.061490566
190	0x3e483e3e	0.19554994
191	0x3beb153d	0.0071741627
192	0x3e20f615	0.15718873
193	0xbcac2d85	-0.0210178
194	0xbbb00e61	-0.005372808
195	0x3adb4aab	0.0016730627
196	0xbe0d442c	-0.13795537
197	0x3e080118	0.13281667
198	0x3e2720c5	0.16321094
199	0x3c5edee3	0.013602945
200	0xbcffa827	-0.031208111
201	0x3d9426ee	0.07233988
202	0x3de86187	0.11346727
203	0xbdece610	-0.115673184
204	0xbd08fd78	-0.03344485
205	0x3dddbc05	0.108268775
206	0xbdb5126d	-0.08841405
207	0x3d6ad925	0.05733599
208	0x3d870d7d	0.065943696
209	0x3e1a41e1	0.15064193
210	0x3e73c75d	0.2380652
211	0xbd2c7b66	-0.04210987
212	0x3e438e3e	0.1909723
213	0x3de1ab5c	0.11019012
214	0x3e2cae43	0.1686335
215	0xbe47570d	-0.19466801
216	0x3e2bc7c5	0.16775425
217	0xbdb77425	-0.089577
218	0x3dcec36a	0.10095866
219	0x3e6670b4	0.2250393
220	0x3e2f63c4	0.17127901
221	0x3d15660e	0.03647428
222	0x3d507740	0.050894976
223	0xbcf66203	-0.030076033
224	0x3d03a1f1	0.03213686
225	0x3d3bae05	0.045820255
226	0xbe2f0cb0	-0.17094684
227	0xbd15ad27	-0.036542084
228	0xbe377a41	-0.1791773
229	0xbe07c3e4	-0.1325832
230	0x3c64bbf4	0.013960827
231	0x3c78db18	0.015188955
232	0xbe20fba2	-0.1572099
233	0x3dd4a39d	0.10382769
234	0xbe22b21a	-0.15888253
235	0x3e660933	0.22464447
236	0xbe25fa81	-0.16208841
237	0x3e2b107e	0.1670551
238	0xbe4322ef	-0.19056295
239	0x3dcf297a	0.10115333
240	0xbe2642ea	-0.16236463
241	0xbdbfeb37	-0.093710355
242	0xbd96243b	-0.07331129
243	0x3ccf8f96	0.025337022
244	0x3e627fef	0.22119115
245	0xbca1fff7	-0.019775374
246	0x3c9b4bda	0.018957067
247	0x3d59bbaf	0.053157505
248	0x3e17707e	0.14789006
249	0xbe60216a	-0.21887746
250	0xbb8c7cb3	-0.0042873262
251	0x3e738d92	0.23784474
252	0xbe1e81c6	-0.15479192
253	0xbe38a3ef	-0.18031286
254	0x3c715662	0.014730068
255	0xbd21ac61	-0.039471034

layers.0.bias f4 [64]
0	0x3d688513	0.056767534
1	0x3dbf1248	0.09329659
2	0xbd942638	-0.07233852
3	0x3aef4af0	0.0018256586
4	0xbdc89a9b	-0.09795114
5	0x3e00545a	0.12532178
6	0xbe112e0b	-0.1417772
7	0xbdf2b1ea	-0.11850341
8	0xbda3d950	-0.080004334
9	0x3d12eed0	0.03587228
10	0xbd6ebc6e	-0.05828517
11	0x3e02acd5	0.12761243
12	0xbd530fe1	-0.051528815
13	0xbc851083	-0.016243225
14	0x3d42a160	0.04751718
15	0xbe60dfc9	-0.21960367
16	0x3ce05e46	0.027388703
17	0xbb2a7cee	-0.0026014405
18	0xbe391617	-0.18074833
19	0xbe0d8946	-0.13821897
20	0xbd338ded	-0.043836523
21	0x3d8ab1de	0.06772207
22	0x3bddbf67	0.0067672017
23	0x3daafa8e	0.08348571
24	0x3e3c24af	0.18373369
25	0x3d586122	0.052827008
26	0xbdfaac12	-0.12239851
27	0x3cabcafe	0.020970818
28	0xbd893d93	-0.067011975
29	0xbccdec59	-0.025137113
30	0x3d9df514	0.077127606
31	0xbdc979b8	-0.09837669
32	0xbe36dad0	-0.17856908
33	0x3d7c6392	0.061618395
34	0x3ca02a9d	0.01955157
35	0x3da01376	0.07816212
36	0x3e6ebe34	0.23314744
37	0x3e12b4e8	0.14326823
38	0xbe0802ec	-0.13282365
39	0xbd79745c	-0.060901985
40	0x3c67094b	0.014101337
41	0xbe43d743	-0.19125085
42	0x3e1de05c	0.15417618
43	0x3baaf4de	0.0052171787
44	0x3cba4c55	0.022741476
45	0x3d01a686	0.03165295
46	0xbdeb5afc	-0.11491963
47	0xbdd92d8a	-0.10604389
48	0xbc892941	-0.016743304
49	0xbdc2f428	-0.09519225
50	0xbdfb1e15	-0.12261597
51	0xbb36ae36	-0.0027874834
52	0xbe6d4e61	-0.2317443
53	0x3cff0d92	0.0311344
54	0x3dc50afc	0.09621236
55	0xbd6a7b5a	-0.057246543
56	0x394e6d34	0.00019686372
57	0x3bb705fa	0.0055854293
58	0xbdaeb14e	-0.08529912
59	0x3da00638	0.07813686
60	0xbe3b3162	-0.18280557
61	0x3d40a042	0.047027834
62	0xbddcaf35	-0.107756056
63	0x3d433ace	0.047663502

fc_out.weight f4 [2, 64]
0	0x3ea4bc53	0.3217493
1	0xbd0633a1	-0.03276408
2	0x3cd12a85	0.02553297
3	0x3e0cb266	0.13739929
4	0xbcc29e4a	-0.023757119
5	0x3c91b85f	0.01778811
6	0xbd8c032e	-0.06836544
7	0xbd224fb0	-0.039626777
8	0x3bcb4017	0.0062027085
9	0x3e691c73	0.22764759
10	0xbe357e22	-0.17723897
11	0xbea24a40	-0.31697273
12	0xbe9a1fef	-0.30102488
13	0xbe97573a	-0.29558736
14	0xbd8df144	-0.069307834
15	0xbe4b9e46	-0.19884595
16	0x3df74619	0.12073917
17	0x3e118524	0.14210945
18	0x3e7803a6	0.24220142
19	0xbe8b5cf6	-0.2721936
20	0xbdde7c6a	-0.10863574
21	0xbe580f58	-0.21099603
22	0x3e197261	0.14985038
23	0x3c415339	0.011799627
24	0x3e852f12	0.26012474
25	0x3d170f45	0.036879797
26	0xbe9776fb	-0.29582962
27	0x3e589370	0.21149993
28	0xbc47736a	-0.012173513
29	0xbe94dc14	-0.29074156
30	0x3e0a80e6	0.13525733
31	0x3dce7005	0.1007996
32	0xbec2a709	-0.38018063
33	0x3da738b2	0.08165111
34	0x3d24a620	0.04019749
35	0x3cd48691	0.025943073
36	0xbe69d3a3	-0.22834639
37	0x3cc5cb3f	0.024144767
38	0x3c265cfb	0.010154004
39	0x3da0daf0	0.07854259
40	0xbe55de68	-0.20885623
41	0xbe5ef613	-0.21773557
42	0x3db439ef	0.088001125
43	0x3c5af6ba	0.013364488
44	0xbd67a575	-0.056554276
45	0x3e998464	0.2998382
46	0xbbf1c938	-0.0073787235
47	0x3e2fcb23	0.17167334
48	0xbcfc9bf1	-0.030836077
49	0xbebb15ac	-0.36539972
50	0xbe6e2895	-0.23257668
51	0x3e1e7780	0.15475273
52	0xbea53bac	-0.3227209
53	0x3d798e53	0.060926747
54	0xbe4811d4	-0.19538051
55	0x3e5bda71	0.21470048
56	0x3eb9f25c	0.36317718
57	0xbd0a4f94	-0.033767298
58	0x3e394b44	0.18095118
59	0x3db76fc4	0.089568645
60	0x3ea51027	0.32238886
61	0xbd982af8	-0.07430071
62	0xbdeafa42	-0.11473514
63	0x3e312b1b	0.173016
64	0x3dcc0bf7	0.099632196
65	0xbd30af4a	-0.04313592
66	0x3cb571fc	0.022149079
67	0xbe118386	-0.14210328
68	0xbcf9f8fa	-0.03051423
69	0x3c88a92b	0.016682228
70	0xbd62afcd	-0.055343438
71	0xbd1f550e	-0.038899474
72	0x3da6348c	0.08115491
73	0xbe28379a	-0.1642746
74	0x3e23fe05	0.1601487
75	0xbdfa4e07	-0.12221914
76	0x3e0f6948	0.14005005
77	0x3e612178	0.21985424
78	0x3e005624	0.1253286
79	0xbcc1e4ce	-0.023668673
80	0x3d3a08bf	0.045418497
81	0x3d2dac63	0.04240073
82	0x3cb725b1	0.02235684
83	0x3e1e1d46	0.15440854
84	0xbe1071b8	-0.1410588
85	0x3d63f619	0.05565462
86	0x3c0a1045	0.0084267305
87	0xbd38a374	-0.045077756
88	0xbe05fa45	-0.13083751
89	0x3b998ef9	0.004686233
90	0x3dacfcb7	0.08446639
91	0x3e2660cb	0.16247861
92	0xbc83a826	-0.01607139
93	0x3e7c5494	0.24641639
94	0x3e0e5432	0.13899305
95	0xbe4563a6	-0.19276294
96	0xbe875406	-0.26431292
97	0x3c5baa57	0.013407311
98	0xbdc69e22	-0.0969813
99	0x3d2954ea	0.041340746
100	0x3cc17349	0.023614543
101	0x3c7e321c	0.015514877
102	0x3ded6e27	0.115932755
103	0x3e002b3e	0.12516496
104	0xbdf6d7a5	-0.1205285
105	0xbd5d2be7	-0.053996947
106	0x3e2b4fde	0.16729686
107	0x3c183913	0.009290951
108	0x3d7420be	0.059601538
109	0xbe5a143b	-0.2129678
110	0x3cc24cc2	0.023718242
111	0x3c335ddb	0.01094767
112	0xbc468d83	-0.0121187
113	0xbe0e56a7	-0.13900243
114	0xbe2d8bdf	-0.16947888
115	0x3e5ccc91	0.21562411
116	0x3e2d0088	0.16894734
117	0xbd5fd36d	-0.05464499
118	0xbc004f30	-0.00783138
119	0xbd8e7433	-0.06955757
120	0x3d9386b6	0.072034284
121	0xbcc05b98	-0.023481175
122	0x3c63d13c	0.013904866
123	0xbe29b3fe	-0.16572568
124	0xbd37a9c5	-0.04483964
125	0xbcf08032	-0.029358003
126	0x3dfa20bb	0.12213274
127	0xbd8eadcd	-0.069667436

fc_out.bias f4 [2]
0	0x3d0cd9c4	0.034387365
1	0xbd8e4cd4	-0.069482476
