trained_bsde_model_lq/d2_z_net_1.pth (torch, 21305 bytes, 6 tensors)

fc_in.weight f4 [64, 3]
0.13820475 -0.1746332 -0.26982608 -0.020647578 0.1843865 0.15253411 -0.43563867 -0.07227415
-0.08856482 0.006854992 -0.080850646 -0.17782518 -0.14941685 -0.023261582 0.0671477 0.58633536
0.049235955 -0.01378534 -0.51427466 0.057102878 0.018667465 -0.5292967 -0.08141098 -0.022320785
0.3618672 0.04790477 0.019887272 -0.515449 0.020617353 -0.14865744 0.7251058 -0.015784478
-0.08137934 -0.31334865 -0.07092892 0.015077202 -0.026472593 -0.2190944 0.09581472 0.013152202
-0.14796329 -0.1456562 0.049760446 -0.06996291 0.115392946 -0.37822133 -0.04365133 -0.078665026
-0.22674648 -0.10520134 0.019245606 -0.31588838 0.083048575 0.026937453 -0.109181695 0.11450988
-0.01571765 -0.14170906 -0.10527026 -0.0036235002 -0.7557592 0.06833141 -0.0019525316 0.21766816
0.15469377 -0.06448384 -0.019262712 -0.189488 0.24996756 -0.04104048 -0.08156756 0.024762826
0.27919173 -0.25206825 -0.1936131 0.3512405 -0.10892987 0.022198847 0.44698095 -0.042848624
-0.054381967 -0.3906311 -0.09671834 0.012623746 0.43735448 -0.0931235 -0.0044029946 0.04735186
-0.13354224 -0.100101046 0.5702617 0.05950923 -0.006318011 -0.6154004 -0.08864503 0.012342324
0.024489902 0.038623743 -0.033001985 0.28575197 -0.092212416 0.046496216 0.013313132 -0.14404705
-0.093116015 -0.7984489 0.019898998 0.074006796 0.061974857 0.0936067 0.0096268635 -0.08098505
0.09176868 -0.010564435 0.06667252 -0.096310526 0.18470074 0.4347374 0.10659984 -0.004429831
0.6534333 0.002888998 0.009773288 0.052941035 -0.0985769 0.18381487 0.044574317 0.2663549
-0.24767043 -0.35661474 -0.08535399 0.0074035367 0.1792212 -0.10360611 0.008855457 -0.4069337
0.2062943 0.15009195 -0.1175726 0.11975773 -0.022369167 0.88410044 0.02940139 0.003057267
0.06846556 -0.09876303 0.048171096 0.070224 0.16013794 0.09831626 -0.06463603 -0.12084969
0.13366298 0.2511325 0.08074611 0.07903522 -0.26961255 0.12514213 0.031227006 0.42198136
0.08480856 0.021179743 0.17494395 -0.043054435 0.08518975 -0.5625624 -0.06674736 0.015980981
0.7221633 -0.015742315 0.07620625 -0.30295902 0.025928056 0.05151604 -0.17044963 0.07717609
-0.0060762074 0.14465337 0.13951065 0.03968849 -0.104107305 0.11668626 -0.011077974 0.8416052
0.016210802 -0.036062233 -0.32029197 -0.11762528 0.018444669 -0.18187685 0.09319377 -0.029842416
00000000: 8c85 0d3e 0cd3 32be a526 8abe 1c25 a9bc
00000010: d1cf 3c3e e731 1c3e 080c dfbe 7804 94bd
00000020: 7961 b5bd d79f e03b 0695 a5bd ce17 36be
00000030: bb00 19be 138f bebc bc84 893d 131a 163f
00000040: a4ab 493d e8db 61bc 81a7 03bf b5e4 693d
00000050: 83ec 983c fd7f 07bf cdba a6bd 14da b6bc
00000060: a846 b93e cb37 443d a2ea a23c 77f4 03bf
00000070: b9e5 a83c a839 18be 89a0 393f 734e 81bc
00000080: 36aa a6bd 3c6f a0be 2e43 91bd 5e06 773c
00000090: 0ddd d8bc 485a 60be 823a c43d 557c 573c
000000a0: b083 17be e626 15be 9cd1 4b3d b748 8fbd
000000b0: 2353 ec3d 3aa6 c1be bdcb 32bd 211b a1bd
000000c0: 3b30 68be cd73 d7bd f6a8 9d3c 1fbc a1be
000000d0: 5f15 aa3d efab dc3c a79a dfbd 2884 ea3d
000000e0: 4dc2 80bc 2e1c 11be ef97 d7bd 3f78 6dbb
000000f0: 6f79 41bf 57f1 8b3d 17ec ffba 67e4 5e3e
00000100: 0b68 1e3e 1a10 84bd d6cc 9dbc 2409 42be
00000110: 7ff7 7f3e 101a 28bd e50c a7bd 69db ca3c
00000120: 38f2 8e3e 170f 81be 8342 46be cbd5 b33e
00000130: a016 dfbd 5bda b53c b0da e43e 0a82 2fbd
00000140: a0bf 5ebd cd00 c8be 4414 c6bd d4d3 4e3c
00000150: edec df3e 89b7 bebd ff46 90bb 06f4 413d
00000160: 4cbf 08be c701 cdbd acfc 113f f3bf 733d
00000170: 5107 cfbb e18a 1dbf 878b b5bd 7537 4a3c
00000180: 0c9f c83c ee33 1e3d 172d 07bd 154e 923e
00000190: ddd9 bcbd d172 3e3d 531f 5a3c 1281 13be
000001a0: 9cb3 bebd 2667 4cbf 3903 a33c e090 973d
000001b0: 59d9 7d3d dfb4 bf3d feb9 1d3c 7ddb a5bd
000001c0: 38f1 bb3d 7416 2dbc 9a8b 883d 743e c5bd
000001d0: 3122 3d3e e795 de3e 0451 da3d 1e28 91bb
000001e0: 6847 273f 5855 3d3b 2420 203c b3d8 583d
000001f0: b0e2 c9bd f739 3c3e 8f93 363d ab5f 883e
00000200: 519d 7dbe 3596 b6be 13ce aebd 5e99 f23b
00000210: c385 373e 712f d4bd 7b16 113c 9d59 d0be
00000220: d03e 533e b4b1 193e e7c9 f0bd 8a43 f53d
00000230: 8b3f b7bc 6854 623f 2fdb f03c 6e5c 483b
00000240: ac37 8c3d 4544 cabd 0e4f 453d 9ad1 8f3d
00000250: 33fb 233e 095a c93d e55f 84bd 0b80 f7bd
00000260: f3de 083e 7094 803e 375e a53d 38dd a13d
00000270: a80a 8abe 4225 003e c7cf ff3c f10d d83e
00000280: 1cb0 ad3d 2481 ad3c 8224 333e d959 30bd
00000290: f777 ae3d 1704 10bf d7b2 88bd 8cea 823c
000002a0: b2df 383f 07f6 80bc 0612 9c3d 721d 9bbe
000002b0: 1367 d43c 7c02 533d 598a 2ebe 7f0e 9e3d
000002c0: ec1a c7bb 0320 143e e1db 0e3e 6690 223d
000002d0: 3636 d5bd 35f9 ee3d 6480 35bc 7073 573f
000002e0: 84cc 843c feb5 13bd 4ffd a3be 86e5 f0bd
000002f0: 4619 973c ed3d 3abe 60dc be3d 1578 f4bc

fc_in.bias f4 [64]
0.3507694 -0.43408722 0.45445824 0.8603434 0.16963696 -0.47970223 0.5138679 0.81083554
-0.26045227 0.4164499 -0.5423526 0.3472812 0.2582986 0.18328139 0.42504123 0.7498867
0.50133115 0.38319957 -0.0249566 0.5903975 0.84947973 -0.326815 -0.0963849 0.01194708
0.37293884 -0.48893914 -0.23548852 0.5807542 -0.67028016 -0.18677506 -0.7178123 0.83236104
0.16137967 -0.8236907 0.2508721 0.77694696 -0.12294611 0.05713521 0.28822237 -0.68336135
-0.48451647 -0.18057066 -0.55534554 0.44311836 -0.17955482 0.16660298 0.4425969 -0.84010917
-0.0069549037 0.6954454 0.9795223 -0.07009114 0.72818094 -0.47459885 -0.4951684 0.7334856
-0.81769747 0.33986554 0.14622669 -0.25678 0.37749207 -0.79377973 0.7416344 0.4565837
00000000: 0c98 b33e ae40 debe c0ae e83e 773f 5c3f
00000010: 50b5 2d3e 889b f5be d98c 033f eb92 4f3f
00000020: 005a 85be ec38 d53e 9fd7 0abf d7ce b13e
00000030: b73f 843e 1eae 3b3e 019f d93e 93f8 3f3f
00000040: 3d57 003f bc32 c43e c971 ccbc 4a24 173f
00000050: 8177 593f 4c54 a7be 7265 c5bd afbd 433c
00000060: d7f1 be3e 3b56 fabe e723 71be 4fac 143f
00000070: 7b97 2bbf f641 3fbe 8cc2 37bf 9d15 553f
00000080: b640 253e 65dd 52bf 4f72 803e ffe5 463f
00000090: 2ccb fbbd 9c06 6a3d e291 933e c5f0 2ebf
000000a0: 8b12 f8be 84e7 38be 202b 0ebf 69e0 e23e
000000b0: 38dd 37be f999 2a3e 109c e23e 6511 57bf
000000c0: f6e5 e3bb b608 323f f9c1 7a3f f28b 8fbd
000000d0: 116a 3a3f 9ffe f2be b686 fdbe b6c5 3b3f
000000e0: 9f54 51bf db02 ae3e 73bc 153e ab78 83be
000000f0: a446 c13e 2635 4bbf c1db 3d3f 57c5 e93e

layers.0.weight f4 [64, 64]
0.14401989 -0.07009334 0.14644699 0.18344666 0.040106542 0.001971542 0.22692524 -0.019288067
0.0186304 -0.085158676 0.048346106 0.015120519 -0.20341502 0.11162291 -0.18296401 -0.07981234
-0.24449106 0.089844674 0.02921494 -0.2480211 0.017513188 0.050330613 0.11659982 -0.27670276
0.18004736 -0.08002355 0.038326327 0.057344407 0.026123218 -0.18223919 -0.11582174 -0.1750874
-0.0742859 0.11430918 0.17009385 -0.061066017 0.06587518 0.20089605 -0.236701 0.19719265
0.13980949 -0.24524276 0.2249449 -0.10774066 -0.16701151 0.10133761 -0.079681605 -0.029759765
0.05172267 -0.006312979 0.0037684473 -0.14610584 0.06957979 -0.15273504 -0.16563602 0.08464529
-0.29886386 0.059006903 -0.07978126 0.027531262 -0.16527681 0.1291388 0.18569265 0.087161414
0.12408887 0.1209229 -0.11334005 -0.11252994 0.12250564 -0.43401897 0.28477743 0.30444533
-0.2513832 0.25466755 -0.17555937 -0.09014129 -0.24905756 0.07986216 -0.05398706 0.24004182
0.1430377 0.114148624 -0.046013866 0.36379048 0.24944657 0.08153667 -0.11754744 0.015840441
0.16502434 -0.06195989 -0.08799899 0.2570454 -0.10543761 0.16083233 0.0067258854 0.14548463
-0.08624428 -0.029407702 0.12509331 0.2859595 -0.20107876 -0.07296272 -0.1405647 -0.22415416
-0.10120047 0.0842143 -0.15739468 0.24874714 0.08176018 0.11069097 -0.0889526 -0.6462047
-0.21352091 0.22056195 0.28797093 -0.015348441 -0.036563333 -0.28758514 -0.13059123 0.019507626
-0.11865872 0.03600351 -0.15791853 0.039805494 -0.07502128 -0.23604405 0.18946037 -0.08990187
0.08700922 0.10001839 0.22106478 0.05966723 -0.115347885 -0.2527146 0.059885774 0.014235091
-0.08670352 0.18524215 -0.11530385 0.028752359 0.07282245 0.10961613 0.045211967 0.037139535
-0.13795795 0.08915306 -0.13325594 0.059143707 0.10085403 -0.24809073 -0.13635045 -0.09717922
0.23960198 -0.080771446 -0.13541828 -0.0702545 0.108231254 0.15731232 0.08126473 0.040505137
0.1372075 0.007878291 0.019012777 -0.14540043 -0.15836641 0.043949977 -0.199357 -0.07622995
0.07678552 0.14307624 -0.024893563 0.1394875 0.112045325 0.0993285 0.097722024 -0.043070614
0.23587508 -0.071760096 -0.05548566 0.1322254 -0.097301245 -0.2154958 0.07743605 0.07148604
-0.13566923 -0.15314464 -0.19804953 -0.10790862 -0.10148792 -0.044776782 0.07013566 0.08778833
-0.06507673 0.059844293 -0.035948467 -0.17689183 -0.16732585 -0.08156287 0.025548413 -0.09185154
-0.14789462 0.07045198 0.08034137 0.25779733 0.21735701 0.03632964 -0.15919802 -0.03746422
-0.08797042 0.14046064 -0.10041398 0.21024509 -0.21715513 -0.20256804 -0.04468297 0.10381878
0.17446096 0.158643 0.22574043 -0.016375612 -0.03635251 0.0103363525 0.12592427 -0.15218496
0.10631763 0.16612323 0.071204334 -0.032841835 0.030980222 -0.21544184 -0.018896377 -0.064769715
-0.14716128 0.05922729 -0.0618012 0.17343116 -0.066867374 -0.18072332 0.15767556 -0.041030772
0.18928118 -0.036692325 -0.036401767 0.13313837 -0.1947317 0.011656939 -0.07319975 0.040037643
-0.07645623 0.081803486 0.039856996 -0.18829548 -0.07052497 -0.063548446 0.1678107 -0.061562825
00000000: f379 133e 198d 8fbd 33f6 153e 71d9 3b3e
00000010: c246 243d fc34 013b 175f 683e 0202 9ebc
00000020: c89e 983c ac67 aebd 9106 463d 0ebc 773c
00000030: 074c 50be 8d9a e43d eb5a 3bbe a774 a3bd
00000040: dd5b 7abe 7c00 b83d 2b54 ef3c 3ef9 7dbe
00000050: d177 8f3c 7927 4e3d e3cb ee3d fcab 8dbe
00000060: 565e 383e 63e3 a3bd 11fc 1c3d f8e1 6a3d
00000070: 5c00 d63c e99c 3abe f333 edbd 1d4a 33be
00000080: 3523 98bd ee1a ea3d 152d 2e3e 5c20 7abd
00000090: 91e9 863d b2b7 4d3e bf61 72be dfec 493e
000000a0: 382a 0f3e eb20 7bbe f557 663e 23a7 dcbd
000000b0: 1105 2bbe 188a cf3d 1c30 a3bd c0ca f3bc
000000c0: 27db 533d 1bdd cebb 0ef8 763b c59c 15be
000000d0: d97f 8e3d 9366 1cbe 7d9c 29be 835a ad3d
000000e0: af04 99be 39b1 713d 5b64 a3bd 3e89 e13c
000000f0: 533e 29be f63c 043e 3726 3e3e af81 b23d
00000100: 4e22 fe3d 6da6 f73d d41e e8bd 1976 e6bd
00000110: 3de4 fa3d bc37 debe 59ce 913e 42e0 9b3e
00000120: 4cb5 80be c963 823e d6c5 33be ff9b b8bd
00000130: f208 7fbe c68e a33d 8921 5dbd 86cd 753e
00000140: 7a78 123e c1c6 e93d 0979 3cbd bf42 ba3e
00000150: ec6e 7f3e b3fc a63d b6bc f0bd d0c3 813c
00000160: 24fc 283e a7c9 7dbd d138 b4bd 749b 833e
00000170: acef d7bd 3bb1 243e d164 dc3b ecf9 143e
00000180: d7a0 b0bd 6ce8 f0bc 7618 003e 4969 923e
00000190: 97e7 4dbe 7b6d 95bd 31f0 0fbe ab88 65be
000001a0: 3142 cfbd 8c78 ac3d 122c 21be 92b7 7e3e
000001b0: e271 a73d f3b1 e23d c82c b6bd ac6d 25bf
000001c0: 3aa5 5abe feda 613e ed70 933e 0778 7bbc
000001d0: 6fc3 15bd 5c3e 93be b5b9 05be 75ce 9f3c
000001e0: 5803 f3bd 6b78 133d 65b5 21be 160b 233d
000001f0: c2a4 99bd 88b5 71be e601 423e 791e b8bd
00000200: e431 b23d 71d6 cc3d ce5e 623e a065 743d
00000210: 833b ecbd cf63 81be c94a 753d 4d3a 693c
00000220: 9d91 b1bd 1eb0 3d3e 6d24 ecbd 118a eb3c
00000230: f023 953d 6c7e e03d 2f30 393d a01f 183d
00000240: d944 0dbe e195 b63d 3f74 08be ac40 723d
00000250: 8f8c ce3d 7f0b 7ebe 749f 0bbe e605 c7bd
00000260: 395a 753e 806b a5bd 17ab 0abe 97e1 8fbd
00000270: 59a8 dd3d 7b16 213e 1f6e a63d b7e8 253d
00000280: 1f80 0c3e f313 013c afc0 9b3c dae3 14be
00000290: ce2a 22be e404 343d 3e24 4cbe 731e 9cbd
000002a0: ba41 9d3d 9482 123e 96ed cbbc d0d5 0e3e
000002b0: 0578 e53d be6c cb3d 7c22 c83d d06a 30bd
000002c0: 3d89 713e f5f6 92bd ee44 63bd 1866 073e
000002d0: e045 c7bd eeaa 5cbe cb96 9e3d 4667 923d
000002e0: e0ec 0abe f3d1 1cbe 7fcd 4abe 32ff dcbd
000002f0: e6d8 cfbd dc67 37bd 49a3 8f3d 5eca b33d
00000300: f346 85bd 4a1f 753d b33e 13bd 2223 35be
00000310: 7857 2bbe 6f0a a7bd e84a d13c a91c bcbd
00000320: b071 17be 2149 903d 048a a43d 03fe 833e
00000330: d692 5e3e 63ce 143d ce04 23be 1574 19bd
00000340: d629 b4bd ead4 0f3e d8a5 cdbd 7d4a 573e
00000350: ea5d 5ebe ff6d 4fbe 7d05 37bd f19e d43d
00000360: e5a5 323e 5073 223e 8028 673e 2626 86bc
00000370: 5fe6 14bd ce59 293c 4bf2 003e 60d6 1bbe
00000380: 0fbd d93d 351c 2a3e 94d3 913d 2985 06bd
00000390: 3cca fd3c c99c 5cbe 93cc 9abc fca5 84bd
000003a0: 72b1 16be 5198 723d 4123 7dbd f097 313e
000003b0: c3f1 88bd 890f 39be b475 213e e20f 28bd
000003c0: edd2 413e b14a 16bd 051a 15bd 6d55 083e
000003d0: bf67 47be bffc 3e3c c0e9 95bd 83fe 233d
000003e0: 1595 9cbd 9688 a73d 1741 233d 88d0 40be
000003f0: 656f 90bd b025 82bd 91d6 2b3e 4d29 7cbd

layers.0.bias f4 [64]
0.0070115556 0.24690337 0.009915121 0.04072118 0.03760456 -0.022173166 0.048245367 0.0608891
-0.075555936 -0.03285549 0.027126634 0.011437952 0.059434485 -0.13203385 -0.067964144 -0.033674553
0.1823971 0.0039822627 -0.13954866 -0.16248801 0.07546529 -0.1817012 0.095093586 0.07621185
-0.05907174 0.005441098 -0.16960059 -0.12180351 -0.080904916 -0.06506831 0.08037765 -0.027337326
0.087516755 0.1720381 -0.18684809 0.098631464 -0.042582616 -0.04841278 0.11920499 -0.16571973
0.15518084 0.02569887 0.012324133 0.06769349 0.053722166 0.24949066 -0.013814288 -0.087804526
-0.10597102 -0.11151842 -0.07691472 0.09325092 -0.15029056 0.14562003 0.15941 0.20570855
-0.12173382 0.08829042 0.027750628 -0.09940018 0.05833885 0.15924998 0.019350896 -0.19395894
00000000: 31c1 e53b 3dd4 7c3e 0873 223c 41cb 263d
00000010: 3d07 1a3d 80a4 b5bc ef9c 453d d966 793d
00000020: 12bd 9abd 7a93 06bd ad38 de3c 3f66 3b3c
00000030: 9371 733d e233 07be c930 8bbd 54ee 09bd
00000040: 4ec6 3a3e a47d 823b d8e5 0ebe 4263 26be
00000050: 8c8d 9a3d e10f 3abe 6dc0 c23d f514 9c3d
00000060: 35f5 71bd 3d4b b23b c7ab 2dbe 1e74 f9bd
00000070: 7ab1 a5bd 8942 85bd 0a9d a43d 87f2 dfbc
00000080: fc3b b33d c12a 303e 1b55 3fbe 4bff c93d
00000090: 1c6b 2ebd 7b4c 46bd bf21 f43d 6fb2 29be
000000a0: bae7 1e3e 7086 d23c 29eb 493c e2a2 8a3d
000000b0: c60b 5c3d 7b7a 7f3e 5355 62bc dcd2 b3bd
000000c0: 5607 d9bd c563 e4bd 7785 9dbd 57fa be3d
000000d0: c5e5 19be 6b1d 153e 603c 233e 43a5 523e
000000e0: 954f f9bd 9cd1 b43d 4955 e33c 5292 cbbd
000000f0: b8f4 6e3d 6d12 233e c585 9e3c 2c9d 46be

fc_out.weight f4 [2, 64]
0.18133737 -0.17882 -0.21696724 -0.2799107 -0.0831976 -0.2728793 0.015760578 -0.05468551
-0.3392261 -0.042257752 0.37489355 -0.1768132 0.184476 -0.024138696 0.010841158 -0.027864097
0.15422842 -0.31392914 0.27488247 0.30836245 0.03427192 0.10968995 0.111679696 0.26657033
0.28431636 0.043715768 -0.23746058 0.2682284 0.1638632 -0.41477498 0.20420316 -0.14816469
0.124013186 0.34373924 -0.1858681 0.08629752 0.003021687 -0.09039934 0.09890489 0.17168544
0.30720454 0.27044713 0.22934483 -0.25827342 0.26703334 -0.3874551 -0.19250175 0.2643551
0.045517486 0.17244846 0.21759695 -0.22757712 -0.31148836 -0.15747696 -0.09420663 -0.26650771
-0.33621386 0.10470519 -0.20253128 -0.31513345 -0.2399689 -0.13806893 -0.21086957 0.22631258
0.03950169 -0.22531067 0.13703312 -0.11909146 0.02123285 -0.16542448 0.20800814 0.049823955
0.071282044 0.1777363 0.21207167 -0.16350676 -0.1820394 -0.22005424 0.20038667 0.038094018
-0.036222145 0.035958786 0.19450097 -0.25056452 0.1782662 -0.010282878 -0.11224462 -0.1097826
-0.005139926 0.057244398 -0.08701205 -0.09576504 -0.18594463 -0.20319928 0.029787544 -0.07997482
-0.1225203 -0.22147733 0.18373623 -0.05714158 0.28870475 0.0054254984 0.16912879 -0.046011906
0.006347408 0.2076923 -0.22118202 0.19976822 -0.12697281 0.24741444 0.10616711 0.23039716
-0.10653773 0.120634705 -0.1305958 -0.22678395 0.01341826 -0.025403231 -0.15980518 0.18963456
0.07516724 -0.073419385 0.018813392 -0.038407985 -0.16195351 0.080983564 0.015474431 0.16550776
00000000: 81b0 393e 971c 37be a92c 5ebe 7550 8fbe
00000010: 8163 aabd d6b6 8bbe 541c 813c eafd 5fbd
00000020: 0baf adbe 7716 2dbd 0cf2 bf3e 850e 35be
00000030: 47e7 3c3e 84be c5bc 1d9f 313c 3f43 e4bc
00000040: 0eee 1d3e 52bb a0be 65bd 8c3e afe1 9d3e
00000050: b660 0c3d 20a5 e03d 53b8 e43d e87b 883e
00000060: ea91 913e 4e0f 333d de28 73be 3c55 893e
00000070: c1cb 273e 635d d4be a21a 513e 7cb8 17be
00000080: a0fa fd3d 97fe af3e 3554 3ebe c1bc b03d
00000090: 7f07 463b 4a23 b9bd a68e ca3d 4fce 2f3e
000000a0: ea49 9d3e 0c78 8a3e 5fd9 6a3e 6a3c 84be
000000b0: 98b8 883e 8460 c6be 2e1f 45be 8d59 873e
000000c0: 8b70 3a3d 5496 303e bcd1 5e3e fa09 69be
000000d0: 677b 9fbe a441 21be 68ef c0bd b373 88be
000000e0: 3924 acbe ad6f d63d 5c64 4fbe 2c59 a1be
000000f0: 68ba 75be f161 0dbe 31ee 57be 7cbe 673e
00000100: 86cc 213d d7b7 66be 6952 0c3e 39e6 f3bd
00000110: 84f0 ad3c 0965 29be 1600 553e 3414 4c3d
00000120: 52fc 913d 8100 363e 5129 593e 516e 27be
00000130: 8968 3abe e655 61be 2a32 4d3e 7908 1c3d
00000140: ac5d 14bd 8549 133d 432b 473e fe49 80be
00000150: 6a8b 363e 8479 28bc 82e0 e5bd b3d5 e0bd
00000160: d36c a8bb 1a79 6a3d 6033 b2bd 7620 c4bd
00000170: 4568 3ebe 7913 50be 0205 f43c d7c9 a3bd
00000180: eceb fabd f4ca 62be 5a25 3c3e 4a0d 6abd
00000190: 1cd1 933e 61c8 b13b 1930 2d3e fb76 3cbd
000001a0: ebfd cf3b 4aad 543e 8a7d 62be 0a90 4c3e
000001b0: 2905 02be 365a 7d3e 246e d93d 3ced 6b3e
000001c0: 7430 dabd 540f f73d e8ba 05be 0d3a 68be
000001d0: 43d8 5b3c 701a d0bc f8a3 23be 902f 423e
000001e0: 48f1 993d e75c 96bd 8b1e 9a3c b151 1dbd
000001f0: 24d7 25be b6da a53d 7888 7d3c de7a 293e

fc_out.bias f4 [2]
0.08998203 -0.014794129
00000000: 8048 b83d 1363 72bc
