trained_bsde_model_lq/d2_z_net_x0_is_-2.0.pth (torch, 21413 bytes, 6 tensors)

fc_in.weight f4 [64, 3]
00000000: 8c04 973d f3bf 623e 0f7b bd3d b71a 32bf
00000010: c95e 07be b435 0dbe 1961 80be ea4e b1bd
00000020: 4102 8f3d b418 833e a6f9 473c 6554 dabd
00000030: 8b5e f0be 7d6d fa3d 544e 693a 0d8d 7e3e
00000040: 53c9 8ebd cbc3 fe3d c9ea acbe 3af9 0dbe
00000050: b282 e4bd 1cfa b4bd 76e6 c43c 8fd9 f23d
00000060: 9f6b 0ebf 909c 81bd 4c1b 993d 2140 03bf
00000070: feaa c6bd cfb0 9ebd e70b 31bf fd38 85bb
00000080: 116d 203c 2a80 e23d b2e1 813e 5479 603b
00000090: 72f3 993e 9c89 423e fb3d a2bc a6ed b13e
000000a0: 6e58 543c 5a7a debc 168b 0dbf ed49 e1bc
000000b0: 2239 a13c 0fab 05be 3bc1 14be 6744 ff3d
000000c0: 1c59 a6bd 19b5 a0bc 89f3 d9bd 3521 34be
000000d0: c697 163e 9430 6a3d 841a 8a3e f459 bcbd
000000e0: 6a3c 5c3d 82a7 623d 1680 01be 0cc2 be3d
000000f0: cb0e d9bd d6ce 19be 8059 a9bc 3800 9cbd
00000100: 704f 44bd 273a 133d 997d a4bd 03fe 633d
00000110: 49c7 6cbe 5ba7 9dbd 8316 513e aba3 e8bd
00000120: 5459 4dbd 50bc 93bd 65fc 04bd 2907 8dbe
00000130: 9983 5cbd f723 10be a1e7 473e 78f5 033e
00000140: 2236 39be e4f8 493e fab7 03be df33 023c
00000150: a815 e9be a100 1d3d ad0a f63d b636 213e
00000160: 562c ac3d a4f9 7c3b 8a76 94bd 148d 303d
00000170: 3b07 36be a810 1c3d d6b7 f9bc 4a17 453e
00000180: d25e 6a3e a8fd afbc dbe7 49bc 93f6 87be
00000190: 58ca aabd 8e6a 873d 2739 dd3d e3fc 24bd
000001a0: 69e8 403d bf87 983e 2761 d53b 503e 023e
000001b0: b7c3 c2be c4b0 d73d 3a7b 193d dd0c e8be
000001c0: 5295 cebd 141c e2bd 135f fd3e b893 7ebd
000001d0: 8f73 d5bd bd7c aabe 2848 f33d e4b8 a23b
000001e0: 58db 393e ba36 463c 2a3c d7bd c3ba 9b3e
000001f0: a65e 3cbd 9837 cfbd 0372 c03d e80c 2b3e
00000200: 8f68 753d ebd0 85bd 3097 56be 6b12 61bd
00000210: cce4 b2be 318e bebd 3279 dc3d a916 91bc
00000220: 211e 2d3e 1c29 0ebd fc1c e6be 9f81 f03b
00000230: 2702 0fbd f96c 2cbe a665 9f3d 7611 5e3d
00000240: a533 823e 4d37 2bbe 728a 88be cf24 adbe
00000250: 16c0 bebc 31dd 65bd da96 39be af41 063e
00000260: 0ce6 f0bd 7e9d 233e 4e2f 01be 9f72 5a3d
00000270: d2fa 58be 97a8 5abe 8333 173d ee90 39be
00000280: 4d16 8a3d 6c10 a3bd fac2 eebc e034 c0bd
00000290: c725 81bc b4e4 803e b8d0 0dbd 380a 643b
000002a0: b7c3 4dbd 713b e2bd 65e8 443c b1c9 b93e
000002b0: eb90 d6bb dcba 1fbe 3597 0e3f d87f 953e
000002c0: 164a 80be ce1a 333e 4154 f1bc 2180 ee3c
000002d0: 5b92 b13e 9655 d5bd 33ac bcbd 9e77 3cbf
000002e0: fcfe ff3c f6df efbb 09f5 723e b4a5 81bd
000002f0: 7c96 50bd 12ab fc3d 3c42 393e be95 873d
0.07373914 0.22143535 0.09251987 -0.69572014 -0.13219751 -0.13790017 -0.2507408 -0.0865763
0.06982852 0.25604784 0.012205517 -0.10660628 -0.4694713 0.122279145 0.00088999164 0.24858494
-0.06971993 0.12439688 -0.33772877 -0.13864604 -0.11157741 -0.08836767 0.024035674 0.11857902
-0.55632967 -0.0632869 0.074759096 -0.5126973 -0.09700583 -0.07748567 -0.69158787 -0.0040656314
0.009791628 0.110596016 0.25367504 0.0034252005 0.30068547 0.18997806 -0.019804945 0.34751624
0.012960536 -0.027157951 -0.55290353 -0.02750107 0.019680563 -0.13053535 -0.14526837 0.124642186
-0.08122465 -0.019617604 -0.10642154 -0.17590792 0.14706334 0.057175234 0.26973355 -0.09196845
0.053768553 0.05533553 -0.12646517 0.09314355 -0.10598525 -0.15020308 -0.02067256 -0.07617229
-0.04792732 0.03594413 -0.08031768 0.055662166 -0.23122896 -0.07697936 0.20418744 -0.11359342
-0.050134018 -0.07213652 -0.032467265 -0.27544525 -0.05383644 -0.1407622 0.19521953 0.12886608
-0.18087056 0.1972385 -0.1286315 0.007946937 -0.45524335 0.038330678 0.12013755 0.15743527
0.08406894 0.0038600946 -0.07249172 0.043103293 -0.17776196 0.038101822 -0.030483168 0.19247165
0.22887734 -0.021483257 -0.012323345 -0.2655531 -0.08339375 0.066121206 0.108019166 -0.040280234
0.047096644 0.29791066 0.0065118256 0.12719083 -0.38039944 0.10531762 0.037471034 -0.45322314
-0.10087074 -0.11040512 0.49486598 -0.062152594 -0.10422432 -0.33298293 0.11878997 0.0049658883
0.18150079 0.012098009 -0.10509522 0.30415925 -0.0459887 -0.101180255 0.09396746 0.16704142
0.059914168 -0.065339886 -0.20956111 -0.054949205 -0.34940183 -0.093044646 0.10765304 -0.017711
0.16906025 -0.034707174 -0.44943988 0.007339671 -0.034914162 -0.16838445 0.0778306 0.05421587
0.25430027 -0.16720314 -0.26668125 -0.33817145 -0.023284953 -0.056119148 -0.18123952 0.13110994
-0.11762628 0.15978047 -0.12615702 0.053331967 -0.2118943 -0.21353374 0.03691436 -0.18121693
0.06742535 -0.079621166 -0.029145706 -0.09385085 -0.015765084 0.25174487 -0.034622878 0.003479613
-0.050235476 -0.11046494 0.012018298 0.3628669 -0.0065480373 -0.15598625 0.55699474 0.291991
-0.25056523 0.17490694 -0.02945912 0.029113831 0.34681973 -0.10416715 -0.09212532 -0.7362002
0.031249516 -0.0073203994 0.23726286 -0.063304335 -0.050924763 0.123373166 0.18091673 0.06620358

fc_in.bias f4 [64]
00000000: ccd2 b63e 70a9 953e ca25 d03e fa46 44be
00000010: fb60 453f 9c2a e9be a68f e33e b40a 573d
00000020: 0213 c23e f862 bb3e 8caf 9d3e 6337 a73d
00000030: ea7a e5be ff0d 0e3e 4bcc 473e 7a21 54be
00000040: 7122 0dbf e5de b43d e322 e5be e5d2 08bf
00000050: 70d8 203f f939 64be 9923 903d 6296 e03e
00000060: 1e9c e03e 462e 2cbd cfe8 4cbf ccc3 06bf
00000070: d0a7 fd3e e0f8 88be e1aa f43e f0a8 05bd
00000080: 1775 ffbe 2e20 e13e a799 2cbe 4cdb d7be
00000090: 92ae 123f 7b7d 633e 62be 1abf b39a 1d3f
000000a0: bddf 46bd 9e0f f2bd 517d 93bd 2ced 94bd
000000b0: 6d66 b43e ad94 eb3e 6fae e03e d6a3 a53e
000000c0: ce49 be3e 4c48 58be b021 573e 2c49 1abf
000000d0: 9989 d33e 57c6 b33e daa5 98be c285 963e
000000e0: 32b6 3a3f 0d73 e7be 7085 b33d d38f 013e
000000f0: 0d6e 2dbf a22b 1f3f 57fa afbe 5502 a9be
0.357077 0.29230833 0.4065383 -0.191677 0.77101105 -0.4554032 0.44445533 0.05250044
0.37905127 0.36598945 0.30797994 0.08164861 -0.44820338 0.13872527 0.19511525 -0.20715895
-0.5513068 0.08831576 -0.4475318 -0.534468 0.6283026 -0.2228774 0.0703804 0.43864733
0.43869108 -0.042036317 -0.8004274 -0.5264251 0.49542093 -0.26752377 0.4778662 -0.032631814
-0.4989402 0.43969864 -0.16855489 -0.42159498 0.57297623 0.22215836 -0.6044675 0.6156418
-0.048553217 -0.11819385 -0.072016366 -0.072717994 0.35234395 0.46011868 0.43883082 0.3235156
0.37165684 -0.21121329 0.21008945 -0.602679 0.41315916 0.3511226 -0.29814035 0.29398924
0.7293426 -0.45204964 0.087656856 0.12652521 -0.6774605 0.62175953 -0.34370682 -0.33009592

layers.0.weight f4 [64, 64]
00000000: 3718 02be fd76 733e c8c6 43be f8cd 2dbe
00000010: 332b ecbe e4e6 a6bd b81a 5d3e 0f88 383e
00000020: 04a9 1c3d f438 413d 0643 8ebe fbe2 85ba
00000030: fb39 c5bd 708d 96bd a87e 9dbd 916f ec3d
00000040: 27c9 fdbd 093c e4bd af35 b53e 5de8 403e
00000050: 7fc3 15be d538 adbd 59d7 dcbd 78e4 453d
00000060: d087 1e3e ef11 3b3e 7756 73bd 98db 033e
00000070: b271 dfbd 8439 3e3e c66e 2bbe 5506 fe3d
00000080: da5b 40be 1f17 77bd efd2 5f3e efb8 30be
00000090: c794 5a3d 4959 7c3e 75ad e93d d002 68be
000000a0: f108 06be 16fa e53d c42b 073e de52 acbd
000000b0: 40e6 adbd 8182 fd3c 9119 463e 3190 7abd
000000c0: a5ce 8a3c e523 6abe 4cba 3cbe 9edc 83bc
000000d0: 6eee 873d d2b3 32be bce5 ca3c e086 d7bd
000000e0: f58e 4dbe d255 2abd 44e9 e13d 9bfe 513e
000000f0: 6660 03be e7c4 72be 1e0f 03be 51ba 0b3e
00000100: 57b1 abbd a0e5 3d3e 9b8f 4d3c 9f50 01be
00000110: f5dc 033e a4da 51be 0062 f83d a2b5 07be
00000120: 02db 203c b377 0fbe 8d4e 573e e23c 3fbe
00000130: cda0 83bd 3eab be3d f9d7 b4bd 5ed2 0bbd
00000140: 000b 3f3d 6370 8fbc d021 32be 7fd6 32be
00000150: ffa7 07bb 9227 edbd 8d7e 083e 0671 af3d
00000160: dc15 4b3b e01a 4fbe 2840 82bc 28fd 86be
00000170: 151b e0bd 6fc6 d3bd a23b 363e 2a0b 4c3e
00000180: 2741 bb3d 6c8a 953b bb2c f8bd ee22 f1bd
00000190: 1904 c73d 21d2 253e 31d6 58be bd77 cb3d
000001a0: 3239 09bd 0710 5bbe 693e 503d dd36 983d
000001b0: 8618 c8bd 7de3 743e fd97 023e 7fcf 3e3e
000001c0: 6b95 323e 3ea2 fe3d 4396 d1bd aae9 9fbd
000001d0: 6e68 2d3e ff5c 1f3e 12ae e8bb 46ea 11be
000001e0: e249 dcbd cda5 eb3d a609 2bbb b378 033e
000001f0: b005 04be abc2 bbbd 2ec7 57be dab6 45be
00000200: a975 4b3e f044 68be 3905 053e 317e 073e
00000210: 4581 38be e949 de3d 4cc0 d4bd de6e 133e
00000220: 78f1 0bbe 1d5d 54bd 86b1 30be 2d71 603e
00000230: 8ac8 1c3e cf99 61be f484 233e 618a 57be
00000240: 303a 8d3d 3ae8 f0bd 6adb cebd d06d 153e
00000250: 8d0d bcbd 660e 1b3e 6fea 43be abf6 7e3d
00000260: f7d6 053e f282 91bd 8ba8 de3c c9ef b9bd
00000270: 046a 9fbe 6f1e 9d3c 72b2 fdbc 430d 173e
00000280: bdda 2b3e 7efe 8dbd d973 363b a5a1 9fbd
00000290: c9b7 e23d bf96 15bc c6d6 1a3e 668f 02be
000002a0: f601 2c3e 9081 223d 47f4 6f3e ff09 8d3d
000002b0: 6681 18bd fb0f 3cbe 9da1 bebe f51d 34be
000002c0: 9527 86be 3f1f e4bc 3d83 8bbd 7d92 82bc
000002d0: c7cc 85bd 2d8f e13d ef9a adbd 63aa 44be
000002e0: 58b9 14be 37e0 353d fce2 253e 4e13 80bb
000002f0: e4b1 303e f118 6dbe f5b7 b0bd a4b3 5b3e
00000300: 7046 a03d 4388 88bd e32f 36bd 1d2e 733d
00000310: 585a cbbe 4b9a febc 67ef eabd 0337 323e
00000320: 144a 57bc d361 563c 9740 cdbe 6d76 b93d
00000330: 8f6d 2cbe 6b06 643e d095 e13b ecf6 28be
00000340: f9cf 5d3e ec0d 943b 0522 0a3e f1b1 673e
00000350: 485a e0bc 5af4 ff3c 65da a8bd a904 e1bd
00000360: 283f 6b3d af1b b53c 6cf3 603e 9911 333e
00000370: 371d 4e3d da67 fcbd b499 d73d 47bb 08be
00000380: 67d4 7b3e 625b 08be 125e df3d 997b dbbd
00000390: e093 a7be 8b91 0cbe 6c53 163d f37d 8ebe
000003a0: 4da7 9ebd a8b7 aebd 4fcb f8bd 4172 97bd
000003b0: a1c7 63bd 5c6e a6bd c3f1 20be a44a b9bd
000003c0: e6a0 f7bd e49d 54be 0be0 df3d face 223e
000003d0: a89c 1ebc 3a7f 36be 951f 353e a26c 78bc
000003e0: 143c fcbd f22a dabd 2528 98bc 5355 643e
000003f0: ad11 4d3e 97ca aebe e4c5 ecbc 38fc 6cbd
-0.1270455 0.23775859 -0.19118798 -0.16973102 -0.46126708 -0.08149508 0.21592224 0.18020652
0.038247123 0.047173455 -0.2778551 -0.001021474 -0.096301995 -0.07351196 -0.076901734 0.11544717
-0.123918824 -0.11144263 0.3539252 0.1883864 -0.14625357 -0.084581055 -0.10783262 0.048313588
0.15481496 0.1826856 -0.05940863 0.12876737 -0.109103575 0.18576628 -0.16741475 0.124035515
-0.18785039 -0.060324784 0.21857809 -0.17258047 0.05336454 0.24643435 0.114100374 -0.22657323
-0.13089348 0.11229341 0.13200289 -0.08414243 -0.08491182 0.030946018 0.1934569 -0.061172668
0.016944239 -0.22865255 -0.18430442 -0.01609641 0.06637274 -0.17451409 0.024767749 -0.10523772
-0.20074065 -0.04158575 0.1103082 0.2050728 -0.12829742 -0.23707925 -0.12798735 0.13645293
-0.08383434 0.18544626 0.012546445 -0.12628411 0.12877257 -0.20493561 0.12128067 -0.13252881
0.0098178405 -0.14010505 0.21026058 -0.18675569 -0.06427155 0.093100056 -0.08830256 -0.03413617
0.04664135 -0.017509645 -0.17395711 -0.17464636 -0.0020699499 -0.11579813 0.13329525 0.085664794
0.003098837 -0.20225096 -0.015899733 -0.26365018 -0.109426655 -0.103405826 0.17796186 0.19926134
0.09143286 0.0045636203 -0.12117907 -0.117742404 0.097175784 0.16193439 -0.21175458 0.09934948
-0.03350181 -0.21392833 0.05084077 0.07432339 -0.097703025 0.23914905 0.12753291 0.18633841
0.17439811 0.12433289 -0.10233738 -0.0780824 0.16934368 0.15562819 -0.007100829 -0.14249524
-0.107562795 0.11506233 -0.002609828 0.12839012 -0.12892795 -0.09167989 -0.21072075 -0.19308034
0.19869103 -0.22682548 0.12990274 0.13231732 -0.18018062 0.10853941 -0.1038824 0.14397761
-0.13666332 -0.051846612 -0.1725522 0.21918173 0.15310875 -0.2203133 0.15968686 -0.21048881
0.06895864 -0.11763044 -0.10100444 0.14592671 -0.09182272 0.15142211 -0.19132398 0.06224696
0.13070284 -0.07105054 0.027179977 -0.090789385 -0.3113557 0.01917955 -0.030968878 0.14751153
0.16782661 -0.06933306 0.0027840047 -0.07794503 0.110702105 -0.009130179 0.15120992 -0.12750015
0.16797623 0.03967434 0.23433028 0.06886672 -0.03723278 -0.18365471 -0.37232676 -0.17589553
-0.26202074 -0.02784693 -0.06812141 -0.015938992 -0.06533199 0.11013637 -0.08476817 -0.19205622
-0.14523828 0.04440328 0.16199869 -0.0039085513 0.1725536 -0.23154046 -0.08628837 0.21455246
0.07825935 -0.06666615 -0.044479262 0.05937015 -0.39717364 -0.031079432 -0.114714436 0.17403798
-0.01314022 0.013084847 -0.4008834 0.09055791 -0.16838668 0.22268073 0.006884314 -0.16500443
0.21661367 0.004518261 0.1348954 0.22626473 -0.0273868 0.031244446 -0.082447805 -0.10987217
0.057433277 0.022107927 0.21967858 0.17487182 0.05032083 -0.123244956 0.105273634 -0.1335269
0.24592744 -0.1331611 0.10906614 -0.10716934 -0.32730007 -0.13727395 0.03670065 -0.27830467
-0.07746754 -0.085311234 -0.12148153 -0.07394839 -0.055610303 -0.08126518 -0.15717225 -0.0904744
-0.12091236 -0.20763355 0.10931405 0.15899268 -0.009680904 -0.1782197 0.17687829 -0.015162619
-0.123161465 -0.106527224 -0.01857383 0.22298174 0.20026274 -0.3413894 -0.028902955 -0.057857722

layers.0.bias f4 [64]
00000000: 52a9 9bbd ac15 80bd 6aa2 b3bd 04fb 5a3b
00000010: dbc8 07bc e75d 823d 2358 28bd cd0e 9e3c
00000020: 31e6 aabd 6d12 3fbe e879 56bd 7e26 cf3a
00000030: 4a34 f13d f130 dc3c eae9 c2bb 82c7 053d
00000040: 6752 24be 1937 41be ace8 0ebe adce d43d
00000050: 3a61 0fbd 8b4a dcbd f521 61bd 7ca9 ca3d
00000060: 1d1e ad3b 49bd 39bd 701a f73d 7f72 38bd
00000070: 26e6 23be 08d0 703e 49a5 083e 9a8f cfbd
00000080: a85a eabd 8c1b ebbc 500e 63bd 96e9 afbd
00000090: e173 453e 0395 543e 50ff b6bd e9ad 16be
000000a0: bb78 5ebd 902b 9cbd 145e 61bb f6d1 13be
000000b0: 5ec6 a5bb 75f5 583c 7ec8 35be 645f 723b
000000c0: b1f5 e63d 3b48 893c 41ab 043e faa5 123e
000000d0: 24ba 50be 5256 983d 81f1 c1bd a437 2d3e
000000e0: 5d6a a63d 3c52 98bc aabe 953d fc12 abbd
000000f0: 63b4 4dbd 1ea0 cf3d e2f4 f83d 4253 5bbe
-0.07600655 -0.062541336 -0.087712124 0.0033413777 -0.008287634 0.06365567 -0.04109968 0.019294167
-0.08344687 -0.18659373 -0.052362353 0.0015804318 0.117775515 0.026878806 -0.005948295 0.03266097
-0.16047059 -0.18868674 -0.13955945 0.10390983 -0.03500483 -0.107564054 -0.054964025 0.09895608
0.005283131 -0.045346532 0.120655894 -0.045031067 -0.16005763 0.23516858 0.13344301 -0.10134812
-0.114430726 -0.028699659 -0.05543357 -0.08589475 0.19282486 0.20759968 -0.08935416 -0.14714779
-0.054314356 -0.076254964 -0.003438835 -0.14435562 -0.0050590476 0.013242115 -0.17752263 0.0036983127
0.11277331 0.016758075 0.12955953 0.14321128 -0.20383507 0.07438339 -0.09469891 0.16915756
0.08125756 -0.0185939 0.07311757 -0.0835323 -0.05022086 0.10137962 0.12156083 -0.21418479

fc_out.weight f4 [2, 64]
00000000: f840 6abd 559e 803d 98db 123e e8bc 21be
00000010: 37f3 c23c f7bb 91be 774e 2ebe 431f 2abe
00000020: 25b3 a43e 6f3a 483e fd17 79bd ea9b 93be
00000030: 9874 fb3d df3c c0be 55ca 15be febd 75be
00000040: 31b3 933e dfd0 1b3e 6af4 093e 1356 003e
00000050: 39f9 1fbe 9f99 babd e05b 253d 7ba7 233e
00000060: e7bf ecbc 6163 a9be 4cf5 b7bd 2006 1a3d
00000070: 3c72 4a3e f136 23be 6718 d9bd 8312 d0be
00000080: cf48 233d 3d19 383c dc5c 383d 894c 5b3e
00000090: 8a0f 40be 6ca1 67be e87b b13d 588d 9dbe
000000a0: 6bd6 643d 700d 643e adf4 253e b240 9e3e
000000b0: 185d 59be 7f77 a53e f1c0 a0be 9a2a 4c3e
000000c0: 1191 f3bd 7ae2 de3d 17cb 0b3e b1b4 fabd
000000d0: d0f3 363e 38bd 8cbd 61c4 8a3d 2c49 76be
000000e0: 901d 033f 57f5 653d 2f55 153e 29f5 dabd
000000f0: 1b83 da3d 9f8c 46be cec2 6abe 2a00 9a3e
00000100: 8fa6 693d 7534 67be c8f0 523e 6fbf 783d
00000110: 0c23 31be c512 143e abed 12be 5db7 553c
00000120: a119 ea3d bf8a 113e f939 0b3e 5108 27be
00000130: 5b34 c9bd ccd4 e1bd 3c51 d13d abc3 1d3e
00000140: 1a79 fd3d 142a 40bc 0b73 21be e224 ff3d
00000150: 0918 48be 8376 f1bd 084d 303e 9679 14be
00000160: ac44 9c3d be93 47bc f1c5 2fbe 744c 0e3e
00000170: 1dcb 85bc 4c5e e33b f00d 99bc 48fd 26bd
00000180: 2417 66ba 1918 09bc ab7b 633d 73b5 1dbe
00000190: 640c e03d 577f 373e 8ff1 723e da13 113e
000001a0: 1732 b0bd 6128 4abe 2747 1ebe 6287 2ebe
000001b0: f01c 4cbe 6630 73be 798d c8bd c652 513e
000001c0: bde1 90bd 53ca ebbd dbea 493e a472 c1bd
000001d0: 4141 a2bd a2a1 16be 9d9a 08bd 6147 463e
000001e0: 978c 603d 2536 55bd 32b3 853d 316f 0a3c
000001f0: fbd7 2b3e b983 5ebe 788f 49be e690 5ebe
-0.057190865 0.062801994 0.14341581 -0.15794718 0.023797614 -0.28463718 -0.1702212 -0.16613488
0.32167926 0.1955354 -0.060813893 -0.2882989 0.12278098 -0.3754644 -0.14627965 -0.23998258
0.2884765 0.15216397 0.13472143 0.12532835 -0.15622415 -0.09111332 0.040370822 0.15981857
-0.0289001 -0.33083633 -0.089823335 0.037603498 0.1977014 -0.15938927 -0.106003575 -0.40639123
0.039864358 0.011236486 0.045010433 0.21415915 -0.18755928 -0.22620171 0.08666211 -0.307719
0.055868547 0.22270751 0.16206618 0.30908734 -0.21226919 0.3231773 -0.31397203 0.19938126
-0.118929036 0.10883041 0.13651691 -0.122414954 0.17866445 -0.06872028 0.067757376 -0.2405135
0.51216984 0.056142177 0.14583276 -0.10691292 0.10669538 -0.1938958 -0.22925875 0.3007825
0.05704361 -0.22578605 0.20599663 0.06072944 -0.17298526 0.14460285 -0.14348476 0.0130442055
0.114306696 0.14213084 0.13596334 -0.16311766 -0.09824439 -0.11026916 0.10220572 0.15406673
0.12376614 -0.011728782 -0.15766542 0.12458207 -0.19540419 -0.117901824 0.17216885 -0.14499506
0.076302856 -0.012181221 -0.17165352 0.13896352 -0.016332204 0.0069387313 -0.018683404 -0.04076889
-0.0008777252 -0.008367562 0.05553786 -0.15401249 0.10939863 0.1791967 0.2372496 0.14167729
-0.08603304 -0.19741966 -0.1545683 -0.17043832 -0.19932914 -0.23748931 -0.09792609 0.20441732
-0.07074306 -0.115132 0.19718497 -0.09445694 -0.079226024 -0.14710096 -0.033350576 0.19363166
0.054821577 -0.05205359 0.065283194 0.008449362 0.16781609 -0.21729936 -0.19683635 -0.21734962

fc_out.bias f4 [2]
00000000: 99b6 503d ad98 ad3c
0.05095539 0.021190966
