trained_bsde_model_lq/d2_z_net_x0_is_-0.5.pth (torch, 21413 bytes, 6 tensors)

fc_in.weight f4 [64, 3]
0	0xbec58517	-0.38578102
1	0x3d85aecc	0.065274805
2	0xbd039d5f	-0.032132503
3	0x3e16d4b4	0.14729577
4	0xbe01724a	-0.12641254
5	0x3be7b4a2	0.0070710937
6	0x3d2befb3	0.041976642
7	0xbd97229c	-0.07379648
8	0x3c3aeda5	0.011409198
9	0x3ec478d5	0.38373438
10	0x3dab14f1	0.08353604
11	0xbd48a074	-0.048981145
12	0x3ef64e06	0.48106402
13	0xbd4c99ac	-0.04995124
14	0xbd9266a3	-0.07148483
15	0x3e03c05e	0.12866351
16	0x3e3606cc	0.1777603
17	0x3ca48f1a	0.020087767
18	0xbed8f6ce	-0.42375797
19	0x3de72c2f	0.11287724
20	0x3adc1c0c	0.0016793027
21	0xbf24a7ab	-0.6431834
22	0xbd8b633d	-0.068060376
23	0x3dc2aa97	0.09505194
24	0xbe76c8de	-0.24100062
25	0x3e0036d4	0.12520915
26	0xbe2dadd0	-0.16960835
27	0xbde17fd6	-0.11010711
28	0x3de95f71	0.11395157
29	0xbc0e27cc	-0.0086764805
30	0xbdd398de	-0.103318915
31	0x3e265790	0.1624434
32	0x3db51531	0.088419326
33	0x3e5ef57c	0.21773332
34	0xbdea0dc3	-0.11428406
35	0x3de01f28	0.109434426
36	0xbeb1bc75	-0.34714094
37	0xbc93fb21	-0.018064084
38	0xbdd84098	-0.10559195
39	0x3ea5b887	0.32367346
40	0x3dfc7e66	0.12328796
41	0x3d1dc65f	0.03851926
42	0x3eb02884	0.3440591
43	0x3d54778c	0.05187182
44	0xbdbcba0f	-0.09215175
45	0x3e36fd0b	0.17869966
46	0x3de642d2	0.11243214
47	0x3cb45351	0.022012385
48	0xbc9f3cf9	-0.019438254
49	0xbd5823b2	-0.052768417
50	0xbdf707b2	-0.12062015
51	0x3ee90069	0.45508125
52	0xbdfb6463	-0.122750066
53	0x3c49f98c	0.012327563
54	0x3e9dcf7e	0.30822366
55	0xbe223fa7	-0.15844594
56	0x3c5da596	0.013528248
57	0xbdf906b8	-0.121594846
58	0xbd4bf19c	-0.049790964
59	0xbdfac33d	-0.1224427
60	0x3dce7e2f	0.10082661
61	0x3e0e46fe	0.13894269
62	0xbdb8de99	-0.09026832
63	0xbe236fed	-0.15960665
64	0x3daef5bb	0.08542963
65	0xbd66a2bb	-0.056307536
66	0x3e07c619	0.13259162
67	0x3e21c440	0.1579752
68	0xbcaa6bc0	-0.020803332
69	0xbdcc79df	-0.099841826
70	0x3e1075e7	0.14107476
71	0x392962d4	0.00016153912
72	0x3dbe90d1	0.09304965
73	0xbd40e57d	-0.047093857
74	0x3d7a33fa	0.061084725
75	0x3d6a6ca4	0.057232514
76	0xbda7b766	-0.08189277
77	0x3d52d445	0.051471967
78	0x3e9feb11	0.3123403
79	0x3b1810cd	0.0023203373
80	0x3cd77570	0.026301116
81	0x3f078ada	0.52946246
82	0xbdc1eddf	-0.094691984
83	0xbd455a6e	-0.048181944
84	0x3d448b57	0.047984447
85	0xbe27a7bd	-0.16372581
86	0x3ddc09ec	0.1074408
87	0xbd8d1873	-0.06889429
88	0x3defd303	0.11710169
89	0x3dad9fa2	0.08477713
90	0xbe365ceb	-0.17808883
91	0x3b39f057	0.0028372013
92	0xbd56c9c1	-0.0524385
93	0xbedbc5d3	-0.42924365
94	0xbe06baa0	-0.1315713
95	0x3d271f29	0.0408012
96	0xbeaabf41	-0.3334904
97	0x3e252669	0.16127934
98	0xbd6cc869	-0.057808314
99	0xbf24fb00	-0.64445496
100	0xbd80338f	-0.06259834
101	0x3d08ac7b	0.033367615
102	0x3f228ba0	0.634943
103	0xbd0585a2	-0.032598145
104	0x3d08c878	0.033394307
105	0x3ef8f555	0.48624673
106	0xbdff0c73	-0.124535464
107	0xbc453fbc	-0.012039121
108	0x3ea040d1	0.3129945
109	0xbcd84b35	-0.026403049
110	0x3d92ee61	0.071743734
111	0xbe1fa859	-0.15591563
112	0x3d966538	0.07343525
113	0x3e5779c5	0.21042545
114	0xbc830030	-0.0159913
115	0x3d8affe2	0.06787087
116	0x3db60106	0.08886914
117	0xbedb486e	-0.42828697
118	0xbc7f41bd	-0.015579638
119	0x3da157d6	0.078780815
120	0x3f04e30f	0.51908964
121	0xbd0f828d	-0.035036612
122	0x3ccd46b9	0.025058137
123	0x3ed9e172	0.42554814
124	0x3dbcb438	0.092140615
125	0xbdc45cc6	-0.09588008
126	0xbe99230f	-0.2990956
127	0xbd9b7d35	-0.07592241
128	0xbd519b76	-0.05117365
129	0x3f163f04	0.58689904
130	0xbd832a87	-0.06404596
131	0x3d1457f6	0.0362167
132	0xbe4aa7ee	-0.19790623
133	0xbde680a6	-0.112550065
134	0xbd87385b	-0.06602546
135	0x3f1b4388	0.6064992
136	0xbd9e1dbf	-0.07720517
137	0xbd37cc71	-0.044872705
138	0x3eaa0bc7	0.3321211
139	0x3caba749	0.020953791
140	0x3d0f356f	0.034963068
141	0x3e4a2dae	0.19743988
142	0x3dfe3d3c	0.12414023
143	0xbe042bf4	-0.12907392
144	0x3e130e8c	0.14361018
145	0x3d0a8797	0.033820715
146	0x3e01558a	0.12630287
147	0x3c60f83c	0.013731059
148	0xbdf5fbd8	-0.12010926
149	0xbd351efc	-0.044219002
150	0x3e453252	0.19257477
151	0xbbed0920	-0.007233754
152	0x3dd4cab8	0.10390228
153	0xbe7b5159	-0.2454275
154	0x3e26ea45	0.16300304
155	0x3d997780	0.07493496
156	0x3e793d88	0.24339879
157	0xbdeb18d5	-0.11479346
158	0x3dab7214	0.08371368
159	0x3efd6d43	0.49497423
160	0x3e43fada	0.19138661
161	0x3d0788fa	0.033089615
162	0xbe880fbc	-0.26574504
163	0xbe0c2366	-0.13685378
164	0xbd422c61	-0.047405604
165	0x3df3a35d	0.118963934
166	0xbd82e4c6	-0.06391291
167	0xbc2afd81	-0.010436417
168	0xbea14c19	-0.3150337
169	0x3e1369dd	0.14395852
170	0x3c6286f5	0.013826122
171	0xbe54af6a	-0.2077004
172	0x3e1e2e61	0.1544738
173	0xbcce0e06	-0.025153171
174	0xbe94e03d	-0.2907733
175	0xbde925b8	-0.113841474
176	0xbd9bbc3b	-0.076042615
177	0x3ea088cc	0.31354368
178	0x3e496bda	0.19670048
179	0x3d1c088c	0.03809409
180	0xbe5de561	-0.21669532
181	0xbe3025ae	-0.17201874
182	0x3d288854	0.041145638
183	0xbeb4796c	-0.35248888
184	0xbe0bdde5	-0.13658865
185	0x3b958593	0.0045630424
186	0xbe4b1235	-0.19831164
187	0xbdc4b35a	-0.09604521
188	0xbe473c04	-0.19456488
189	0x3ece0afd	0.40242758
190	0xbd99731e	-0.0749266
191	0xbdf06aff	-0.11739158

fc_in.bias f4 [64]
0	0x3e99bf1b	0.30028614
1	0xbe16a6b7	-0.14712034
2	0x3e007aa0	0.12546778
3	0xbec218ab	-0.37909445
4	0xbed53ddd	-0.4164876
5	0xbefbd650	-0.49186945
6	0x3ee88b42	0.45418745
7	0x3f31da3f	0.6947364
8	0x3f24f841	0.64441305
9	0x3dfa7955	0.122301735
10	0xbf0693eb	-0.52569455
11	0x3e4f8c32	0.20268324
12	0x3ea59be0	0.32345486
13	0xbea93daa	-0.33054858
14	0xbed237f2	-0.41058308
15	0xbe406a98	-0.18790662
16	0x3d753126	0.059861325
17	0xbf1f315b	-0.62184685
18	0xbef60144	-0.4804784
19	0xbef2b7b9	-0.47405794
20	0x3e0cdd09	0.13756193
21	0xbe9ad233	-0.30238494
22	0xbe6852ec	-0.22687882
23	0x3d96ae09	0.07357413
24	0xbdb6fa41	-0.08934451
25	0xbd243446	-0.040088914
26	0xbe60467d	-0.21901889
27	0xbf29f4c4	-0.6638911
28	0x3e9363ef	0.2878718
29	0x3e9e367e	0.3090095
30	0x3e7b9d71	0.24571778
31	0x3f3009e4	0.6876509
32	0x3f2d3352	0.67656434
33	0x3f091de7	0.5356125
34	0xbf0e5e7f	-0.5561294
35	0xbf178455	-0.591863
36	0xbe7e3446	-0.24824628
37	0xbe8e523a	-0.2779711
38	0x3d9b3a6c	0.075795025
39	0x3eb7c40d	0.35891762
40	0xbeeb1cf5	-0.4592053
41	0xbefc54a2	-0.4928332
42	0x3e0d7f9b	0.13818209
43	0xbf2c9c4e	-0.67426
44	0x3e429f33	0.19006042
45	0xbf2aaa4b	-0.66666096
46	0xbe8c1325	-0.27358356
47	0xbea77269	-0.32704476
48	0x3cfd0ff4	0.030891396
49	0x3d878d5b	0.06618758
50	0xbec17f2b	-0.37792334
51	0x3f1fb372	0.62383187
52	0xbef81bc5	-0.48458686
53	0xbf2bc7a1	-0.67101485
54	0x3e6c27ea	0.23062101
55	0xbd44ebf5	-0.04807659
56	0x3f0421ad	0.51613885
57	0x3ec3dad8	0.38252902
58	0x3eb788a0	0.35846424
59	0xbefe2f20	-0.4964533
60	0x3ef6dd49	0.48215702
61	0x3ee2b882	0.44281393
62	0x3f10abd8	0.5651221
63	0xbefeca2a	-0.49763614

layers.0.weight f4 [64, 64]
0	0x3ed4eff4	0.4158932
1	0xbe6f50be	-0.23370644
2	0x3e1a9275	0.15094931
3	0xbe64f901	-0.22360612
4	0xbd8f9f63	-0.070128225
5	0x3e2dae5c	0.16961044
6	0x3e46be40	0.19408512
7	0x3e75336e	0.239454
8	0x3eaa3570	0.33243895
9	0x3d295e7b	0.04134987
10	0xbd14c8ee	-0.036324434
11	0x3cb21998	0.02174072
12	0xbce56d6f	-0.028006284
13	0x3d85be66	0.06530456
14	0xbe82caf8	-0.25545478
15	0xbcacde93	-0.021102225
16	0x3e24de1f	0.16100357
17	0xbe40fd60	-0.18846655
18	0xbed8f9de	-0.42378134
19	0xbe8208ac	-0.2539724
20	0xbdf14fed	-0.11782823
21	0x3db31021	0.08743311
22	0xbe410e6e	-0.1885316
23	0x3e64ab9d	0.2233109
24	0xbe031e3f	-0.12804507
25	0x3dab3970	0.08360565
26	0x3d337cd9	0.043820236
27	0xbe855995	-0.26044908
28	0xbd92f03b	-0.071747266
29	0xbe128529	-0.14308609
30	0x3e6e6867	0.23282014
31	0x3e601709	0.21883787
32	0xbc304014	-0.010757465
33	0x3eaa6e60	0.33287334
34	0xbe45ceca	-0.19317165
35	0xbedd473e	-0.43218416
36	0x3c693aec	0.0142352395
37	0xbd980048	-0.07421929
38	0x3e5846d1	0.21120764
39	0x3e868b0f	0.26277968
40	0x3d8df822	0.06932093
41	0xbe67caae	-0.2263591
42	0xbcc28941	-0.023747088
43	0xbe22dbc7	-0.15904151
44	0xbe31bdc1	-0.17357542
45	0x39d78a7d	0.00041111177
46	0x3c36c56b	0.011155467
47	0xbdbd6e5a	-0.092495635
48	0xbe366e33	-0.17815475
49	0x3d859f74	0.06524554
50	0xbe244579	-0.16042127
51	0x3e769f2f	0.24084161
52	0xbe8435a3	-0.25822172
53	0xbe3b24ed	-0.18275805
54	0xbdc80ef9	-0.09768481
55	0xbe2500cb	-0.16113584
56	0x3dca7fff	0.098876946
57	0x3d7b8575	0.06140657
58	0xbd8d8d79	-0.069117494
59	0x3e5408e8	0.20706522
60	0x3dc6f9cc	0.09715614
61	0x3c07f579	0.008298271
62	0x3e36a389	0.17835821
63	0xbe8336c1	-0.2562771
64	0xbdd5b231	-0.10434378
65	0x3e3dd949	0.18539919
66	0x3d460c37	0.048351493
67	0xbdf071b4	-0.11740437
68	0xbe392b5d	-0.18082948
69	0x3b398c93	0.0028312549
70	0xbe0f93c8	-0.14021218
71	0x3df958ed	0.12175164
72	0x3cab9f51	0.020949991
73	0x3dcac6bb	0.09901186
74	0x3daaea4b	0.08345469
75	0x3e31d806	0.17367563
76	0xbe087c1c	-0.13328594
77	0x3d1dd50c	0.038533255
78	0xbddac5e2	-0.106822744
79	0xbda9050f	-0.08252918
80	0xbd94f195	-0.072726406
81	0x3d5b26e8	0.0535039
82	0xbca635b7	-0.020289285
83	0x3d914bcc	0.07094535
84	0xbdffef86	-0.12496857
85	0xbe5435b0	-0.20723605
86	0x3dc6e79e	0.09712146
87	0xbd368d2e	-0.044568233
88	0x3de5f6aa	0.11228688
89	0xbe1613bd	-0.14655967
90	0xbe23c819	-0.159943
91	0x3c6ecd5d	0.01457533
92	0xbe2b0e30	-0.16704631
93	0x3dc09fe1	0.094054945
94	0xbc399f92	-0.011329548
95	0x3e61a83a	0.2203683
96	0xbd0c0612	-0.034185477
97	0xbdf77fc5	-0.12084917
98	0x3e2b4b25	0.16727884
99	0xbe4ba1d8	-0.19885957
100	0xbe0301d5	-0.12793668
101	0xbe4b4281	-0.19849588
102	0x3d4392f7	0.04774758
103	0x3e05d98c	0.13071269
104	0x3e378236	0.17920765
105	0xbe78782b	-0.2426459
106	0x3e42b9cd	0.1901619
107	0xbbd16692	-0.006390401
108	0x3e065be4	0.13120991
109	0x3ddb8d70	0.107203364
110	0x3ba46ace	0.005017615
111	0xbe14a99c	-0.14517826
112	0xbdf972b8	-0.12180084
113	0xbe196b54	-0.14982349
114	0x3d9b3893	0.0757915
115	0x3e2b65ef	0.16738103
116	0x3d5b5161	0.053544406
117	0x3e2dd3ba	0.16975299
118	0x3ddb1bc5	0.10698656
119	0xbdadb479	-0.08481688
120	0x3db826b2	0.089917555
121	0x3ddd1e0a	0.10796745
122	0x3daebe2c	0.08532366
123	0xbe727ce0	-0.23680449
124	0x3e3cdf54	0.18444568
125	0x3dd4efb6	0.10397284
126	0xbdbe1c48	-0.09282738
127	0xbcaf241d	-0.021379525
128	0x3dadd013	0.08486953
129	0xbe5c0a10	-0.21488214
130	0x3d6978c7	0.056999948
131	0xbe1ab8e0	-0.15109587
132	0x3e0d4ffe	0.13800046
133	0x3d963de7	0.07336026
134	0xbd215cda	-0.03939519
135	0x3e53f0aa	0.20697275
136	0x3e0ecc5f	0.13945149
137	0xbe766fea	-0.2406613
138	0x3e4a02dd	0.19727655
139	0x3d7dd55f	0.061971065
140	0x3dd99efa	0.106260255
141	0x3da6b27f	0.08139514
142	0xbdc6d579	-0.097086854
143	0xbdebea5b	-0.11519309
144	0x3ce91978	0.028454527
145	0xbe0dc123	-0.13843207
146	0xbcbb35a7	-0.022852732
147	0x3d3fba38	0.04680845
148	0xbe3e7e27	-0.18602811
149	0xbd9d80a7	-0.07690554
150	0xbd9cdf93	-0.07659831
151	0xbd8bc127	-0.0682395
152	0xbe18c95a	-0.1492056
153	0x3e30f285	0.17280014
154	0x3b6bd100	0.0035982728
155	0xbd9afb82	-0.075675026
156	0xbcb7c658	-0.022433445
157	0xbe3ee127	-0.18640576
158	0x3e505906	0.2034646
159	0xbe39ff44	-0.18163782
160	0x3d836030	0.06414831
161	0x3d156e29	0.03648201
162	0x3e5a482e	0.21316597
163	0x3db8ca9b	0.09023019
164	0xbe1a5655	-0.15071996
165	0xbd42a033	-0.04751606
166	0xbd9370c7	-0.07199245
167	0xbdf4fff3	-0.11962881
168	0xbe381ed9	-0.17980517
169	0xbe20dfaf	-0.15710329
170	0xbdf6ec01	-0.12056733
171	0xbc4d805e	-0.012542812
172	0x3e498c76	0.19682488
173	0xbe3d030a	-0.1845819
174	0xbdbbd10a	-0.091707304
175	0xbe20a6aa	-0.15688577
176	0xbe391d74	-0.18077642
177	0xbe0ab16d	-0.13544245
178	0x3d09cfa4	0.033645287
179	0x3da5a6bf	0.08088445
180	0xbd5a7e78	-0.053343266
181	0xbbae0f7f	-0.005311906
182	0xbd7867f1	-0.060646
183	0x3b763b97	0.003757214
184	0x3e3a81c8	0.1821357
185	0x3e2c49e2	0.16825059
186	0xbe1b56f7	-0.15169893
187	0x3e09b495	0.13447793
188	0xbe108324	-0.14112526
189	0xbdfa6c5f	-0.122277014
190	0xbdd1b045	-0.10238699
191	0x3ca3ce3f	0.019995807
192	0xbd8bfe98	-0.06835669
193	0xb9ebbfbd	-0.0004496555
194	0x3e41bffa	0.1892089
195	0xbd188c0e	-0.03724294
196	0xbd675e7d	-0.056486595
197	0x3dceeb8e	0.10103522
198	0x3d9a1025	0.075226106
199	0x3e0285f8	0.12746418
200	0xbd3072c1	-0.043078188
201	0x3e444468	0.1916672
202	0xbe13c94b	-0.14432256
203	0x3d6efa71	0.05834431
204	0x3e22f8f3	0.15915279
205	0x3e0a84af	0.13527177
206	0xbe306667	-0.17226563
207	0xbe56bb9f	-0.2097001
208	0xbe00ba32	-0.12571028
209	0x3d8db7dd	0.06919835
210	0x3e8026ce	0.25029606
211	0xbe5be3bb	-0.21473591
212	0xbdee08c8	-0.11622769
213	0xbd8730a8	-0.06601077
214	0x3d1b07a2	0.037849076
215	0xbc4206c1	-0.011842431
216	0x3e016198	0.12634885
217	0xbe111d4f	-0.14171337
218	0xbe3e5441	-0.18586828
219	0x3e2ebe72	0.17064837
220	0x3e08fb39	0.13377084
221	0xbe0dde15	-0.13854249
222	0xbe273938	-0.16330421
223	0x3c1dcdde	0.009631602
224	0xbdcaa3d6	-0.098945305
225	0x3d94beae	0.07262932
226	0xbc5a0402	-0.01330662
227	0xbc4e26b9	-0.012582474
228	0xbcfe21f4	-0.03102205
229	0xbc520068	-0.01281748
230	0xbd78cfe6	-0.060745142
231	0x3dc12f8f	0.09432899
232	0xbdd27f77	-0.10278218
233	0xbbae0e2e	-0.005311749
234	0xbc5fde02	-0.013663771
235	0x3e0e57ba	0.13900653
236	0x3e199e5d	0.15001817
237	0xbd493b7f	-0.049129006
238	0x3d0ccbc5	0.034374017
239	0xbcccb5af	-0.024988977
240	0x3e2a4a8b	0.16629998
241	0xbc9278d5	-0.017879883
242	0x3c8de251	0.01731983
243	0xbd5f4fe7	-0.05451956
244	0xbe61d799	-0.220549
245	0xbe4b0cf1	-0.19829156
246	0xbb08c2f5	-0.0020868157
247	0x3e62bd95	0.22142632
248	0xbda7ad2e	-0.08187328
249	0x3cbf89a1	0.023381056
250	0xbcb2460a	-0.021761913
251	0xbe80a896	-0.2512862
252	0xbe21f09e	-0.15814444
253	0x3c778749	0.015107938
254	0xbd822fc2	-0.06356765
255	0xbdb66fcb	-0.089080416

layers.0.bias f4 [64]
0	0x3e1c589b	0.15268175
1	0x3d53b5d4	0.051687077
2	0xbd8a935f	-0.0676639
3	0xbca99540	-0.02070105
4	0x3bf72482	0.007542194
5	0x3e0454ad	0.12922926
6	0x3d88bba7	0.06676417
7	0xbbee0f53	-0.0072650104
8	0x3dd52f1e	0.104093775
9	0x3df82bf9	0.12117762
10	0x3de44b5b	0.111471854
11	0xbc1c369a	-0.009534502
12	0xbe6e4c9d	-0.23271413
13	0xbc8e2816	-0.017353099
14	0x3d6f1aba	0.058375098
15	0x3c1f1078	0.009708516
16	0x3df5573c	0.11979529
17	0xbd1f7b8c	-0.038936183
18	0xbd5eaff3	-0.054367017
19	0xbde4cf81	-0.11172391
20	0xbe30a282	-0.17249492
21	0xbd070c08	-0.03297046
22	0x3ca6c0fc	0.020355694
23	0xbcc63f51	-0.024200113
24	0x3c679faa	0.014137188
25	0xbd0033f7	-0.031299558
26	0x3dd673b4	0.10471287
27	0xbddb993a	-0.10722585
28	0x3d42a0ef	0.04751676
29	0xbdc36574	-0.09540835
30	0x3d8b261b	0.067943774
31	0x3e0da521	0.13832523
32	0x3e0ed4a2	0.139483
33	0xbddc6d47	-0.107630305
34	0xbd828723	-0.063734315
35	0x3dae96d9	0.08524866
36	0xbd9f3677	-0.0777406
37	0x3d87cc5e	0.06630777
38	0x3d3b730a	0.045764007
39	0xbd95487a	-0.072892144
40	0xbcbc83a2	-0.023011986
41	0xbded1da3	-0.115779184
42	0xbd17f9e5	-0.037103552
43	0x3da39faf	0.079894416
44	0xbe4e780e	-0.20162985
45	0xbd33bdc4	-0.043882146
46	0xbd9a017d	-0.07519815
47	0xbe27ca6a	-0.16385809
48	0xbe03d13a	-0.12872782
49	0x3d90c779	0.070692964
50	0x3e07eb9a	0.13273469
51	0x3d446c71	0.04795498
52	0xbde51785	-0.111861266
53	0xbbb22b21	-0.0054372703
54	0xbdfa8061	-0.122315176
55	0xbdf887e2	-0.121352926
56	0x3db36f54	0.087614685
57	0x3d5d077f	0.053962227
58	0x3d0e94e5	0.034809966
59	0x3d33fa80	0.043940067
60	0x3d197f07	0.03747466
61	0x3cdc0bf0	0.026861161
62	0x3d91149d	0.0708401
63	0x3d68a7dd	0.056800712

fc_out.weight f4 [2, 64]
0	0x3e63ce52	0.22246674
1	0xbd340cda	-0.04395757
2	0x3cee6432	0.029100511
3	0xbe459cb3	-0.19298057
4	0x3b81d09e	0.0039616367
5	0x3e3b3b62	0.18284371
6	0xbc75834b	-0.014984916
7	0x3dd77b24	0.10521534
8	0xbb9cd7da	-0.0047864737
9	0xbe441eb8	-0.19152343
10	0x3eb747b3	0.3579689
11	0x3e84a26f	0.25905177
12	0xbed414c0	-0.4142208
13	0x3d0ccbf2	0.034374185
14	0xbd9cd1c4	-0.07657197
15	0x3e0e225b	0.13880293
16	0xbe1b7dc0	-0.15184689
17	0xbe8eff29	-0.27929047
18	0xbcc167ab	-0.023609003
19	0xbd21cb61	-0.039500598
20	0xbeeb6709	-0.45977047
21	0xbe51c3c2	-0.20484832
22	0x3e65800a	0.22412124
23	0xbe48bb56	-0.19602713
24	0xbc948572	-0.018130038
25	0xbdcbbe1a	-0.09948368
26	0x3e0f44a7	0.13991033
27	0xbe5c6a0a	-0.21524826
28	0xbe97306d	-0.29529133
29	0x3e71eb20	0.2362485
30	0x3daf662f	0.08564412
31	0x3d02a415	0.031894762
32	0xbe1c83c9	-0.15284647
33	0xbba4e91e	-0.0050326725
34	0xbd9c7247	-0.07638984
35	0xbd6f48bd	-0.058418978
36	0xbdbae956	-0.091265365
37	0x3d3ca59f	0.046056386
38	0xbc7440df	-0.014908045
39	0x3d87912f	0.066194884
40	0xbdbec0b7	-0.09314101
41	0x3d9da740	0.07697916
42	0x3e175463	0.14778285
43	0x3d9388cc	0.07203826
44	0x3eaefbce	0.34176487
45	0x3de52f1e	0.111906275
46	0x3ca79d15	0.020460645
47	0xbe81ae12	-0.25328118
48	0x3e090b83	0.13383298
49	0x3dede842	0.11616565
50	0xbec65c66	-0.3874237
51	0x3e80b6be	0.2513942
52	0x3c9c489f	0.019077597
53	0xbd2f9ae1	-0.042872313
54	0x3e94d109	0.2906573
55	0xbe10cd29	-0.14140762
56	0x3cfd09d6	0.03088848
57	0x3e2178a2	0.15768674
58	0xbc9250d8	-0.017860815
59	0xbc13125f	-0.008976548
60	0xbe105959	-0.14096583
61	0xbe12c0a4	-0.14331299
62	0x3d9395ca	0.07206304
63	0x3ca10d9c	0.01965981
64	0xbe298109	-0.1655313
65	0x3d869426	0.06571226
66	0x39123dd5	0.00013946679
67	0x3e12625d	0.14295335
68	0xbbdb3479	-0.006689605
69	0x3e124a39	0.14286126
70	0x3d9e226b	0.077214085
71	0x3dc6f757	0.09715145
72	0x3b5cdc32	0.0033700583
73	0x3d1fb1ef	0.03898805
74	0x3e23bfe1	0.15991165
75	0xbdc869a8	-0.09785777
76	0xbca38d2c	-0.019964777
77	0x3d1b14ff	0.03786182
78	0xbb4f9d79	-0.0031679554
79	0x3cf488d8	0.029850408
80	0xbcb3b9fa	-0.021939266
81	0x3dac01b1	0.0839876
82	0x3c8043c2	0.01565731
83	0xbc9ffb79	-0.019529091
84	0x3e5b4def	0.21416448
85	0xbdfe9417	-0.1243059
86	0xbcc84fc7	-0.024452103
87	0x3dffc1bb	0.12488123
88	0xbc6a85f5	-0.014314164
89	0x3cd2ff28	0.025756434
90	0x3cdedba9	0.027204351
91	0x3d9d70f3	0.07687559
92	0xbdfbf8f7	-0.12303346
93	0x3d948638	0.07252163
94	0x3d4046b4	0.046942428
95	0xbc5d12de	-0.013493268
96	0xbc958a80	-0.018254519
97	0x3d127221	0.035753373
98	0x3d2399e6	0.03994169
99	0xbd056782	-0.032569416
100	0xbc86150e	-0.016367462
101	0xbd97746a	-0.07395251
102	0x3cb88a74	0.022526957
103	0xbcd91d30	-0.026503175
104	0xbd1bc91c	-0.03803359
105	0x3e28c6e2	0.16482118
106	0xbd486b56	-0.04893049
107	0x3db6121a	0.08890171
108	0xbda09928	-0.07841712
109	0xbd2e1c6a	-0.042507567
110	0xbd99dec8	-0.07513195
111	0xbcb57d0c	-0.022154354
112	0xbc87191b	-0.016491463
113	0xbd94dae9	-0.07268316
114	0xbe49465c	-0.19655746
115	0x3de065b6	0.109569
116	0x3db13b10	0.086538434
117	0xbded98a2	-0.11601378
118	0xbe21510a	-0.1575357
119	0xbe1cd7b0	-0.15316653
120	0xbe388211	-0.18018366
121	0x3e50ca16	0.2038959
122	0x3bf8f3bd	0.0075974152
123	0xbc792107	-0.015205628
124	0x3d2e3376	0.042529546
125	0x3da2e2ab	0.0795339
126	0xbdd43a7a	-0.10362716
127	0x3d5311b1	0.051530544

fc_out.bias f4 [2]
0	0xbded01e5	-0.11572627
1	0x3d5e82f0	0.05432409
