trained_bsde_model_lq/d2_z_net_x0_is_1.0.pth (torch, 21401 bytes, 6 tensors)

fc_in.weight f4 [64, 3]
-0.3562176 0.10617199 0.09126224 0.115760565 0.14111793 0.09806751 -0.23011781 0.08371622
0.0622973 0.3252877 -0.11427092 0.0520598 -0.2579453 -0.09151309 0.0037655346 -0.028826967
-0.055362877 -0.08097787 0.45694774 0.1197121 0.013990817 -0.7093313 0.05901411 0.036160547
0.39541084 0.0755763 0.0862801 -0.041244026 -0.17203826 0.09386818 0.24773775 0.020206701
0.07411967 0.15740906 -0.05510419 -0.09639587 0.3191084 0.10995349 0.053791016 -0.1619299
-0.06054958 0.15116432 0.27751282 -0.18641968 0.019981084 -0.044904508 -0.011534965 -0.080682516
-0.42498076 -0.05998974 0.06239335 -0.1689119 0.17719373 -0.14049311 -0.16624798 -0.10164346
0.008298757 -0.35214758 -0.13101436 0.06528682 0.40357202 0.13748986 0.05299466 -0.27586165
-0.09800657 0.040297154 -0.29220682 0.14144664 -0.064291336 0.35179958 -0.18888408 0.05562025
-0.18506251 0.072581396 0.01363224 0.36264026 -0.1735477 0.005996327 0.21504189 -0.1711238
-0.3347416 0.2417285 -0.13664931 -0.04161445 0.27574977 -0.06982354 -0.09738968 0.15316068
0.15557787 -0.0020210631 -0.8043674 0.06834239 -0.090487815 0.080873154 0.008767327 -0.029896326
0.4259811 0.021445634 -0.1046412 0.13766405 -0.057284426 0.09724828 -0.41828343 -0.07992968
0.03880211 -0.60199106 -0.038093258 0.019770315 -0.3090746 -0.06686175 0.06429063 -0.113191746
-0.10332591 0.0069380063 -0.43354508 -0.014103063 -0.091310546 -0.16801171 0.18531592 0.026166715
0.11636358 0.105979495 0.011289095 0.1275672 -0.097264394 -0.0281081 -0.28002647 0.23662978
0.0141211515 0.3464969 -0.13966253 -0.0050050053 0.65457785 -0.009159675 -0.03997467 0.46607772
0.13682121 -0.03531913 -0.03695857 0.010128612 -0.038004946 -0.19924867 0.008932052 -0.117189445
0.23145996 0.035112254 -0.15991803 -0.20915738 -0.1520258 -0.026240233 0.18885013 -0.053440295
0.14846422 0.13148905 -0.0556162 0.13112876 0.33239976 0.07715839 0.08262184 0.07967215
-0.10169513 0.013869087 -0.59917384 0.13156372 0.01472136 -0.50169027 -0.05074695 -0.06922596
-0.041751277 0.046188172 0.04208919 0.040873494 0.011138365 -0.03941518 -0.40162104 0.16582319
-0.03578111 -0.2718087 0.060918767 0.024440976 0.09923626 -0.12493023 0.003796535 -0.35814962
-0.11802444 -0.016140535 -0.009624132 0.030965654 -0.007254737 -0.21558759 -0.10484636 0.0041801077
00000000: 2762 b6be b370 d93d b3e7 ba3d e013 ed3d
00000010: 3881 103e 9ed7 c83d 01a4 6bbe 6973 ab3d
00000020: 742b 7f3d 1c8c a63e df06 eabd a83c 553d
00000030: 6811 84be 376b bbbd 30c7 763b 8826 ecbc
00000040: 2fc4 62bd bad7 a5bd 0ef5 e93e 9e2b f53d
00000050: bd39 653c bc96 35bf c8b8 713d 151d 143d
00000060: 4a73 ca3e bfc7 9a3d 9fb3 b03d 7fef 28bd
00000070: cc2a 30be f63d c03d f7ae 7d3e 8688 a53c
00000080: 0ecc 973d d72f 213e eeb4 61bd 336b c5bd
00000090: 2d62 a33e 4c2f e13d f853 5c3d f4d0 25be
000000a0: d602 78bd d2ca 1a3e 2916 8e3e cde4 3ebe
000000b0: 5faf a33c caed 37bd 26fd 3cbc e03c a5bd
000000c0: 1497 d9be cdb7 75bd 2b90 7f3d 3ef7 2cbe
000000d0: 4672 353e 6ddd 0fbe e93c 2abe 722a d0bd
000000e0: 82f7 073c b04c b4be a128 06be 19b5 853d
000000f0: fea0 ce3e 24ca 0c3e ee10 593d bd3d 8dbe
00000100: abb7 c8bd a10e 253d 229c 95be 63d7 103e
00000110: 2dab 83bd 131f b43e d46a 41be 0fd2 633d
00000120: 0781 3dbe 8ea5 943d c259 5f3c fcab b93e
00000130: 7db6 31be d67c c43b f133 5c3e 143b 2fbe
00000140: 4063 abbe ad87 773e cced 0bbe ea73 2abd
00000150: 132f 8d3e a5ff 8ebd 3e74 c7bd 27d6 1c3e
00000160: ce4f 1f3e d073 04bb 06eb 4dbf 18f7 8b3d
00000170: ad51 b9bd d3a0 a53d d6a4 0f3c 24e9 f4bc
00000180: 321a da3e c1ae af3c 204e d6bd cef7 0c3e
00000190: 13a3 6abd 1b2a c73d 3f29 d6be 2cb2 a3bd
000001a0: f6ee 1e3d 161c 1abf ad07 1cbd 5bf5 a13c
000001b0: 073f 9ebe d0ee 88bd ceaa 833d 13d1 e7bd
000001c0: 899c d3bd 3758 e33b 9ff9 ddbe 8910 67bc
000001d0: 0601 bbbd 430b 2cbe 75c3 3d3e 945b d63c
000001e0: 0750 ee3d c70b d93d e5f5 383c faa0 023e
000001f0: 8e32 c7bd f542 e6bc a15f 8fbe 144f 723e
00000200: 675c 673c 0b68 b13e b203 0fbe 0701 a4bb
00000210: 6a92 273f 7612 16bc 7bbc 23bd bda1 ee3e
00000220: dc1a 0c3e cbaa 10bd df61 17bd 7af2 253c
00000230: 13ab 1bbd d807 4cbe be57 123c 0501 f0bd
00000240: d703 6d3e ded1 0f3d 8dc1 23be 5a2d 56be
00000250: a7ac 1bbe c2f5 d6bc ee61 413e 36e4 5abd
00000260: 0107 183e 11a5 063e d0cd 63bd 9e46 063e
00000270: 4d30 aa3e 3805 9e3d a435 a93d 272b a33d
00000280: 8945 d0bd 2b3b 633c 7563 19bf a4b8 063e
00000290: dc31 713c c66e 00bf 09dc 4fbd 57c6 8dbd
000002a0: 6303 2bbd cf2f 3d3d b765 2c3d f76a 273d
000002b0: b07d 363c d071 21bd 46a1 cdbe 8ecd 293e
000002c0: 378f 12bd 832a 8bbe f585 793d 7138 c83c
000002d0: 613c cb3d 6cdb ffbd 4acf 783b 635f b7be
000002e0: ccb6 f1bd 2839 84bc 89ae 1dbc afab fd3c
000002f0: 25b9 edbb fec2 5cbe b0b9 d6bd 49f9 883b

fc_in.bias f4 [64]
0.028167851 -0.3270522 0.54669297 -0.36799526 -0.08338055 0.1351758 -0.6133509 0.5689748
-0.4287628 0.54233587 0.21947294 -0.21013287 -0.5077223 -0.5203001 -0.4441537 -0.01078011
0.46683177 -0.18234545 0.41670197 0.39739302 -0.62190765 0.43496072 0.46028656 -0.6059403
0.058901582 -0.5569644 -0.2487139 0.17283942 -0.5058071 -0.14252916 0.65385556 -0.05669145
-0.3833193 -0.53145146 0.47940296 0.5832199 0.35948068 0.27687675 0.49236768 0.44545507
-0.23324746 -0.5491927 0.62502164 0.051424388 -0.4377651 -0.67276263 -0.007313467 0.06595735
-0.4989114 0.28959987 -0.36664873 0.015308843 -0.4663746 -0.036059678 0.5488511 0.58659226
-0.40367737 -0.076152086 0.5635146 0.13704951 0.16609365 0.53222436 -0.24195014 0.38845444
00000000: 44c0 e63c 6373 a7be 12f4 0b3f e069 bcbe
00000010: 6cc3 aabd 866b 0a3e 9104 1dbf 55a8 113f
00000020: cc86 dbbe 86d6 0a3f 84bd 603e 122d 57be
00000030: 17fa 01bf 6332 05bf 1d68 e3be 0f9f 30bc
00000040: 9304 ef3e c4b8 3abe f659 d53e 1977 cb3e
00000050: 5735 1fbf 2cb3 de3e aeaa eb3e e71e 1bbf
00000060: c942 713d 3895 0ebf dbae 7ebe d1fc 303e
00000070: 937c 01bf 2af3 11be 1463 273f 4b35 68bd
00000080: 6d42 c4be 340d 08bf 4e74 f53e e64d 153f
00000090: da0d b83e cac2 8d3e 9e17 fc3e b012 e43e
000000a0: 6cd8 6ebe e597 0cbf 6b01 203f 61a2 523d
000000b0: bf22 e0be 2c3a 2cbf cfa5 efbb a614 873d
000000c0: 5171 ffbe 6f46 943e 62b9 bbbe f1d1 7a3c
000000d0: a7c8 eebe 50b3 13bd 8181 0c3f e92a 163f
000000e0: cdae cebe a0f5 9bbd 7e42 103f b556 0c3e
000000f0: 7414 2a3e db3f 083f c7c1 77be 80e3 c63e

layers.0.weight f4 [64, 64]
0.024621252 0.096979305 -0.1821457 0.17891973 0.068717554 -0.073130034 -0.0018942181 -0.03584456
0.2073656 -0.086765505 0.1897331 -0.13412072 0.15006101 0.097357735 0.07877267 0.07474933
0.1567599 -0.1993216 0.22642013 0.24423121 0.1737512 0.09782675 0.017315794 -0.18389761
-0.016278027 -0.02976461 -0.18279071 0.13555232 -0.20665881 -0.068335116 0.0541298 -0.06506243
0.046005815 -0.16889171 -0.04416565 0.24227662 -0.14566131 0.1673011 0.099962585 -0.08434582
0.05643032 0.05249078 -0.010844798 0.07394055 0.019988148 0.098395236 0.03624907 0.09769405
-0.04655337 -0.060963035 0.09562161 0.088280745 -0.04070101 0.056923557 -0.2061904 -0.040539596
-0.10873369 0.12652309 -0.032759137 0.035844382 -0.025508212 -0.17406502 0.15354194 0.15958042
0.28995103 0.23106477 -0.21187541 0.19930425 -0.030368686 -0.1749127 -0.15472311 -0.010313285
0.1488002 -0.11690901 -0.050457116 0.13392651 0.15086389 0.1845612 -0.099391945 -0.2152799
0.075897336 -0.09013646 0.19736353 0.08138227 -0.14412619 0.12656593 -0.013854163 -0.078621894
0.20865531 0.123199165 0.034779307 -0.070721105 0.19107346 0.16713466 -0.19839545 -0.13798106
-0.23029287 -0.13893172 0.18752618 -0.11383057 -0.05658496 -0.08437457 -0.1631912 0.010733914
0.08273511 0.20737918 0.12908457 -0.18538293 -0.04873626 -0.015849587 0.11001486 -0.19084561
0.056503 -0.123185456 0.25605372 -0.049909055 0.14216611 0.05591343 -0.12150521 -0.12887827
0.06548246 0.15979527 0.004069233 0.17760597 0.02359364 -0.010787526 0.15521061 0.07393854
-0.1167876 -0.15472174 0.1989794 -0.16683073 -0.026012715 0.039663423 -0.24498107 -0.066287845
-0.009268031 0.20791957 0.031687755 0.20835951 -0.039353613 0.06275518 0.09208084 0.18796073
0.08375541 0.15061651 -0.15752122 0.27270764 -0.4089232 0.24982868 0.060626093 0.0078686485
-0.12676142 0.1934333 -0.03349466 -0.016406808 0.10346808 -0.09944684 0.19854692 0.15265337
-0.19801709 0.15390565 0.103606954 0.14314365 -0.102404654 0.11091549 0.06659801 0.01968756
0.0021980386 -0.11648133 -0.15797986 -0.13940522 -0.15525016 -0.17237595 -0.09327562 0.06064809
0.033561837 0.1408224 -0.1921711 0.043786004 -0.17369157 -0.1214012 0.054729026 0.038423993
0.11127841 -0.08934154 0.0064396076 0.19707184 -0.13010713 0.11170808 -0.106614575 0.05958372
0.24332257 0.11029802 0.11705302 0.09865011 -0.18924293 0.08545112 0.34650517 0.1947304
0.19115444 -0.1814223 -0.09252869 -0.18835732 -0.10913039 -0.13647099 -0.12651455 0.19150811
-0.045470957 0.05438407 -0.1481485 0.04969167 0.30483422 -0.056829914 0.10435272 0.15577333
-0.1662353 -0.14427814 0.1243579 -0.067389086 0.041234117 -0.06135917 0.034109462 -0.0105171185
-0.098424084 0.077633336 0.006616234 -0.09467551 -0.1882238 0.1816368 -0.040617604 0.121921964
0.16967703 -0.15941595 -0.034388114 0.03319512 -0.05465229 0.005244328 0.16910304 0.17606881
0.15256727 -0.09945982 0.20295677 -0.18976304 -0.039926812 -0.09023935 -0.044976484 -0.2157476
0.036529668 -0.09004137 0.043292586 -0.20252375 -0.059435092 -0.14665867 0.03886882 -0.1761373
00000000: 82b2 c93c 169d c63d 6784 3abe bc36 373e
00000010: cabb 8c3d 33c5 95bd 6a47 f8ba bfd1 12bd
00000020: a657 543e 1db2 b1bd 6549 423e f156 09be
00000030: 98a9 193e 7e63 c73d 9153 a13d 2d16 993d
00000040: ab85 203e f61a 4cbe aeda 673e bf17 7a3e
00000050: d6eb 313e 6459 c83d dad9 8d3c a84f 3cbe
00000060: 7f59 85bc e9d4 f3bc 7d2d 3bbe 3ace 0a3e
00000070: 5e9e 53be 48f3 8bbd 36b7 5d3d 743f 85bd
00000080: 9870 3c3d f3f1 2cbe 0ae7 34bd 5d17 783e
00000090: 3d28 15be fb50 2b3e 2fb9 cc3d 80bd acbd
000000a0: 7b23 673d 9200 573d 61ae 31bc 256e 973d
000000b0: 2fbe a33c 7183 c93d e879 143d d113 c83d
000000c0: bfae 3ebd 60b4 79bd 43d5 c33d 89cc b43d
000000d0: 1ab6 26bd ad28 693d 9423 53be d90c 26bd
000000e0: c5af debd 458f 013e 722e 06bd 8fd1 123d
000000f0: 99f6 d0bc 1a3e 32be 193a 1d3e 0d69 233e
00000100: 7674 943e 3e9c 6c3e def5 58be 6a16 4c3e
00000110: c0c7 f8bc 511c 33be bc6f 1ebe 0df9 28bc
00000120: 145f 183e fe6d efbd 1fac 4ebd 0824 093e
00000130: 107c 1a3e 9cfd 3c3e 018e cbbd 5672 5cbe
00000140: 1070 9b3d 7799 b8bd aa19 4a3e bfab a63d
00000150: d195 13be 809a 013e 92fc 62bc 8404 a1bd
00000160: bda9 553e d84f fc3d bf74 0e3d 3ad6 90bd
00000170: c3a8 433e 5925 2b3e 2d28 4bbe e84a 0dbe
00000180: e5d1 6bbe 1e44 0ebe dd06 403e 0020 e9bd
00000190: a2c5 67bd 93cc acbd 981b 27be 4cdd 2f3c
000001a0: 0671 a93d 355b 543e bf2e 043e 06d5 3dbe
000001b0: ac9f 47bd fed6 81bc 794f e13d 086d 43be
000001c0: b16f 673d a848 fcbd 7919 833e 706d 4cbd
000001d0: fe93 113e 7b05 653d b9d7 f8bd aaf8 03be
000001e0: ab1b 863d 5fa1 233e 3357 853b 57de 353e
000001f0: 7347 c13c 2abe 30bc 88ef 1e3e 176d 973d
00000200: 562e efbd 606f 1ebe 41c1 4b3e add5 2abe
00000210: 9e18 d5bc 1d76 223d 51dc 7abe ecc1 87bd
00000220: f1d8 17bc dee8 543e 05cb 013d 325c 553e
00000230: 4131 21bd ca85 803d e194 bc3d c778 403e
00000240: f587 ab3d 373b 1a3e 3e4d 21be 56a0 8b3e
00000250: 625e d1be 17d3 7f3e 1153 783d 81eb 003c
00000260: bfcd 01be 6113 463e b231 09bd 9267 86bc
00000270: 13e7 d33d c9aa cbbd e24f 4b3e 2a51 1c3e
00000280: fec4 4abe 7199 1d3e e22f d43d 4094 123e
00000290: 88b9 d1bd a927 e33d 8a64 883d ce47 a13c
000002a0: f80c 103b c38d eebd 79c5 21be 3ec0 0ebe
000002b0: e6f9 1ebe 5283 30be 4a07 bfbd 226a 783d
000002c0: 2378 093d bf33 103e 80c8 44be f458 333d
000002d0: 34dc 31be 31a1 f8bd 8b2b 603d 7a62 1d3d
000002e0: efe5 e33d b3f8 b6bd 5803 d33b 33cd 493e
000002f0: ce3a 05be 35c7 e43d be58 dabd 0f0e 743d
00000300: 8d29 793e eee3 e13d 7eb9 ef3d 1209 ca3d
00000310: e6c8 41be ff00 af3d 2069 b13e 6867 473e
00000320: fdbd 433e c4c6 39be af7f bdbd bee0 40be
00000330: c17f dfbd 0dbf 0bbe 088d 01be b41a 443e
00000340: c13f 3abd d5c1 5e3d 3eb4 17be 7e89 4b3d
00000350: 3b13 9c3e 7cc6 68bd e1b6 d53d 0b83 1f3e
00000360: 9639 2abe a6bd 13be 5baf fe3d 4a03 8abd
00000370: 1be5 283d c153 7bbd 5db6 0b3d fe4f 2cbc
00000380: 9192 c9bd 3afe 9e3d fecc d83b 3ce5 c1bd
00000390: bdbd 40be fffe 393e a55e 26bd 39b2 f93d
000003a0: d1bf 2d3e ef3d 23be 8dda 0cbd 9bf7 073d
000003b0: 14db 5fbd 9dd8 ab3b 5929 2d3e 624b 343e
000003c0: 983a 1c3e 97b1 cbbd e6d3 4f3e 3e51 42be
000003d0: 4c8a 23bd 69cf b8bd 4339 38bd f0ec 5cbe
000003e0: 22a0 153d 9c67 b8bd 9153 313d 6362 4fbe
000003f0: 3672 73bd b12d 16be e934 1f3d 565d 34be

layers.0.bias f4 [64]
0.028252438 -0.111821756 0.1055864 0.08522878 -0.029951587 -0.019011417 0.12101893 0.024821373
-0.062953606 -0.0074991165 -0.06795274 0.14114228 0.12926525 0.093638524 0.13646889 0.0013997516
-0.11293736 0.003118415 0.1268759 0.030545654 -0.03397724 0.11532512 0.029431606 -0.08928759
-0.065157205 -0.10365587 -0.11776098 0.008724049 0.057267185 0.15441701 0.17829105 -0.07849486
0.0570685 -0.15429609 -0.08292223 -0.06937567 -0.008830593 0.06779305 0.17652139 0.04124105
-0.052289154 0.09325726 -0.014696058 -0.021729302 -0.018762229 -0.048489112 -0.03470136 0.07296227
0.033023357 0.08277428 0.077727884 0.11399821 0.00835604 0.18022075 -0.14304811 -0.044707697
-0.09595698 -0.18025976 0.103998505 0.14642727 0.09603711 0.08640434 0.17522666 0.10546987
00000000: a871 e73c ce02 e5bd af3d d83d 6d8c ae3d
00000010: 085d f5bc d5bd 9bbc c6d8 f73d 3156 cb3c
00000020: d2ed 80bd 26bb f5bb ce2a 8bbd 9a87 103e
00000030: 1c5e 043e 8ec5 bf3d 80be 0b3e df77 b73a
00000040: b44b e7bd 525e 4c3b c2eb 013e e13a fa3c
00000050: b82b 0bbd 942f ec3d 8d1a f13c 69dc b6bd
00000060: 2471 85bd 8749 d4bd ab2c f1bd 50ef 0e3c
00000070: ff90 6a3d 7e1f 1e3e ee91 363e eac1 a0bd
00000080: a9c0 693d cbff 1dbe 21d3 a9bd d514 8ebd
00000090: 31ae 10bc 15d7 8a3d 06c2 343e 60ec 283d
000000a0: 272d 56bd aafd be3d bcc7 70bc a601 b2bc
000000b0: 3fb3 99bc 859c 46bd 0323 0ebd 3e6d 953d
000000c0: 8043 073d 9085 a93d cc2f 9f3d e577 e93d
000000d0: c6e7 083c ca8b 383e 347b 12be 6b1f 37bd
000000e0: 1885 c4bd 0496 38be 2bfd d43d 08f1 153e
000000f0: 1baf c43d c2f4 b03d 9e6e 333e 9600 d83d

fc_out.weight f4 [2, 64]
-0.01611729 -0.024029924 -0.099889286 0.10452732 -0.006308434 0.088958465 0.15603772 -0.1092305
0.20007265 -0.33848608 0.046117496 -0.31743822 0.09794923 0.25635064 0.12500787 0.0069169444
0.21870953 0.21309209 -0.053396404 0.2122446 -0.17316398 -0.027567204 0.16974567 0.20368123
-0.0030438513 -0.008351684 -0.38568494 -0.042975537 0.009959734 -0.32334685 -0.38666356 -0.22950357
0.21070117 -0.22269197 -0.2305507 -0.22424601 -0.017542295 0.29151538 0.28136718 0.05753562
-0.015197501 0.021836817 -0.0035243507 -0.0053022522 0.037299965 0.013785072 0.38380176 -0.1386253
0.022471957 0.2322929 -0.009361292 -0.027481103 0.22556865 0.17727892 -0.26867172 -0.00012845379
-0.00010766562 0.3115038 0.11247566 0.12031353 -0.048865817 0.26616612 0.19781372 0.0497801
0.08130872 0.17968759 -0.02074275 0.14537285 0.007872398 0.10125776 0.12346723 -0.21796
-0.06756366 0.16470216 -0.010344412 -0.1234652 -0.05241078 -0.14078084 -0.080327906 0.11414061
-0.12030324 0.052122645 0.029433113 -0.17081636 0.0412279 -0.13501519 0.22021143 0.053385735
-0.0075972453 0.002967252 0.16756585 -0.105821356 -0.009406508 0.00896636 0.03032978 0.1211322
0.058586363 0.06300482 -0.15412007 -0.18599269 -0.08234567 -0.2441873 0.030289566 0.11842987
-0.0010908659 -0.019138625 -0.0008029279 -0.0039414866 -0.045095503 0.0699798 0.09310704 0.14889206
-0.1416208 -0.008841797 -0.016347444 0.050132997 0.06330828 0.10049125 -0.10698382 -0.034273855
-0.0036030563 -0.15747306 0.018400302 0.12410893 0.081745364 -0.1121287 -0.16672261 0.2149274
00000000: 6808 84bc 67da c4bc c192 ccbd 6b12 d63d
00000010: fbb6 cebb db2f b63d 5ac8 1f3e 3eb4 dfbd
00000020: d8df 4c3e 0c4e adbe b3e5 3c3d 4387 a2be
00000030: 9b99 c83d 6440 833e 1002 003e 89a7 e23b
00000040: 64f5 5f3e d034 5a3e 30b6 5abd a656 593e
00000050: e651 31be 9ed4 e1bc cfd1 2d3e d091 503e
00000060: 5a7b 47bb 80d5 08bc 7f78 c5be 1e07 30bd
00000070: 272e 233c b88d a5be c4f8 c5be fc02 6bbe
00000080: 0cc2 573e 5d09 64be 7c15 6cbe bfa0 65be
00000090: dcb4 8fbc 8141 953e 5c0f 903e 78aa 6b3d
000000a0: f0fe 78bc 20e3 b23c cbf8 66bb 84be adbb
000000b0: d9c7 183d c8da 613c aa81 c43e caf3 0dbe
000000c0: 1c17 b83c 31de 6d3e 1b60 19bc 0d20 e1bc
000000d0: 78fb 663e 9b88 353e 578f 89be 8db1 06b9
000000e0: 8aca e1b8 6d7d 9f3e a459 e63d f166 f63d
000000f0: 8627 48bd ed46 883e ae8f 4a3e 38e6 4b3d
00000100: 3085 a63d 0600 383e b3ec a9bc 9fdc 143e
00000110: 3bfb 003c 3a60 cf3d 63dc fc3d e830 5fbe
00000120: d15e 8abd afa7 283e 9c7b 29bc 53db fcbd
00000130: b0ac 56bd da28 10be f582 a4bd 8dc2 e93d
00000140: 8c61 f6bd 8e7e 553d b61d f13c 7cea 2ebe
00000150: 96de 283d 6c41 0abe 1b7f 613e 00ab 5a3d
00000160: 50f2 f8bb 3a76 423b 6296 2b3e deb8 d8bd
00000170: c11d 1abc a4e7 123c 2976 f83c 2914 f83d
00000180: 41f8 6f3d ac08 813d a7d1 1dbe de74 3ebe
00000190: d9a4 a8bd 3c0c 7abe d321 f83c 5c8b f23d
000001a0: 63fb 8eba 9bc8 9cbc 947b 52ba 9627 81bb
000001b0: 10b6 38bd 9251 8f3d e7ae be3d 2977 183e
000001c0: 0b05 11be 2fdd 10bc 13eb 85bc 4258 4d3d
000001d0: c6a7 813d 5bce cd3d 551a dbbd be62 0cbd
000001e0: 4121 6cbb 9e40 21be 3bbc 963c d32c fe3d
000001f0: 1d6a a73d bba3 e5bd 55b9 2abe ee15 5c3e

fc_out.bias f4 [2]
0.10765484 0.07931633
00000000: 247a dc3d 9a70 a23d
