trained_bsde_model_lq/d2_z_net_x0_is_-1.5.pth (torch, 21413 bytes, 6 tensors)

fc_in.weight f4 [64, 3]
-0.42881086 0.016416095 0.06640954 -0.08448161 0.16578664 -0.02044351 -0.6981687 -0.05798047
-0.18249837 0.05772296 0.12783055 -0.091851465 -0.20992015 0.12724282 -0.027747393 0.3598545
-0.10899127 0.013901511 -0.2537556 0.09907496 0.023622364 -0.1787389 -0.068299785 0.0038530873
-0.5351353 -0.068155006 0.15906352 -0.85256445 0.027262673 0.014149143 0.01053433 0.070366465
-0.018198457 0.423501 -0.10311889 0.027217673 -0.2689594 0.032741636 0.038158085 -0.44559082
-0.06141505 0.123907395 0.11318037 -0.10843607 -0.05924582 -0.42451268 -0.14561428 -0.033135988
0.26024026 0.0051979967 -0.059686374 -0.1858222 -0.11360631 -0.08622984 0.10816552 -0.12166849
-0.0149984965 -0.50836426 0.06684998 -0.053285293 -0.20985086 0.0019126936 0.105582386 -0.07732844
-0.061006848 0.03508797 -0.09105413 0.1715378 0.021473072 0.15520583 0.14535835 -0.093075626
0.6125123 -0.027365021 0.14146191 0.21335903 0.0671675 0.00649522 -0.3527734 0.0690526
-0.021223482 -0.41092983 0.0686159 -0.078229435 0.19718498 -0.06211131 0.07630303 0.24988373
0.21525143 -0.02509986 -0.04429735 0.19026099 0.039684992 0.74779594 -0.0078482395 -0.02440293
0.48201913 -0.096283734 0.012632372 0.4504526 -0.050246138 -0.020051433 0.21897802 0.14546669
-0.065225 0.5868996 -0.08772827 -0.0055812453 0.043798108 -0.15240666 -0.09083715 -0.27908158
0.11516044 -0.08140818 -0.38309082 0.04540867 -0.0021458652 0.25556648 -0.13186531 0.073115215
0.09970839 -0.17206994 0.055091538 0.56874204 0.03146022 0.011669796 0.20574217 0.2636188
0.03988618 0.18599968 -0.09996399 -0.066744074 0.20233153 -0.10524038 -0.07246433 -0.26343554
-0.059109144 0.22714707 0.07531975 0.1765852 -0.007399156 0.064923406 0.18310149 0.051330585
-0.07569371 0.119971 0.08282239 0.10147726 0.19507845 -0.018601956 0.25620183 0.13052732
0.057570565 0.1971672 -0.010367939 0.001688034 -0.16512877 -0.2001149 0.08114817 -0.22096692
-0.11892787 -0.02930322 -0.39329848 0.058013845 0.079966955 -0.1611046 0.068494424 -0.106570855
0.014458401 0.09173193 0.06732799 0.4829256 -0.059614196 -0.012004904 -0.010276412 -0.08793552
-0.07244039 -0.12309183 0.057557322 -0.08924252 0.3640224 0.10454561 -0.012645481 -0.6415339
-0.0122457985 -0.03951638 0.28952762 -0.14968067 0.00310622 0.21293502 0.041003045 0.07571787
00000000: 198d dbbe 0c7b 863c ba01 883d b204 adbd
00000010: f9c3 293e 2679 a7bc 2fbb 32bf ee7c 6dbd
00000020: dae0 3abe e96e 6c3d 03e6 023e 9f1c bcbd
00000030: 4ff5 56be f14b 023e 804e e3bc d93e b83e
00000040: d136 dfbd 2ac3 633c 41ec 81be d0e7 ca3d
00000050: b083 c13c 5507 37be c2e0 8bbd 1484 7c3b
00000060: a1fe 08bf da94 8bbd 8ce1 223e aa41 5abf
00000070: f855 df3c cfd1 673c 2f98 2c3c 4b1c 903d
00000080: ee14 95bc 20d5 d83e ff2f d3bd 99f7 de3c
00000090: 0cb5 89be 181c 063d a74b 1c3d 7b24 e4be
000000a0: 598e 7bbd 29c3 fd3d 1ccb e73d bb13 debd
000000b0: bfab 72bd ba59 d9be e91b 15be 9ab9 07bd
000000c0: 363e 853e f553 aa3b b379 74bd 2d48 3ebe
000000d0: 6daa e8bd 4599 b0bd e285 dd3d 542d f9bd
000000e0: 41bc 75bc 2924 02bf a4e8 883d ae41 5abd
000000f0: 25e3 56be 59b3 fa3a 943b d83d 605e 9ebd
00000100: 51e2 79bd 67b8 0f3d 967a babd 9ba7 2f3e
00000110: 4ce8 af3c 47ee 1e3e d2d8 143e 6f9e bebd
00000120: 9bcd 1c3f 9c2c e0bc 64db 103e ca7a 5a3e
00000130: 1d8f 893d dbd5 d43b b79e b4be 736b 8d3d
00000140: dedc adbc 6565 d2be 7e86 8c3d c136 a0bd
00000150: dcea 493e 6e68 7ebd c344 9c3d 85e1 7f3e
00000160: df6a 5c3e 399e cdbc 2371 35bd c7d3 423e
00000170: bb8c 223d 8e6f 3f3f e795 00bc a7e8 c7bc
00000180: 36cb f63e 6830 c5bd 02f8 4e3c b9a1 e63e
00000190: e5ce 4dbd e742 a4bc c63b 603e 38f5 143e
000001a0: af94 85bd 0d3f 163f e1aa b3bd e1e2 b6bb
000001b0: a565 333d 7e10 1cbe d408 babd c8e3 8ebe
000001c0: 3dd9 eb3d 55b9 a6bd 7b24 c4be 71fe 393d
000001d0: a5a1 0cbb 9cd9 823e b307 07be 6ebd 953d
000001e0: ea33 cc3d 1a33 30be aaa7 613d 1499 113f
000001f0: 6fdc 003d ac32 3f3c 13ae 523e 0bf9 863e
00000200: b15f 233d b376 3e3e ecb9 ccbd 1eb1 88bd
00000210: ff2f 4f3e 4588 d7bd 2e68 94bd 06e1 86be
00000220: 6e1c 72bd 3e99 683e 3e41 9a3d c0d2 343e
00000230: 9f74 f2bb 90f6 843d f57e 3b3e 0540 523d
00000240: 4e05 9bbd 5bb3 f53d c99e a93d 4fd3 cf3d
00000250: a5c2 473e 2163 98bc e32c 833e f4a8 053e
00000260: 1dcf 6b3d 33e6 493e 4ade 29bc 0641 dd3a
00000270: 8417 29be ecea 4cbe 0331 a63d 2745 62be
00000280: 7590 f3bd 4e0d f0bc 6b5e c9be ed9f 6d3d
00000290: b7c5 a33d 9bf8 24be ce46 8c3d d241 dabd
000002a0: eee2 6c3c f3dd bb3d 42e3 893d 0642 f73e
000002b0: 042e 74bd 38b0 44bc 655e 28bc 8a17 b4bd
000002c0: a15b 94bd 9217 fcbd 3ac1 6b3d c8c4 b6bd
000002d0: 2561 ba3e 021c d63d fe2e 4fbc 913b 24bf
000002e0: 9aa2 48bc eddb 21bd f73c 943e e445 19be
000002f0: b991 4b3b a30b 5a3e cff2 273d f811 9b3d

fc_in.bias f4 [64]
0.4492822 0.21091057 0.81362665 0.11540108 0.24001527 -0.46557894 0.35843107 -0.51004165
0.5980455 0.83099955 0.45661008 -0.6126872 0.25414753 0.45612693 0.16680928 0.24762069
-0.4857171 0.6322667 -0.24193224 0.5471098 -0.27893713 -0.10968219 0.35850352 -0.4549903
-0.69164723 0.41046736 0.36692512 0.6341938 -0.36351046 -0.57671374 0.11569002 -0.60769963
-0.551725 -0.333052 0.1714208 -0.6965653 -0.27163467 0.61918825 0.349195 -0.3408563
0.56164604 -0.43114442 0.34552607 -0.35608444 -0.49933085 0.45260933 0.057482697 0.17681007
0.59982216 -0.30092534 -0.2122911 -0.15384197 -0.27050084 0.11819433 0.4492898 0.39740717
-0.13542391 -0.4463686 -0.47133595 0.37608436 -0.5621628 0.49877 -0.50573033 -0.0049469634
00000000: 5108 e63e f1f8 573e d649 503f 6757 ec3d
00000010: 90c6 753e 5d60 eebe 4784 b73e 1792 02bf
00000020: 8319 193f 63bc 543f ccc8 e93e 11d9 1cbf
00000030: a01f 823e 7889 e93e 0dd0 2a3e 4790 7d3e
00000040: e9af f8be 3bdc 213f 16bd 77be 630f 0c3f
00000050: d9d0 8ebe 0ea1 e0bd c68d b73e 7df4 e8be
00000060: cb0f 31bf c728 d23e 9cdd bb3e 865a 223f
00000070: 0b1e babe 83a3 13bf e4ee ec3d 3492 1bbf
00000080: d93d 0dbf cb85 aabe ef88 2f3e 1a52 32bf
00000090: b313 8bbe 1f83 1e3f b0c9 b23e b884 aebe
000000a0: 09c8 0f3f f6be dcbe cbe8 b03e b350 b6be
000000b0: 4ba8 ffbe 69bc e73e fa72 6b3d b30d 353e
000000c0: f28d 193f e312 9abe d762 59be c088 1dbe
000000d0: 167f 8abe de0f f23d 5009 e63e f478 cb3e
000000e0: 91ac 0abe 6d8a e4be f252 f1be 218e c03e
000000f0: e7e9 0fbf c85e ff3e 8b77 01bf 231a a2bb

layers.0.weight f4 [64, 64]
0.13268305 -0.14413072 -0.11480076 -0.21121591 -0.044076577 -0.025483169 -0.037008006 -0.18053152
0.23102951 0.12984267 0.013872003 0.23908906 0.1996875 -0.1729659 -0.18908568 -0.06057965
0.16264588 -0.14311518 0.036280576 -0.10700504 0.18851945 -0.17760469 0.0008722899 -0.13909373
-0.00910495 -0.14069474 0.11940028 0.12868269 0.08562448 -0.15042643 -0.2402 0.19300109
0.35133776 5.4409727e-05 -0.070672266 0.32246786 0.079846025 -0.14989506 -0.036506746 0.19175695
-0.04232337 -0.1923268 -0.108924575 -0.09911715 -0.03023267 -0.01763701 -0.07664119 -0.056463096
-0.12744857 -0.07724112 0.0003909435 -0.09701376 -0.07038574 0.070184745 0.090701595 -0.11245966
0.13729595 0.055289373 0.044443965 0.11927381 -0.22346981 -0.16230741 0.04285476 0.17744657
-0.17081226 -0.081074685 -0.07407205 -0.098377705 -0.19846478 -0.14064012 -0.21331364 -0.07156579
-0.07997288 -0.22083494 -0.011897045 0.010725357 -0.19353786 -0.03171358 -0.08076631 -0.080944255
0.06622838 0.12227861 -0.09266849 0.11584522 -0.14932896 0.18906161 0.06132394 0.085989624
-0.18351926 0.028557701 0.003708789 -0.061389074 -0.098761655 -0.07508135 -0.008771468 -0.07440264
0.0848087 -0.058306802 -0.10326995 0.171928 0.122735895 0.101443425 0.041580565 0.13647531
0.16632114 -0.004453568 0.032225855 -0.013073534 0.2025755 -0.10023094 0.07851862 -0.16361363
0.061282575 0.17854801 0.028939707 -0.0042928862 0.21320337 -0.104219645 0.063351594 -0.093600065
0.066448405 0.112138845 -0.19158977 0.021179587 0.12049632 0.18306446 0.18909693 0.09118421
-0.13182414 0.028188018 0.07221558 0.0057969294 0.06583545 -0.14993308 -0.042822715 0.11846548
-0.11404775 0.0077327215 -0.08374531 -0.21435429 0.061870042 -0.07117291 0.08679786 0.10441067
0.03872631 0.049280018 0.09595643 0.15663409 -0.012448349 0.118685596 -0.08122899 0.06536207
0.11000053 0.061496347 -0.1697129 0.08329677 0.062190887 -0.016177274 -0.010928989 0.078643285
-0.091823034 -0.15694748 0.09013956 -0.10287865 -0.22133568 0.10695834 -0.10459508 -0.13103764
-0.16321445 -0.101208 0.19628307 -0.2119296 -0.13439038 0.04794247 0.19900702 0.03544271
0.010533343 0.13380356 0.11306877 -0.1884884 0.043038607 0.027301645 -0.086047485 0.13845004
-0.069441766 -0.034151793 -0.047767647 -0.09962917 0.08263364 -0.07500926 -0.20374627 0.22987507
0.038284123 0.056401633 -0.1712036 -0.022138266 0.06673126 0.19007818 -0.22927757 0.17335582
-0.1154906 -0.16760346 0.1735952 0.23054023 -0.15616417 -0.09759835 0.2165535 0.121979535
0.19233899 0.086573295 -0.10466675 -0.053390145 -0.20663856 -0.10300709 0.13799131 0.04762277
0.19669239 0.0445776 -0.031776927 -0.21118157 -0.03936665 -0.109121114 -0.020687403 -0.09447615
-0.040116936 0.09498492 0.08974119 0.066889435 0.15364823 0.09019217 -0.04380643 -0.18870647
0.093566425 -0.12678859 -0.12832947 0.016631456 0.14915542 -0.15092169 -0.1363744 0.0034604326
0.12007456 -0.1326317 0.112495005 -0.10025566 0.13198732 -0.20094107 -0.2282588 -0.09818242
0.018845206 0.052851602 -0.009306843 0.06942221 -0.19598936 0.14901467 0.16989593 -0.18161424
00000000: 11de 073e 0197 13be a91c ebbd fc48 58be
00000010: a489 34bd 14c2 d0bc b595 17bd 41dd 38be
00000020: 0093 6c3e 7af5 043e 6647 633c c3d3 743e
00000030: e17a 4c3e f91d 31be ad9f 41be 5e22 78bd
00000040: a48c 263e c98c 12be f19a 143d 7525 dbbd
00000050: 3e0b 413e 01de 35be 62aa 643a 966e 0ebe
00000060: ee2c 15bc 4812 10be 2288 f43d 65c5 033e
00000070: e35b af3d 6309 1abe fdf6 75be 14a2 453e
00000080: 8be2 b33e 0036 6438 9fbc 90bd 821a a53e
00000090: 5086 a33d 177e 19be 1988 15bd ef5b 443e
000000a0: 455b 2dbd 51f1 44be d913 dfbd effd cabd
000000b0: 81aa f7bc 7e7b 90bc 0ef6 9cbd d945 67bd
000000c0: e181 02be 9830 9ebd 8cf7 cc39 26af c6bd
000000d0: 6626 90bd 05bd 8f3d c2c1 b93d 4051 e6bd
000000e0: 4f97 0c3e 1c77 623d e00a 363d d445 f43d
000000f0: 45d5 64be ea33 26be 7988 2f3d 8eb4 353e
00000100: 69e9 2ebe 7c0a a6bd 16b3 97bd 407a c9bd
00000110: 5a3a 4bbe f703 10be e46e 5abe 1691 92bd
00000120: d2c8 a3bd 8e22 62be d3eb 42bc 68b9 2f3c
00000130: ca2e 46be 19e6 01bd cf68 a5bd 1ac6 a5bd
00000140: bfa2 873d 356d fa3d fac8 bdbd 4240 ed3d
00000150: b1e9 18be 5e99 413e d02e 7b3d 541b b03d
00000160: 79ec 3bbe d7f1 e93c 270f 733b 1c73 7bbd
00000170: 8d43 cabd 40c4 99bd 34b6 0fbc 6960 98bd
00000180: 2fb0 ad3d 1dd3 6ebd 327f d3bd e50d 303e
00000190: f55c fb3d 92c1 cf3d 6250 2a3d 2fc0 0b3e
000001a0: 1750 2a3e 3cef 91bb 42ff 033d 6032 56bc
000001b0: f46f 4f3e e145 cdbd 5fce a03d 558a 27be
000001c0: 7003 7b3d 4ad5 363e f712 ed3c 57ab 8cbb
000001d0: fc51 5a3e 1c71 d5bd 7bbe 813d 64b1 bfbd
000001e0: 1a16 883d 0da9 e53d 1c30 44be d080 ad3c
000001f0: c6c6 f63d 4075 3b3e a0a2 413e c9be ba3d
00000200: e8fc 06be 8fea e63c c3e5 933d 2bf4 bd3b
00000210: bdd4 863d 0f88 19be df66 2fbd 089e f23d
00000220: de91 e9bd c562 fd3b a982 abbd b17f 5bbe
00000230: 716b 7d3d 1ac3 91bd 14c3 b13d 43d5 d53d
00000240: 7b9f 1e3d d8d9 493d ce84 c43d b064 203e
00000250: 29f4 4bbc 6f11 f33d 625b a6bd 8ddc 853d
00000260: f547 e13d 98e3 7b3d 38c9 2dbe 7f97 aa3d
00000270: dfbb 7e3d 3486 84bc 810f 33bc bb0f a13d
00000280: b70d bcbd d7b6 20be 179b b83d 0bb2 d2bd
00000290: d2a5 62be f90c db3d f235 d6bd bb2e 06be
000002a0: b021 27be 2446 cfbd 6efe 483e 1304 59be
000002b0: a29d 09be 535f 443d 7fc8 4b3e 602c 113d
000002c0: 0b94 2c3c cd03 093e 9990 e73d 1a03 41be
000002d0: 4049 303d b3a7 df3c aa39 b0bd d9c5 0d3e
000002e0: 7c37 8ebd c0e2 0bbd 02a8 43bd 610a ccbd
000002f0: d33b a93d 749e 99bd dda2 50be 5f64 6b3e
00000300: d0cf 1c3d 6605 673d ff4f 2fbe 4f5b b5bc
00000310: 66aa 883d dba3 423e bdc7 6abe 3084 313e
00000320: 5686 ecbd 3ea0 2bbe f1c2 313e bd12 6c3e
00000330: 80e9 1fbe a5e1 c7bd 33c0 5d3e 68d0 f93d
00000340: 83f4 443e 574d b13d 855b d6bd a0af 5abd
00000350: 0f99 53be 62f5 d2bd 984d 0d3e 1810 433d
00000360: bb69 493e 0097 363d 8628 02bd fb3f 58be
00000370: ed3e 21bd e47a dfbd a178 a9bc b67c c1bd
00000380: a851 24bd 7487 c23d 3bca b73d 54fd 883d
00000390: f655 1d3e acb6 b83d 5f6e 33bd 453c 41be
000003a0: c19f bf3d ded4 01be cd68 03be b13e 883c
000003b0: 33bc 183e 378b 1abe bba5 0bbe 6dc8 623b
000003c0: a7e9 f53d 9bd0 07be c863 e63d d752 cdbd
000003d0: af27 073e 7fc3 4dbe adbc 69be dd13 c9bd
000003e0: 4361 9a3c ec7a 583d bb7b 18bc 3b2d 8e3d
000003f0: 6fb1 48be 4d97 183e 33f9 2d3e 15f9 39be

layers.0.bias f4 [64]
-0.041105878 0.039722547 0.061678823 -0.11833005 0.115126066 -0.048811775 -0.061998308 0.08213813
-0.09583278 -0.0112217935 0.13622564 -0.018566651 0.07014534 0.100658745 0.19034384 0.0991151
-0.066229664 0.0026178502 0.05134698 -0.092963286 0.05636141 0.07334509 0.13693863 0.12137163
0.049990714 -0.08133955 -0.07930265 0.09886353 0.13564923 -0.21765852 0.0951824 0.19612134
-0.051033292 0.17206715 -0.06805988 -0.015544017 0.07121651 0.0603973 0.099142745 0.074232906
0.18468355 -0.14338651 0.09260737 -0.009653489 -0.122925356 -0.16570513 -0.09468672 -0.115953386
-0.061262995 0.022192273 -0.06971289 0.05601969 -0.04493908 0.09451856 -0.004483731 -0.2235429
-0.20561917 0.02620253 0.041347038 -0.06923275 -0.03264991 -0.07580636 0.14367099 0.21084654
00000000: a35e 28bd 1cb4 223d efa2 7c3d 0657 f2bd
00000010: 37c7 eb3d dbee 47bd f0f1 7dbd 0938 a83d
00000020: fa43 c4bd 9ddb 37bc bc7e 0b3e 1719 98bc
00000030: 5ca8 8f3d 2c26 ce3d 7fe9 423e dcfc ca3d
00000040: 6ba3 87bd 3d90 2b3b 3651 523d 8963 bebd
00000050: 39db 663d f335 963d a439 0c3e b091 f83d
00000060: 10c3 4c3d 5a95 a6bd 6e69 a2bd f678 ca3d
00000070: a2e7 0a3e e0e1 5ebe fdee c23d 08d4 483e
00000080: 4908 51bd 5f32 303e fa62 8bbd 55ac 7ebc
00000090: f6d9 913d 2963 773d 5a0b cb3d 6c07 983d
000000a0: af1d 3d3e ead3 12be efa8 bd3d ab29 1ebc
000000b0: 4ac0 fbbd 9bae 29be 1ceb c1bd f878 edbd
000000c0: e8ee 7abd 92cc b53c a2c5 8ebd e774 653d
000000d0: 0a12 38bd f292 c13d 43ec 92bb 6ee8 64be
000000e0: d58d 52be b0a6 d63c 835b 293d e6c9 8dbd
000000f0: e9bb 05bd 5d40 9bbd 7d1e 133e 28e8 573e

fc_out.weight f4 [2, 64]
-0.16967812 -0.049669515 0.07794858 -0.14572048 -0.0030802356 0.095951155 -0.010272329 -0.10227282
0.16713302 0.063703135 -0.1603036 -0.1669804 -0.11339365 -0.27327624 -0.3206179 0.2517495
-0.10417874 -0.0022964545 -0.23133393 0.005940706 -0.012661375 0.07270736 -0.23503669 -0.0013917644
-0.13517663 0.22003888 0.057569657 -0.13428773 -0.30599207 -0.44692722 -0.21296096 -0.3645701
0.011856916 -0.102749065 -0.27699858 0.30676827 0.010091556 -0.10908734 0.08125257 0.034202084
0.37914762 -0.4065019 -0.23089916 0.076397665 0.16936205 -0.20213462 -0.12217381 -0.18328732
0.013744353 -0.092686504 0.23556922 -0.3413704 0.23640662 0.012851907 0.13854836 -0.25873378
0.2291165 -0.01276326 0.0143296905 0.12931983 -0.14333306 0.017981473 -0.31082 -0.18825096
0.17253661 -0.049167894 -0.011427053 -0.19593957 -0.061118875 -0.084789746 0.019845245 0.09364242
0.15953687 0.08424399 0.061221953 -0.13370869 -0.16573045 0.0075313956 -0.19119465 0.18985038
-0.023611162 -0.069450475 0.17776366 -0.03473679 -0.03348901 0.057547033 -0.11863045 0.007846411
0.026840175 -0.0457367 -0.018968992 0.21093062 -0.24244744 -0.2521783 0.015538206 0.02490424
0.013222135 -0.21080397 0.06664798 -0.03934978 0.015351895 0.024986565 0.047444973 0.020386836
-0.2278045 0.20364226 0.0049735154 0.069680244 -0.087144926 0.13792603 -0.16294108 -0.061394654
0.028210761 0.061330747 0.115153946 0.053142015 -0.1177654 0.0027776936 0.05901341 -0.042935427
-0.1857259 0.12663002 0.0051984536 -0.08788019 -0.20028834 0.0024643114 0.26439512 0.11280317
00000000: 1ac0 2dbe 4372 4bbd 81a3 9f3d c037 15be
00000010: c7dd 49bb 0a82 c43d 454d 28bc 6a74 d1bd
00000020: eb24 2b3e ca76 823d a026 24be e9fc 2abe
00000030: ee3a e8bd ddea 8bbe 0828 a4be 4fe5 803e
00000040: aa5b d5bd 1d80 16bb cde2 6cbe 41aa c23b
00000050: a871 4fbc 99e7 943d 75ad 70be dd6b b6ba
00000060: be6b 0abe df51 613e 29ce 6b3d b982 09be
00000070: feaa 9cbe a5d3 e4be 7012 5abe efa8 babe
00000080: 8343 423c 1a6e d2bd c2d2 8dbe bb10 9d3e
00000090: 0e57 253c 2f69 dfbd bf67 a63d 7c17 0c3d
000000a0: a31f c23e 0421 d0be d470 6cbe 6176 9c3d
000000b0: 3f6d 2d3e 61fc 4ebe 4336 fabd acaf 3bbe
000000c0: ff2f 613c 6cd2 bdbd 0f39 713e 1ac8 aebe
000000d0: 9414 723e ce90 523c 9fdf 0d3e c178 84be
000000e0: 849d 6a3e fe1c 51bc 14c7 6a3c 6b6c 043e
000000f0: e7c5 12be e24d 933c cd23 9fbe dcc4 40be
00000100: 70ad 303e 4664 49bd 8938 3bbc 62a4 48be
00000110: c957 7abd 3fa6 adbd 7f92 a23c 99c7 bf3d
00000120: a25d 233e 1d88 ac3d dfc3 7a3d eeea 08be
00000130: 3eb5 29be edc9 f63b 88c8 43be 2368 423e
00000140: 326c c1bc 0d3c 8ebd ad07 363e 2a48 0ebd
00000150: c62b 09bd 70b6 6b3d 85f4 f2bd 3c8e 003c
00000160: eddf db3c 6856 3bbd dc64 9bbc 32fe 573e
00000170: 2444 78be 841d 81be f693 7e3c fa03 cc3c
00000180: a7a1 583c ffdc 57be bc7e 883d 3c2d 21bd
00000190: 8486 7b3c a0b0 cc3c a955 423d 4b02 a73c
000001a0: 9545 69be 9987 503e dff8 a23b 84b4 8e3d
000001b0: 0a79 b2bd 7b3c 0d3e 07da 26be f678 7bbd
000001c0: 411a e73c f335 7b3d d5d5 eb3d 71ab 593d
000001d0: fc2e f1bd f709 363b 0cb8 713d 0fdd 2fbd
000001e0: ee2e 3ebe 4dab 013e ca57 aa3b 87fa b3bd
000001f0: 6318 4dbe 4980 213b cc5e 873e 5905 e73d

fc_out.bias f4 [2]
-0.1928522 0.06090667
00000000: 0c7b 45be 4679 793d
