trained_bsde_model_lq/d2_z_net_x0_num_1.pth (torch, 22885 bytes, 6 tensors)

weight f4 [64, 3]
-0.008577615 -0.18935752 0.14577018 0.4051694 -0.045289665 0.042120572 -0.18467905 0.049270198
0.05764951 -0.29576895 0.05369196 0.04933755 -0.3050295 0.12881315 0.029594537 0.21617697
0.11055165 -0.08576532 -0.08776358 -0.15301305 -0.024343645 0.0065066447 -0.060359996 0.014059964
0.62562215 -0.015095323 0.023798259 0.1334006 -0.1278566 -0.016273834 -0.18878846 -0.13027151
0.02106424 -0.33538723 -0.11964962 -0.0917743 0.025588512 0.03941685 0.013493967 0.0058497544
-0.01601774 -0.065386176 -0.05526758 0.13575873 -0.09826819 -0.25162986 0.027577287 0.017975008
0.26241606 0.1602338 -0.21470222 0.25717217 -0.07908533 -0.08352355 0.7417106 0.080080315
-0.0940755 -0.43595055 0.025144814 -0.0057572527 -0.61994576 -0.062757045 -0.07466807 -0.13336517
0.107956044 -0.035055425 -0.012319108 -0.019552048 -0.03154467 0.018620932 0.06918497 -0.07859112
-0.07728944 0.11199762 0.052225515 0.6017863 0.022745129 -0.109377116 0.37199953 -0.05000458
0.023761148 -0.19691737 0.12961945 -0.088864304 -0.5396723 0.09911658 -0.041584674 0.20008042
0.08621943 0.07396894 0.05695554 -0.14083776 0.016995538 -0.28094575 0.012534747 -0.047113
0.4137459 -0.0863047 -0.0060146614 0.5930329 -0.048983008 -0.00049155863 0.04840602 0.1942946
0.0030519995 0.14509507 -0.12901495 -0.010495226 -0.020699196 0.05568587 0.0035162477 -0.42396533
-0.08272071 -0.08392275 0.10975655 0.08785696 0.095648274 -0.43796024 -0.083595276 0.1397895
-0.14720777 0.054305777 0.030996852 -0.21154621 -0.07617864 -0.08089339 0.19172923 0.12238096
-0.009111257 -0.16347252 0.09167712 0.0704483 0.3009331 0.045814134 0.0061654714 0.38001716
-0.00240708 0.024169212 0.10646633 0.18827593 0.06126344 -0.34580678 -0.032002643 -0.031816788
-0.17219177 -0.22289856 -0.02320237 -0.2354382 0.018751945 0.015001314 -0.49659482 0.005868334
0.014625591 -0.08081672 0.076255724 -0.032335166 0.40764046 -0.04816394 0.101652004 -0.036934208
0.07826841 0.015613401 0.48926643 0.12497355 0.075976744 0.15083791 0.2162651 -0.017511718
-0.13721816 0.012299801 0.088390626 -0.42393056 0.045677632 -0.07531757 -0.010762644 0.0425156
0.029466396 0.21749067 0.04858016 -0.059751566 -0.24973223 -0.10191195 0.0048980936 0.014128233
0.10314897 0.11426536 -0.07784574 -0.14038514 0.02036527 0.07266155 0.098951384 -0.0035874862
00000000: 2089 0cbc f0e6 41be c744 153e 5d72 cf3e
00000010: a881 39bd 9f86 2c3d 811c 3dbe 8ccf 493d
00000020: e521 6c3d 076f 97be 1aec 5b3d 2c16 4a3d
00000030: d42c 9cbe 98e7 033e 3e70 f23c 7f5d 5d3e
00000040: e768 e23d baa5 afbd 64bd b3bd 74af 1cbe
00000050: 536c c7bc b135 d53b 0b3c 77bd c35b 663c
00000060: c628 203f 6052 77bc 91f4 c23c 2b9a 083e
00000070: d7ec 02be b450 85bc c351 41be e565 05be
00000080: ea8e ac3c e0b7 abbe dc0a f5bd 2af4 bbbd
00000090: 009f d13c 9073 213d cd15 5d3c 4caf bf3b
000000a0: a337 83bc 30e9 85bd 4260 62bd 5604 0b3e
000000b0: d540 c9bd a1d5 80be c3e9 e13c 5340 933c
000000c0: 665b 863e 5414 243e e6da 5bbe 12ac 833e
000000d0: 7df7 a1bd 650e abbd bfe0 3d3f 2601 a43d
000000e0: a8aa c0bd e934 dfbe 7ffc cd3c 56a7 bcbb
000000f0: c4b4 1ebf c486 80bd 93eb 98bd e190 08be
00000100: 0f18 dd3d 4796 0fbd 15d6 49bc 9e2b a0bc
00000110: fc34 01bd ed8a 983c d9b0 8d3d 62f4 a0bd
00000120: ed49 9ebd 025f e53d 6cea 553d ab0e 1a3f
00000130: fe53 ba3c 1c01 e0bd b976 be3e 9ad1 4cbd
00000140: bda6 c23c b5a4 49be f6ba 043e 7dfe b5bd
00000150: f727 0abf a2fd ca3d b154 2abd e2e1 4c3e
00000160: d093 b03d 077d 973d 364a 693d c637 10be
00000170: 3a3a 8b3c 1fd8 8fbe 8a5e 4d3c 90f9 40bd
00000180: 81d6 d33e 85c0 b0bd a316 c5bb 01d1 173f
00000190: 68a2 48bd f1db 00ba 6445 463d 2af5 463e
000001a0: 0e04 483b cd93 143e 7f1c 04be 2bf4 2bbc
000001b0: 5c91 a9bc de16 643d d970 663b fc11 d9be
000001c0: 7a69 a9bd b1df abbd 0bc8 e03d 5aee b33d
000001d0: 3ee3 c33d 533c e0be 0034 abbd fb24 0f3e
000001e0: a2bd 16be bc6f 5e3d 1ced fd3c 929f 58be
000001f0: 8c03 9cbd 6fab a5bd ab54 443e dea2 fa3d
00000200: 6247 15bc 5765 27be 37c1 bb3d 3347 903d
00000210: e713 9a3e 9aa7 3b3d b907 ca3b 9c91 c23e
00000220: 1ac0 1dbb 83fe c53c 050b da3d 68cb 403e
00000230: 5fef 7a3d 960d b1be 3415 03bd 5252 02bd
00000240: 0a53 30be 853f 64be e612 bebc b616 71be
00000250: ae9d 993c 12c8 753c ad41 febe 274b c03b
00000260: 2da0 6f3c 3d83 a5bd f62b 9c3d e171 04bd
00000270: 40b6 d03e 8d47 45bd ed2e d03d 5348 17bd
00000280: 304b a03d 5acf 7f3c 2181 fa3e 22f2 ff3d
00000290: b299 9b3d 4175 1a3e 9974 5d3e bc74 8fbc
000002a0: eb82 0cbe 1b85 493c 2506 b53d 6d0d d9be
000002b0: 7818 3b3d 1940 9abd cd55 30bc d624 2e3d
000002c0: 8363 f13c e0b5 5e3e fdfb 463d 0fbe 74bd
000002d0: ceb9 7fbe 36b7 d0bd 3080 a03b 1b7a 673c
000002e0: c43f d33d f503 ea3d 966d 9fbd 1fc1 0fbe
000002f0: 11d5 a63c 94cf 943d 06a7 ca3d 081c 6bbb

bias f4 [64]
0.110999435 -0.3052778 -0.011931157 0.3571067 0.6254071 -0.3033456 0.16652708 0.17501633
-0.6556835 -0.4145782 0.30029273 0.44717926 -0.031294547 -0.10981833 0.6542007 0.21374129
-0.15167479 -0.3857457 -0.32854334 0.3946346 0.92336565 0.09838013 -0.056726612 0.26309663
0.3566257 -0.49674305 -0.2828789 0.64645195 0.6737148 -0.15747844 0.16695231 -0.21943003
-0.4993384 -0.5282522 0.47166058 -0.25330627 0.06016832 0.40080336 0.2201699 0.7554974
0.3665193 -0.03613199 -0.081261255 -0.05462995 -0.01780025 -0.14552435 -0.0864264 -0.39395648
0.053703535 -0.025209289 0.3745245 0.19375573 -0.5215758 0.21078604 -0.6976294 -0.04283959
0.32461998 0.4605148 0.062144693 0.09460188 0.21230608 -0.7197923 -0.07934197 0.0016564472
00000000: ac53 e33d 5f4d 9cbe e67a 43bc b0d6 b63e
00000010: ae1a 203f 1d50 9bbe 1386 2a3e 7b37 333e
00000020: e0da 27bf 9843 d4be f8bf 993e aef4 e43e
00000030: b62e 00bd 6fe8 e0bd b279 273f ffde 5a3e
00000040: a350 1bbe 7680 c5be d536 a8be 8c0d ca3e
00000050: b161 6c3f 867b c93d 2a5a 68bd 9ab4 863e
00000060: a597 b63e 1b55 febe 81d5 90be e07d 253f
00000070: 9378 2c3f 0742 21be 8cf5 2a3e 44b2 60be
00000080: 48a9 ffbe 893b 07bf 7f7d f13e 5cb1 81be
00000090: 0e73 763d 1936 cd3e 3874 613e 4768 413f
000000a0: 6ba8 bb3e 23ff 13bd 4d6c a6bd a8c3 5fbd
000000b0: d4d1 91bc 5604 15be 5300 b1bd aab4 c9be
000000c0: 3df8 5b3d b683 cebc adc1 bf3e e767 463e
000000d0: fe85 05bf 4cd8 573e d797 32bf 9178 2fbd
000000e0: 9734 a63e 99c8 eb3e 6f8b 7e3d a1be c13d
000000f0: c466 593e 4f44 38bf 0b7e a2bd 251d d93a

weight f4 [64, 64]
-0.04146341 -0.09165697 0.07601124 -0.06615775 0.20238031 0.1643063 -0.003639298 0.011833465
0.0979734 0.108668976 -0.114084065 0.13002783 0.067291066 0.07677717 -0.1564127 -0.003829496
0.13713124 -0.11214839 -0.10509149 0.06368999 -0.12274937 0.18812445 -0.007840237 0.10396746
-0.15877226 -0.16310212 0.04295064 0.0922133 -0.12423486 -0.090953015 -0.2201784 0.0018327637
0.18160799 0.16300914 0.14314726 0.066476226 0.12455881 -0.058762033 0.06360054 0.15083262
0.105098546 0.07831244 0.17541611 0.20391044 0.027310584 -0.079190575 0.18412071 -0.03318948
-0.15754552 -0.12420135 -0.1563393 0.09131207 0.17982961 0.00998169 0.26256385 -0.19482353
-0.15797037 -0.053927258 -0.06700975 -0.14444241 0.011701148 0.12056963 0.062794656 0.18148005
0.057340838 0.10129028 0.10178065 -0.15266766 0.12687752 0.05967433 -0.1296718 -0.104144655
0.14503486 0.017968755 0.14729631 0.21870719 0.015134075 0.07320182 0.08764487 0.18217342
0.054556366 0.10685441 -0.16510113 0.08332005 0.089742295 -0.11996118 -0.24409683 -0.07113705
0.026304146 0.0693651 0.047642056 -0.013176406 -0.13276716 -0.048271038 0.11715493 -0.15852176
-0.20083416 -0.0591385 -0.085014865 -0.0040509873 -0.108783364 0.19235855 0.14384502 0.18628813
0.057807438 -0.04679017 -0.16976227 0.15406576 0.17727664 -0.117346816 0.07093925 0.045746353
0.26475704 -0.053098936 -0.18679918 0.124858804 -0.21447657 -0.19038655 -0.19713719 -0.19196926
-0.07334349 0.20999454 0.032984953 0.19664522 0.17392825 -0.07214838 -0.118411504 0.07837759
-0.21493769 0.30438584 -0.08934374 -0.26249266 -0.49953714 0.0690108 -0.02938855 -0.16566862
0.34808412 0.037230335 0.13277286 -0.16630645 0.23715276 0.12371743 -0.17216942 -0.09226886
-0.08248937 0.120427676 0.14500487 -0.09364569 -0.073251665 -0.21735062 0.20468827 0.03283816
-0.21495457 0.14007834 0.26518136 -0.23945577 -0.1865879 0.030576134 -0.23400371 -0.11493845
0.1872567 0.21741655 -0.23280369 0.22959903 -0.16279325 -0.16492952 -0.23143803 -0.20273165
-0.022318969 -0.058214597 -0.032080777 -0.093909025 -0.0050467104 0.044853047 0.24917492 -0.08762248
-0.09829196 0.06037746 -0.19185002 0.046223085 0.33222964 -0.1449762 0.16759998 -0.09530273
-0.25946394 -0.357448 0.1579833 0.07738903 -0.04956952 0.0007588401 -0.03413507 0.04887602
0.157827 -0.3568541 0.030181684 -0.03456353 0.3406693 0.05068945 0.01284236 0.11933722
-0.16461693 0.070168205 0.20224687 -0.021246472 -0.17198391 -0.21622968 0.2400991 0.31792402
-0.11714179 -0.12742217 0.022442041 0.46629852 0.006511321 -0.123212375 0.079847895 -0.10885142
0.14008674 -0.29342628 -0.49270436 0.33609977 0.2304646 -0.09240865 -0.06594781 -0.13043256
-0.6339832 -0.7730343 0.25510168 -0.16066225 0.16429883 0.11448155 -0.07908703 0.07839608
0.23139344 0.07312622 -0.012147097 -0.11095234 0.015539214 -0.1213366 0.16488168 0.1323935
0.027288431 -0.13821459 0.2284183 0.2262125 -0.2156854 -0.19719869 -0.19026427 0.078712806
-0.07347208 0.26736233 -0.021064078 -0.13650824 0.05911173 -0.20537636 0.16749638 -0.06277196
00000000: 89d5 29bd a6b6 bbbd c8ab 9b3d b77d 87bd
00000010: c93c 4f3e e93f 283e 4a81 6ebb 26e1 413c
00000020: 47a6 c83d d78d de3d e8a4 e9bd 0426 053e
00000030: e6cf 893d 593d 9d3d a72a 20be 48f8 7abb
00000040: 226c 0c3e 0eae e5bd 353a d7bd e66f 823d
00000050: 0664 fbbd b2a3 403e 5674 00bc e4ec d43d
00000060: 3295 22be 3e04 27be 03ed 2f3d 54da bc3d
00000070: d96e febd 9345 babd 7276 61be 5839 f03a
00000080: 72f7 393e deeb 263e 3295 123e b024 883d
00000090: b018 ff3d 75b0 70bd 0041 823d de73 1a3e
000000a0: e83d d73d 4662 a03d 48a0 333e e6cd 503e
000000b0: 72ba df3c ab2e a2bd 248a 3c3e b1f1 07bd
000000c0: 9d53 21be 475d febd 6917 20be d301 bb3d
000000d0: 4125 383e 3e8a 233c c56e 863e d27f 47be
000000e0: fcc2 21be d4e2 5cbd 683c 89bd b6e8 13be
000000f0: 2cb6 3f3c 36ed f63d 7c9a 803d e8d5 393e
00000100: 3ade 6a3d 4771 cf3d 6072 d03d e954 1cbe
00000110: 2eec 013e 126d 743d afc8 04be cb49 d5bd
00000120: 0584 143e 3633 933c d8d4 163e c7f4 5f3e
00000130: e9f4 773c d6ea 953d 277f b33d ab8b 3a3e
00000140: 7f76 5f3d 7cd6 da3d 4510 29be b4a3 aa3d
00000150: cfca b73d 35ae f5bd 85f4 79be 4db0 91bd
00000160: cb7b d73c 4a0f 8e3d 5124 433d dae1 57bc
00000170: 1df4 07be dab7 45bd edee ef3d 8753 22be
00000180: 78a7 4dbe 363b 72bd 461c aebd 25be 84bb
00000190: d0c9 debd a4f9 443e 1c4c 133e 51c2 3e3e
000001a0: 7ec7 6c3d 0da7 3fbd 29d6 2dbe 6ac3 1d3e
000001b0: 0288 353e 8753 f0bd 9948 913d 8760 3b3d
000001c0: 3c8e 873e 457e 59bd 4948 3fbe f9b5 ff3d
000001d0: bf9f 5bbe b1f4 42be 55de 49be 9793 44be
000001e0: 1d35 96bd cf08 573e 3b1b 073d 5d5d 493e
000001f0: 3f1a 323e 88c2 93bd bb81 f2bd 6e84 a03d
00000200: a018 5cbe 76d8 9b3e daf9 b6bd 7065 86be
00000210: 55c3 ffbe 8955 8d3d 42c0 f0bc 09a5 29be
00000220: 1538 b23e d67e 183d 9cf5 073e 3d4c 2abe
00000230: 2cd8 723e 905f fd3d 2e4d 30be 75f7 bcbd
00000240: 30f0 a8bd c9a2 f63d 287c 143e 50c9 bfbd
00000250: f804 96bd 2991 5ebe cd99 513e 4e81 063d
00000260: 0d1d 5cbe b270 0f3e dac5 873e e533 75be
00000270: e610 3fbe cd7a fa3c ab9e 6fbe da64 ebbd
00000280: 38c0 3f3e 72a2 5e3e 1764 6ebe 021c 6b3e
00000290: 46b3 26be 49e3 28be 17fe 6cbe e398 4fbe
000002a0: 45d6 b6bc 6e72 6ebd 2267 03bd 6053 c0bd
000002b0: e05e a5bb d4b7 373d b627 7f3e 6a73 b3bd
000002c0: 4c4d c9bd 5b4e 773d 5574 44be 6b54 3d3d
000002d0: 011a aa3e a474 14be 549f 2b3e 142e c3bd
000002e0: 75d8 84be 6d03 b7be 60c6 213e 247e 9e3d
000002f0: 6909 4bbd e6ec 463a 37d1 0bbd 3932 483d
00000300: 679d 213e 95b5 b6be 943f f73c 7d92 0dbd
00000310: 356c ae3e be9f 4f3d c368 523c 1367 f43d
00000320: 5791 28be 59b4 8f3d ce19 4f3e 150d aebc
00000330: 8d1c 30be 506b 5dbe 8adc 753e f0c6 a23e
00000340: 09e8 efbd f57a 02be 5fd8 b73c aebe ee3e
00000350: eb5c d53b c556 fcbd 4b87 a33d 7eed debd
00000360: e672 0f3e f83b 96be bf43 fcbe 4515 ac3e
00000370: e9fe 6b3e bf40 bdbd a50f 87bd 1d90 05be
00000380: b94c 22bf 93e5 45bf b09c 823e a584 24be
00000390: f43d 283e 4e75 ea3d 61f8 a1bd 208e a03d
000003a0: 67f2 6c3e 33c3 953d 9e04 47bc fb3a e3bd
000003b0: 3098 7e3c 537f f8bd bed6 283e 2992 073e
000003c0: fd8b df3c 2088 0dbe 7de6 693e 40a4 673e
000003d0: a2dc 5cbe 74ee 49be a3d4 42be 2e34 a13d
000003e0: 8878 96bd b7e3 883e 938e acbc d1c8 0bbe
000003f0: 241f 723d 2e4e 52be 2c84 2b3e 968e 80bd

bias f4 [64]
-0.04390897 0.16863863 0.0073923157 0.1750027 0.02052306 -0.0069540846 0.0138385305 -0.049119677
0.14773642 0.06379344 -0.1212808 -0.16675949 0.066944785 0.12879495 0.017900238 0.06943126
0.11775458 0.09858317 0.029403968 -0.121226124 0.075926796 0.26376718 0.065883376 -0.045895703
0.12913257 0.1792707 -0.030479481 0.014588566 0.07740716 0.15365905 -0.13224788 -0.06219907
-0.050417274 0.02735507 0.12734397 -0.0047910353 0.060546096 0.107782796 -0.24022864 0.11246985
-0.15710066 -0.067663155 -0.08401389 0.101779744 0.009265289 -0.138395 0.21548396 -0.09911629
0.059110016 0.18258695 0.0032863736 0.018292382 0.19640616 -0.082090184 -0.08004571 -0.15985046
0.051014982 -0.047155526 0.24228433 0.16419958 0.07982739 -0.080092266 0.09245638 0.12467973
00000000: e4d9 33bd 9baf 2c3e 3d3b f23b e833 333e
00000010: fa1f a83c 17df e3bb 01bb 623c b731 49bd
00000020: 3748 173e 23a6 823d 1162 f8bd 00c3 2abe
00000030: 591a 893d d3e2 033e 85a3 923c fa31 8e3d
00000040: 5029 f13d f9e5 c93d 97e0 f03c 6745 f8bd
00000050: 827f 9b3d 7e0c 873e dded 863d 22fd 3bbd
00000060: 543b 043e bd92 373e 1bb0 f9bc e104 6f3c
00000070: a587 9e3d cc58 1d3e fd6b 07be 74c4 7ebd
00000080: 5882 4ebd bd17 e03c 7566 023e 1efe 9cbb
00000090: 2fff 773d 3abd dc3d 7ffe 75be 9856 e63d
000000a0: ffde 20be fb92 8abd 790f acbd e671 d03d
000000b0: 70cd 173c 6bb7 0dbe d4a7 5c3e 7bfd cabd
000000c0: 581d 723d 13f8 3a3e 3360 573b e8d9 953c
000000d0: b21e 493e e61e a8bd 01ef a3bd d7af 23be
000000e0: 16f5 503d 2726 41bd 6219 783e ef23 283e
000000f0: 8b7c a33d 6a07 a4bd c559 bd3d 1658 ff3d

weight f4 [2, 64]
0.06327084 -0.12528214 -0.17990807 0.19163126 -0.3031893 -0.07349824 -0.073157504 -0.30351922
-0.084241375 -0.007517639 -0.04602908 0.16387902 0.13681397 0.360859 -0.34819853 0.014491163
0.059255417 -0.00020626528 -0.23621172 -0.3622519 -0.1460322 -0.20058273 0.13423285 -0.071325436
-0.21307124 -0.14618921 0.26312962 -0.008574992 -0.29472214 0.3670493 0.15994729 -0.13953307
0.10233561 0.347852 -0.23195729 0.17009757 -0.10108237 0.27701178 0.31995574 -0.161844
0.1683979 -0.018148007 -0.1791522 0.04527838 0.14753725 0.1278655 -0.18969488 0.06040083
-0.24424636 -0.2560545 -0.072593145 0.037638877 -0.3060386 -0.0140153365 -0.3446165 0.1730164
-0.22759697 0.027649753 -0.28677973 -0.075276785 -0.009586308 -0.144522 0.052777354 0.2240588
0.20412467 -0.1332329 0.09399306 0.014123087 0.155417 0.10053521 0.0704244 -0.12326524
-0.17512792 0.042208686 -0.03827373 -0.13358837 -0.079001285 -0.022864815 -0.20755826 0.013583673
-0.051402397 0.08972427 0.14063719 -0.048756164 0.023539513 0.036631964 -0.03536134 0.0118647395
0.19807371 -0.039756402 -0.080858365 -0.0097221555 -0.20866548 0.16418299 -0.03046127 0.07685937
-0.020986306 -0.11651371 0.01834138 0.044480428 0.15124401 0.086275905 -0.036545865 -0.24897653
-0.041165072 0.025655523 0.037625175 0.16868696 0.19303611 0.22236891 0.08196059 -0.0016969438
0.061961256 -0.110983014 -0.21255672 0.0073004784 0.109428555 -0.02172694 0.17525579 -0.024721615
0.25318193 -0.011723084 0.1442921 0.07222474 -0.08328197 -0.14089042 0.06683189 0.02482053
00000000: 2494 813d f649 00be d239 38be fc3a 443e
00000010: a13b 9bbe 3f86 96bd 9ad3 95bd df66 9bbe
00000020: be86 acbd 8756 f6bb fd88 3cbd e7cf 273e
00000030: f618 0c3e 83c2 b83e 1447 b2be 586c 6d3c
00000040: cfb5 723d ea48 58b9 7ce1 71be 1579 b9be
00000050: 7789 15be 8f65 4dbe 5674 093e 1213 92bd
00000060: 592f 5abe a0b2 15be edb8 863e 207e 0cbc
00000070: d2e5 96be e3ed bb3e 39c9 233e c2e1 0ebe
00000080: 5595 d13d a819 b23e 3686 6dbe 0f2e 2e3e
00000090: 4604 cfbd 7dd4 8d3e 3dd1 a33e 6fba 25be
000000a0: 8070 2c3e 21ab 94bc ad73 37be d375 393d
000000b0: 0114 173e 2cef 023e 603f 42be dc66 773d
000000c0: b81b 7abe 9319 83be b7ab 94bd 392b 1a3d
000000d0: 17b1 9cbe 95a0 65bc 9371 b0be 362b 313e
000000e0: 2e0f 69be bc81 e23c cbd4 92be b72a 9abd
000000f0: e40f 1dbc 93fd 13be 112d 583d ac6f 653e
00000100: 0f06 513e 356e 08be 6f7f c03d 8564 673c
00000110: a225 1f3e 67e5 cd3d ab3a 903d 7c72 fcbd
00000120: bc54 33be 04e3 2c3d eac4 1cbd 64cb 08be
00000130: 6dcb a1bd fe4e bbbc 278a 54be 0e8e 5e3c
00000140: 528b 52bd 5cc1 b73d 3203 103e 8bb4 47bd
00000150: f0d5 c03c 660b 163d 0dd7 10bd 5364 423c
00000160: d6d3 4a3e 9cd7 22bd 1299 a5bd ad49 1fbc
00000170: 67ac 55be 961f 283e ea89 f9bc 7268 9d3d
00000180: 79eb abbc bd9e eebd a940 963c 1c31 363d
00000190: b6df 1a3e 6cb1 b03d 1eb1 15bd b4f3 7ebe
000001a0: b59c 28bd 882b d23c db1c 1a3d 46bc 2c3e
000001b0: 42ab 453e adb4 633e f4da a73d fc6b deba
000001c0: 16cb 7d3d 104b e3bd 78a8 59be da38 ef3b
000001d0: 141c e03d b2fc b1bc 4176 333e fc84 cabc
000001e0: 10a1 813e 2e12 40bc 4fc1 133e 91ea 933d
000001f0: bd8f aabd 9445 10be 28df 883d 6d54 cb3c

bias f4 [2]
-0.12940916 -0.0053229183
00000000: d683 04be e06b aebb
