trained_bsde_model_lq/d2_z_net_x0_is_0.5.pth (torch, 21401 bytes, 6 tensors)

fc_in.weight f4 [64, 3]
000000 57 b3 5e 3e 35 77 37 3e 81 96 3c be e3 8d 46 be
       0.217481 0.17916568 -0.18416788 -0.19390063
000010 f8 e0 12 be 56 38 0a 3c 2c ed e1 bd da 07 12 bd
       -0.14343631 0.008436283 -0.11031565 -0.03565202
000020 69 0f 6f 3c bc 29 b1 be f0 3d 0c 3e a8 fc bd ba
       0.014591076 -0.34602153 0.13695502 -0.0014494853
000030 44 99 11 3f a8 0b eb 3d 08 b6 d7 bc 02 7a 26 bf
       0.5687449 0.11476833 -0.026331916 -0.6502992
000040 c4 2f 00 bc 96 34 0f 3e d3 b5 a7 3d 1d 01 e9 3d
       -0.007823888 0.13984904 0.08188977 0.113771655
000050 d9 77 5a bc a1 c6 56 3d d0 c3 b1 3d e6 a0 f9 bc
       -0.013334238 0.05243552 0.086799264 -0.03047223
000060 c2 16 e8 3d 9d 94 15 3d 96 08 71 3e b8 b9 b5 be
       0.11332466 0.03651868 0.23538432 -0.35493255
000070 70 7d 4a bd 31 bd 54 bd 8d 64 c0 be 72 f5 79 bc
       -0.049436033 -0.05193824 -0.37576714 -0.015256273
000080 7b 3f 02 be 79 1c 62 be f6 4c f2 bd 2a a4 bd 3c
       -0.12719528 -0.22081174 -0.118310854 0.023149569
000090 4a f8 1e bd 48 b4 31 3e 9f 4e d7 3d 31 70 31 bb
       -0.038811006 0.17353928 0.10513043 -0.0027074928
0000a0 6e 29 21 3d 3f eb b3 bd 2b a1 7f 3e 9f a2 37 be
       0.03934615 -0.08785104 0.24963824 -0.17933129
0000b0 58 a5 69 3d 82 bb 10 bf 57 3a fb bc 5f 3c 4f 3b
       0.05704245 -0.56536114 -0.030667467 0.0031621677
0000c0 fa 55 b3 3e 2b 8f 1c be 76 8c de 3c 8b 24 8e be
       0.35026532 -0.15288989 0.027166586 -0.27762255
0000d0 37 d6 f4 3d 3e b2 a5 3d 84 47 de be 71 4f 34 3d
       0.11954921 0.080906376 -0.43413937 0.044021074
0000e0 2a 71 b9 bd 0f f9 8a be 25 d0 34 3e 7c 81 7b bb
       -0.090547875 -0.27143142 0.17657526 -0.003837674
0000f0 65 0d f7 bd a5 60 08 3e e9 36 9c 3d 49 89 2b 3d
       -0.12063102 0.13318117 0.07627661 0.041878972
000100 e6 c6 dd 3d eb 57 9b 3b be 80 8b be 8b 9e 04 be
       0.108289525 0.0047407052 -0.2724666 -0.12951104
000110 84 16 42 bd 48 bb ff be 27 77 25 3c 91 17 8c bc
       -0.047384754 -0.49947572 0.010099209 -0.017101081
000120 a0 76 51 be 45 23 14 be 59 54 84 bc 80 2a 3e be
       -0.20455408 -0.1446658 -0.016153501 -0.185709
000130 af ff 9a bd 6c c6 6e bd 32 c4 f9 bd 74 a9 a3 3d
       -0.07568299 -0.0582947 -0.121956244 0.07991305
000140 26 db e4 3d 50 44 15 3f b9 91 ba 3d 54 b3 0f bd
       0.11174612 0.5830736 0.09109826 -0.03508313
000150 f8 af 92 3e e6 f9 d7 bd 18 3c e6 3c 21 15 c5 3e
       0.28649879 -0.10545711 0.028104827 0.38492683
000160 dd 42 8b 3c a5 b7 1e 3e 2c c6 32 3d 3e d7 c4 3d
       0.016999656 0.15499742 0.043646023 0.09611367
000170 cb 78 a3 3d f1 b6 6d bd fc 21 86 bd 94 d5 8f bc
       0.07982024 -0.058035795 -0.06549451 -0.017557897
000180 88 4e 3c 3e a9 6a b6 bd 07 9b e8 3d a3 32 16 be
       0.18389332 -0.089070626 0.11357694 -0.14667754
000190 72 57 33 3e bd cd 03 bc c2 e1 ed 3e af 99 0c be
       0.17513826 -0.008044657 0.46461302 -0.137305
0001a0 1c a6 a8 3d 18 70 f9 bd fb 3f 3a be 9f 10 a2 3c
       0.08234808 -0.12179583 -0.18188469 0.019783316
0001b0 57 f3 6b 3e 1f 0d 1b 3e 93 11 5a bd cd 2b cf bd
       0.23042046 0.15141724 -0.053239416 -0.10115776
0001c0 85 36 f2 3c 2d d1 22 3d 90 61 03 be 9d f9 e9 3c
       0.029567013 0.039750267 -0.12830186 0.028561408
0001d0 98 7c b2 3c e5 58 64 bd c7 b3 8d 3d 73 5e 12 3d
       0.021787927 -0.05574884 0.069190554 0.035734605
0001e0 01 02 3c 3d 47 b1 e6 3d ab d7 9a bd 51 ea 06 3f
       0.04590035 0.11264282 -0.07560667 0.5270129
0001f0 0b fc de 3c 50 75 b1 bc 8b 91 96 3e c2 80 04 3e
       0.027219793 -0.021662384 0.29407915 0.12939742
000200 5a 6e 3f bd 48 e0 9f 3e d1 3d 07 3e fa f5 57 ba
       -0.0467361 0.312258 0.13207175 -0.00082382525
000210 83 49 32 be a8 ec 2c be e0 73 f7 3b 06 ab 08 3e
       -0.17410855 -0.16887152 0.007551655 0.1334649
000220 4c 3b 15 be be 62 9c bd 3a 83 99 3e cc 94 76 be
       -0.14573401 -0.07636021 0.2998293 -0.24080199
000230 c7 ab 1d bd 4c 0a ee be 5c 78 76 3d 74 a3 06 3d
       -0.038493898 -0.4649223 0.060173377 0.032870725
000240 2a ff f3 3e 68 a0 fe 3d a8 58 17 3c cd 48 c1 3e
       0.47655612 0.12432939 0.009237446 0.37750855
000250 4f 01 95 3d 57 7b 18 bd d4 b9 94 be 8c 87 9f 3d
       0.0727564 -0.037227 -0.29048026 0.077895254
000260 41 24 93 3b e3 ea 0d bf f9 01 e5 bd e4 21 01 bd
       0.004490406 -0.55436534 -0.11182017 -0.03152646
000270 53 80 ae bd 11 9d 06 3e dc e6 fe 3d 09 ee 24 3f
       -0.0852057 0.13145854 0.12446377 0.6442571
000280 73 29 15 be bd 32 96 bb 8d ae 46 bf 8e b5 d7 bc
       -0.14566593 -0.004583685 -0.77610093 -0.02633169
000290 42 27 db bb 0f 72 0c bf f5 42 9c 3d 6d f1 3f 3d
       -0.0066880295 -0.5486154 0.076299585 0.0468611
0002a0 cd a7 8b be 57 1e c3 bd 6e 79 6e bd a9 64 32 be
       -0.2727646 -0.09527271 -0.058221273 -0.17421211
0002b0 d5 f2 e4 bd 32 f7 50 3d 11 e2 b6 3e fa 6c 95 3d
       -0.11179129 0.051016994 0.3571935 0.07296176
0002c0 4a 45 d5 3c c2 60 2f bf c5 64 5c 3c 4b ad c0 bc
       0.026034016 -0.68507016 0.01345176 -0.023520133
0002d0 1f e9 77 bd 10 66 7a 3d 8b 94 86 3d 4e 38 e8 3e
       -0.060525056 0.06113249 0.06571301 0.45355457
0002e0 f9 eb 14 3e 8f fd 69 bc f2 6e af 3e 6e 75 38 be
       0.14543141 -0.0142816445 0.34264332 -0.18013546
0002f0 fa fb 89 bd 26 a7 aa bc 78 09 19 be 46 34 8f 3d
       -0.06737514 -0.020831656 -0.14945018 0.06992392

fc_in.bias f4 [64]
000000 c6 80 bc 3e 53 c0 e1 3e fc da f7 3d ca b6 cc 3e
       0.36816996 0.44092044 0.12102315 0.39983207
000010 72 e6 35 bf 51 aa 45 3f 73 39 8d be cf 12 98 bd
       -0.71054757 0.7721301 -0.27582893 -0.074254625
000020 fe 16 95 3e e2 29 cf 3e 32 58 b1 3e 70 8b 92 3e
       0.29119104 0.40461642 0.346376 0.28622007
000030 fa dd 15 be c7 77 46 bd 4c 11 81 be 67 3f f1 3e
       -0.14635459 -0.048454072 -0.2520851 0.47118685
000040 2f 70 d4 be 0e 04 e7 3e 40 07 c0 3e d5 73 5c 3e
       -0.4149184 0.4512028 0.3750553 0.21528561
000050 32 4b 67 3e 43 9f 2f be 2b a5 cb 3e 9a 01 c1 3e
       0.22587278 -0.17150597 0.3977445 0.37696534
000060 1f f4 a7 3e 59 a0 65 3e 23 39 d1 be 93 ae 1a bf
       0.32803437 0.22424449 -0.40863904 -0.6042263
000070 32 d8 93 be d4 32 0f bf 7c ed a7 bd 64 a0 c0 3d
       -0.2887588 -0.5593693 -0.081995934 0.09405592
000080 3c 9e 10 3e c1 e9 94 3e 80 c4 0e bf 70 72 8e bc
       0.14122862 0.2908459 -0.55768585 -0.017388552
000090 c8 3d e2 be d5 06 70 3d 07 87 b8 3d 95 60 d7 3d
       -0.4418776 0.058600266 0.090101294 0.105164684
0000a0 d3 dd 16 3e 71 26 e8 be 42 aa a8 be f2 0a c5 be
       0.14733057 -0.45341828 -0.32942396 -0.38484913
0000b0 3d 7b cc 3e 5b 86 01 bf 24 00 f4 3e 50 a8 dc 3e
       0.39937773 -0.50595635 0.47656357 0.43097162
0000c0 30 d0 1c bf 1c ec bf be 54 2e b5 3e 49 a3 34 3f
       -0.6125517 -0.37484825 0.35386908 0.70561653
0000d0 7a 80 ca be e5 18 39 bf cc 88 2f 3f 44 a5 0a 3f
       -0.39551145 -0.7230361 0.6856811 0.54158425
0000e0 96 03 c0 3e 4a ee 92 3e 9b 18 c6 be eb 2d 10 3f
       0.37502736 0.28697425 -0.38690647 0.56320065
0000f0 99 f5 51 3d e1 5c 1f bf c5 f9 35 bf 62 0f 00 bf
       0.05125961 -0.62251097 -0.71084243 -0.5002347

layers.0.weight f4 [64, 64]
000000 de 05 12 be 2f ea 4e be 56 43 8d bd d8 31 e3 bd
       -0.1426005 -0.20206521 -0.06897609 -0.11093491
000010 a8 1f 2c 3e d0 60 12 3e 80 6b f8 3c 55 fe 0b be
       0.16808951 0.14294744 0.030324697 -0.13671239
000020 62 0c cd 3d 73 63 7e bc 39 5b 09 be a9 5b 18 3e
       0.100121275 -0.01552664 -0.13413705 0.14878716
000030 d1 6a f4 bc f6 f6 cb 3d 6e d2 15 be 68 ed 04 be
       -0.02983609 0.099592134 -0.14631054 -0.12981188
000040 3f 59 b7 bd 87 21 1d be 2b 69 72 be df 32 df bd
       -0.08952569 -0.15344821 -0.23672931 -0.10898375
000050 35 e5 01 be d6 a6 03 bc ea 60 2a 3d 52 c4 bd 3b
       -0.12685092 -0.008035382 0.04159633 0.0057912255
000060 2c b7 20 be df bb e7 bd 9e e3 11 be 66 08 54 3e
       -0.15694875 -0.113151304 -0.14246985 0.20706329
000070 e7 0d 2e 3c ba a0 45 3e 27 01 8c 3e 32 fe 0d 3d
       0.010623432 0.19299594 0.2734463 0.034666248
000080 3a f2 19 3e 84 5b 23 3e 6c c2 d3 3d 2c 06 7e be
       0.15033808 0.15952879 0.103398174 -0.24807042
000090 a2 6d 76 3e 08 88 19 3e 65 dc b7 3c bd c9 31 3e
       0.24065259 0.14993298 0.02244396 0.17362113
0000a0 d9 67 45 3e 5a 42 1b 3e 0f b7 db 3d 32 db 6f 3e
       0.19277896 0.1516203 0.10728275 0.2342346
0000b0 19 95 df 3a 88 79 03 be 6c 7d 33 be 09 b0 fc 3d
       0.0017057984 -0.12839329 -0.17528313 0.123382635
0000c0 a8 ca 49 3e 40 3e 61 3e 5d cc 47 be 3e 89 35 be
       0.19706213 0.21996403 -0.19511552 -0.17728135
0000d0 c5 da 1a 3d 83 97 17 3e e5 58 98 be 1a d5 c0 3d
       0.03780629 0.14803891 -0.2975532 0.09415646
0000e0 be 6e 85 bd 89 38 45 bc 3a 47 1f bd 8b bd c1 bd
       -0.06515263 -0.012037405 -0.038886286 -0.094599806
0000f0 3e 1f 8e bd bd 32 70 3e 64 ba 22 3e 18 3d 57 be
       -0.06939553 0.23456855 0.15891415 -0.21019399
000100 71 5d d9 bd 4e 9d 10 be 45 41 48 be 4d 8f 49 3e
       -0.10613526 -0.14122507 -0.19556148 0.19683571
000110 52 bb 02 be 4b 7e 48 bc 2b a6 03 be 87 b3 a1 3c
       -0.1276677 -0.012237142 -0.12856357 0.019738926
000120 b4 ec 10 3e ec 91 33 bd c9 61 db 3d ea 6d d2 3d
       0.14152795 -0.043840334 0.107120104 0.10274871
000130 cc 11 70 bc 8e 31 1f 3e b9 9d 01 be fb a3 dd 3d
       -0.014652681 0.15546247 -0.12657823 0.108222924
000140 df 2f 51 3e 05 59 13 3c 4a fc 4d be f7 4e 26 3e
       0.20428418 0.008993392 -0.20115772 0.1624106
000150 ce 7e c4 3d 0b cb d8 3d bb e7 55 3d ad c9 d4 3d
       0.095944986 0.105856024 0.05222295 0.10390029
000160 0f 70 9a 3d e3 c2 ca 3d 2e 02 34 be 3b f9 18 be
       0.07540905 0.09900453 -0.17578956 -0.14938824
000170 5e e6 ab bd ec 12 ce 3d 6c c6 dc bd d3 fa 8d bd
       -0.083935484 0.10062203 -0.107800335 -0.069326065
000180 4f 82 23 be 42 3b 2f be 2a 00 42 3e 16 cd f4 bd
       -0.15967678 -0.17112449 0.18945375 -0.119531795
000190 e7 3e 08 be cf 13 ea 3d e1 a0 43 be ae dc d5 3d
       -0.13305245 0.114295594 -0.19104339 0.10442482
0001a0 7f 3a ff 3d 91 0b 10 bd 69 68 1d 3e 04 c4 7e bc
       0.12462329 -0.03516728 0.1537186 -0.015549663
0001b0 36 0c 7a bd 08 4e e6 3d 86 96 11 be 13 c1 36 bd
       -0.0610468 0.11245352 -0.14217576 -0.044617724
0001c0 d4 d2 9c 3d ac 7a 33 be 59 fa c4 bc 53 fa 3c 3e
       0.076574 -0.17527264 -0.024045156 0.18454866
0001d0 d4 b5 a9 bd 41 c0 a9 3d f2 07 40 be cf 9b b1 bd
       -0.08286634 0.08288623 -0.18753031 -0.08672296
0001e0 b0 86 bf bd 1a f7 aa 3d 70 91 d2 bd 4a 38 05 be
       -0.093518615 0.08347912 -0.10281646 -0.13009754
0001f0 54 47 47 3e a8 96 60 3e 86 14 1d be d7 58 c5 bd
       0.19460803 0.21932471 -0.1533986 -0.096360855
000200 b2 e0 2b bd 59 66 24 be cd 38 80 bd 1b da c6 3d
       -0.041962333 -0.16054668 -0.06260834 0.09709569
000210 5e d6 f6 3d 43 ed 18 be 72 49 13 3e 43 60 5d 3c
       0.12052606 -0.14934258 0.14383486 0.01351172
000220 4f 35 3c 3e 77 cf 87 bd 40 eb 3f be 20 cb 6f be
       0.1837971 -0.06631368 -0.18742085 -0.2341733
000230 0a 76 07 3e f0 a7 a8 3d 37 4c 50 be 26 94 18 3d
       0.13228622 0.082351565 -0.20341574 0.03725066
000240 58 e1 c4 bd 13 23 e3 bd 67 f4 0c be 1a 3f 30 3e
       -0.096132934 -0.11090674 -0.13765107 0.17211571
000250 19 c3 06 be cc a8 fe bd 05 3a 80 bd ae 62 9d 3c
       -0.13160361 -0.12434539 -0.06261066 0.019212093
000260 0e ba 9f be 94 d9 89 3d 15 3c 04 3e 5e a2 1a 3d
       -0.31196636 0.06730953 0.12913544 0.0377525
000270 82 29 e3 3c c4 9d ba 3d c2 81 c6 3d 6f 66 d2 3d
       0.027729753 0.09112123 0.09692718 0.10273444
000280 e3 86 4c 3e 4b ad 92 3c 86 6a f9 3d 5b ff 0a be
       0.1997333 0.017904898 0.12178521 -0.13573973
000290 04 e3 56 bc a5 00 47 3e 25 07 57 3c bf 54 1d be
       -0.013115648 0.1943384 0.013124262 -0.1536436
0002a0 12 b4 5d 3c ae 00 9f 3b 8e 50 18 3e 53 c3 9e 3e
       0.013531702 0.004852376 0.14874479 0.31008396
0002b0 1b 06 00 be c0 66 e4 3d fd b9 8c bd 2b 84 68 3d
       -0.12502329 0.111524105 -0.06871412 0.05676667
0002c0 33 2b 1a bd 1b 88 eb 3c bf 12 e8 bc fe 73 91 3a
       -0.037638854 0.028751424 -0.028329251 0.001109719
0002d0 c1 c6 cf bd 2b dc 33 bd 49 d2 89 bd 26 ec 65 3e
       -0.10145331 -0.04391114 -0.06729562 0.22453365
0002e0 f2 0a 16 bd 76 20 89 3d 3b d7 0a 3e f1 a4 c6 3a
       -0.036631532 0.066956446 0.13558666 0.0015155358
0002f0 e7 87 22 be b7 7a cd bd ac 5b 04 3d 14 32 1c 3b
       -0.15872155 -0.100331716 0.032313988 0.002383356
000300 49 83 ee 3d 2b 80 62 bd e9 64 6a bd 1f 2e 54 bd
       0.116461344 -0.05529801 -0.05722514 -0.051801797
000310 0a 8c eb 3c b2 38 58 be be f8 13 3e ab 24 5d 3e
       0.0287533 -0.21115378 0.14450356 0.21596019
000320 97 7f c5 bd fd d1 dd bd e1 71 be 3d 77 b3 cc bd
       -0.096434765 -0.10831068 0.092990644 -0.09995168
000330 02 b7 2a be 38 36 86 bd 1b b7 57 3d 53 ba 50 bd
       -0.16671374 -0.0655331 0.052664857 -0.050958943
000340 a5 45 26 3e e8 d2 48 be 0d 26 99 3c 27 84 46 3e
       0.16237505 -0.19611704 0.018694902 0.1938635
000350 7c 20 4b bd ff 48 21 3e 68 f6 59 3e 66 95 0b be
       -0.049591526 0.15750502 0.21285403 -0.1363121
000360 c0 7c 38 be 22 ce 31 3e 8b 32 4e be 77 b4 e0 bd
       -0.18016338 0.1736379 -0.20136468 -0.10971921
000370 4a 03 fa bc da 23 e1 bd dc fd 30 be f8 56 c8 3d
       -0.030519146 -0.10993166 -0.1728434 0.09782213
000380 f4 33 1a be e8 8d 96 bd 4a 18 c5 bc b1 0e 09 3e
       -0.15058881 -0.07351285 -0.024059433 0.1338451
000390 2e 8b 34 3d ba 78 2c 3e 10 65 9d bd 84 de dd bd
       0.044078045 0.16842929 -0.07685292 -0.10833457
0003a0 1e 80 2c 3e fb 47 14 be cb c4 82 3d 92 e3 fd 3c
       0.16845748 -0.14480583 0.063851915 0.030992303
0003b0 d4 e0 d2 3c b5 74 81 bc b4 a1 40 be 9d c4 07 3e
       0.025741972 -0.01580272 -0.18811685 0.13258596
0003c0 97 83 19 3e ba fc e6 bd bc 73 13 be 7d ba a4 3d
       0.14991604 -0.112786725 -0.14399618 0.08043382
0003d0 b2 88 34 3e e8 c9 79 bd 01 63 04 3e 86 a8 a8 3d
       0.1763027 -0.06098357 0.12928392 0.08235268
0003e0 7f d4 14 3b d8 5a 7b be 65 18 2c be 60 2e 5f 3e
       0.0022709665 -0.24546373 -0.16806181 0.21795034
0003f0 64 cf 79 bd 2c 0f 07 be fa 8b 1b be 67 ae f6 3d
       -0.0609888 -0.13189381 -0.15190116 0.12044983

layers.0.bias f4 [64]
000000 95 86 04 be 4b ac 1a bd 01 0d 6a bc 14 45 5e bd
       -0.12941964 -0.037761968 -0.014285327 -0.054265097
000010 fa 85 ca bd cd 21 23 bd f5 12 80 bd a5 0d c0 bd
       -0.09888835 -0.039827157 -0.06253616 -0.093776025
000020 6e 56 da 3d e4 16 22 3e 8f 2a 72 3d 24 94 e6 3d
       0.106610164 0.15829045 0.05912262 0.11258724
000030 0d 37 53 3d f7 97 d8 3d 52 7e df 3d bd 25 7c 3e
       0.051566172 0.1057586 0.109127656 0.24623771
000040 67 2f e4 bd cd f8 8c 3c 00 d0 cf 3d b4 4d 6d be
       -0.11141854 0.017208481 0.10147095 -0.23174173
000050 f9 72 02 3c 63 83 a1 bc 6d 1d ce 3c 6e ef 20 3d
       0.007961982 -0.01971597 0.025160516 0.039290838
000060 5e 0b 31 be 5d b5 7b 3d 13 eb 4c 3d b9 15 9f 3d
       -0.17289492 0.06145226 0.05002887 0.07767815
000070 e2 05 13 3d 44 26 36 3c fd ee 1d bd 62 cc c9 bd
       0.035894282 0.011117522 -0.038557995 -0.09853436
000080 fb fb cb bd a0 d8 29 3e d4 36 16 3d 58 41 72 bd
       -0.09960171 0.16586542 0.036673382 -0.059144348
000090 3d c7 3c be 8c da e2 3d 36 f3 14 be f3 9d eb bd
       -0.18435378 0.11076841 -0.14545903 -0.11504736
0000a0 be 50 fd bd 08 93 da 3d 0b b6 ba 3c 4f 5b 26 bd
       -0.12368916 0.10672575 0.022791883 -0.040614422
0000b0 09 4e 92 bd 6d 70 bf bc ec 18 10 3e 3a 69 07 3e
       -0.0714379 -0.023369038 0.14072007 0.13223734
0000c0 b3 c5 53 3e 58 1c e0 bc 93 0b b0 3d be 35 8d 3c
       0.20680885 -0.027357265 0.085959576 0.01723754
0000d0 fc 31 72 bd ea 55 61 3d cb 82 17 be 7c b8 06 3e
       -0.0591297 0.055013575 -0.14795987 0.13156313
0000e0 15 cf 8b 3d c3 9d 35 3c 6c 30 48 bd ee 2f 49 be
       0.06826607 0.011084977 -0.048874304 -0.1964719
0000f0 8f 9f 7d bc 99 9b 17 be 6d ba ad bd b3 d7 ca bd
       -0.015479936 -0.1480545 -0.084828235 -0.099044226

fc_out.weight f4 [2, 64]
000000 11 5b 0e 3e 7b f0 40 3b 7e 62 ed 3d c0 df 4b 3c
       0.13901927 0.0029440213 0.115910515 0.012443483
000010 4e 85 12 be 0c a6 85 bc fe 65 0e be 71 66 15 be
       -0.14308664 -0.016314529 -0.13906094 -0.1458986
000020 37 11 03 be 2f db 15 3e 35 cc f5 3d 0e 09 83 be
       -0.12799536 0.14634393 0.1200184 -0.25592846
000030 da be 01 3e b5 65 4e 3e 67 76 a7 3c d3 e8 c0 3e
       0.1267046 0.20155986 0.0204422 0.3767763
000040 16 1d 7b be ea 19 0b 3b 46 e8 ee 3d 52 bc 7d be
       -0.24522814 0.0021225163 0.116653964 -0.2477887
000050 aa 14 b9 3d 1d 76 16 3e 92 ab cc ba 1d 87 51 3c
       0.090371445 0.14693494 -0.0015615097 0.012788561
000060 c5 c3 86 be 2c 47 23 be 1c 6e 1a 3c 3a 0b 08 3e
       -0.26321235 -0.15945119 0.009425666 0.13285533
000070 ad 16 25 3c 41 54 46 be 20 37 87 be 01 fc 09 bb
       0.010076207 -0.19368078 -0.26409245 -0.0021054747
000080 a6 15 f3 bd 94 23 68 3e ee b5 5a 3d 78 cc 06 be
       -0.118693635 0.22669822 0.053396158 -0.13163936
000090 c3 aa ed 3e 97 b8 9a 3d 23 4a b5 be fa 4e ef 3e
       0.46419343 0.07554739 -0.35408124 0.46739942
0000a0 89 2e 9d bd 59 1e c3 3d ba 63 e7 3b 54 d5 b0 bc
       -0.076748915 0.09527273 0.007061449 -0.021586098
0000b0 97 08 a0 3d 24 64 7d 3e 91 8c 66 3c 48 42 27 3c
       0.078141384 0.24745232 0.0140716 0.010208674
0000c0 a2 f0 e2 be c4 50 61 bd 38 ad e7 3d e5 f5 d4 bb
       -0.44324213 -0.055008665 0.11312336 -0.0064990395
0000d0 99 a3 73 3d 8f 63 be 3d b3 34 58 3e 0c 6e 01 3e
       0.05948219 0.09296333 0.21113853 0.12639636
0000e0 23 b0 42 3e d2 d5 cb 3b 7d 97 11 3e a2 ed 83 be
       0.19012503 0.0062205577 0.14217944 -0.25767237
0000f0 6f a0 92 3c c2 76 09 be c4 7b b3 3c 8c 2d a4 bd
       0.017898766 -0.13424209 0.021909602 -0.080165
000100 ee 42 69 bd 46 d9 1d 3c cd 5d c2 3d 79 ce d0 bd
       -0.056948595 0.009634322 0.09490547 -0.101956315
000110 41 db 3c be 60 dd 24 3d 5c 5e 1a 3c d4 14 0d bd
       -0.18443014 0.040250182 0.009421911 -0.03444369
000120 fc 9a 9a 3d 18 c2 d3 bb 5b a7 1c 3e cd 8d 4f be
       0.07549092 -0.0064623468 0.15298216 -0.20268936
000130 22 c4 55 be 3b 0c db 3d 08 f3 c7 bc 66 36 2e 3e
       -0.208756 0.10695692 -0.024407879 0.17012939
000140 e0 58 8c bd 19 fc a1 bb 21 9d e6 3d e6 6d 75 3e
       -0.06852889 -0.0049433825 0.11260439 0.23967704
000150 28 14 30 bb 38 36 a2 bd 21 24 85 bc aa 42 69 bd
       -0.0026867483 -0.07920498 -0.01625258 -0.05694834
000160 03 24 85 3e 1c a5 c1 3d 2f 7d ab bc 82 72 14 bd
       0.26004037 0.0945532 -0.020933716 -0.036242016
000170 2b ad 19 3d 56 28 a5 bd 5f a0 85 3e e5 fa da 3c
       0.03751866 -0.08064334 0.26098916 0.026730964
000180 b4 90 d1 bd 0e 15 c7 3d 4e e3 ae bd 83 af ad 3c
       -0.10232678 0.09720813 -0.08539449 0.021201855
000190 6c 0f 62 3e 1c 3a 99 3d e9 1e 4c be c7 03 f1 bd
       0.22076195 0.074817866 -0.19933666 -0.117682986
0001a0 81 de 4f 3c 28 40 07 3d fc 8f 57 bd 11 31 c6 bb
       0.012687326 0.03302017 -0.05262755 -0.0060483296
0001b0 28 29 e4 3d a1 9f 43 bd 22 37 e2 bd c5 7b 0b 3d
       0.111406624 -0.047759656 -0.11045672 0.034053583
0001c0 9f a4 df 3d 1d 37 6d bd de 8d 5e 3c 75 ec 98 3c
       0.10920071 -0.05791389 0.013583628 0.018667439
0001d0 db 16 ee bc b0 ce 11 3d 84 46 80 bd f0 9a c5 bd
       -0.029063633 0.035597503 -0.0626345 -0.096486926
0001e0 84 bc 8b bd 83 55 c5 3c e6 58 26 be c7 1c c9 bd
       -0.06823066 0.024088627 -0.1624485 -0.09819942
0001f0 9b f4 b4 3c 7c 81 48 bd 24 a7 bb bd 53 82 95 bc
       0.022089293 -0.04895161 -0.09162739 -0.01825062

fc_out.bias f4 [2]
000000 4a 19 40 3d 35 53 17 3d
       0.046899118 0.036944587
