trained_bsde_model_lq/d3_z_net.pth (torch, 23265 bytes, 6 tensors)

weight f4 [64, 4]
00000000: 5f3d 1cbf d447 c0bd 959f f03c d0b0 3a3d
00000010: f94f 343e 34bb eabd dc78 8f3d 1ff5 da3d
00000020: 7cbd 083f 6599 9bbc e43a a33b 2f10 25be
00000030: 18db 973e 29bb 06bd 1fe4 24be 618a 9ebd
00000040: 344a af3e 051c 0e3e 6280 2a3e ee38 e13b
00000050: b0e6 d0bb f8cd 173d 5a64 d9bb e061 1ebd
00000060: 0674 56bf b58e d93d a00d c83c 33dc 673d
00000070: 0256 2dbf 58e8 80bd 2f3b d4bc fda4 de3d
00000080: 855b dabe f331 7aba 04ed 573b ca90 3fbe
00000090: ae85 453e ded0 b83c 6791 40bb e19d f5bd
000000a0: 68e6 153f 752d 833d 1fd5 8c3b cd31 dabc
000000b0: c6af 313f cc15 373d ee37 acbb e444 d43d
000000c0: 2ff3 103f eacb 4fbc 98c8 553c cae8 a4b8
000000d0: 7eee d3be c5b5 673c 4a89 2a3c 8c26 313e
000000e0: f984 bf3d 9d24 eb3c 4592 77bb 0296 17be
000000f0: a82b aebe d4b1 a8bd efd3 3abd 8df2 9fbd
00000100: 9e95 e43e 7589 27bd 3c97 b2ba 0b6c 82bd
00000110: 8ee9 dfbd 0b2e 5fbd 2ffd cebc 7439 cdbd
00000120: f239 36bc d5c9 993d d907 82bc cf16 b13d
00000130: 104c 843e 255b 0b3d 42fb 973c bfb4 e33c
00000140: cb10 413f 520f f0bd 0cf6 d2b9 3810 bbbd
00000150: e1e3 2e3d f783 4cbd 7d89 7c3c e614 533c
00000160: e0e3 fbbb bb75 563d 24f9 9f3d 2d67 fcbd
00000170: c21a 8abe 4995 98bd d1ce 923c c8ea 3b3d
00000180: 1db3 ed3e ffe3 d93d 0817 063d 8f0e 393d
00000190: 124b 42bf 68bb f03d 414b b4ba 5ed0 06bd
000001a0: 9c3e 0ebf e9e1 84bd 0a25 c4bc 8e00 26be
000001b0: 95f0 d1be 6ed8 13bc e0ac 5cbc cc00 b7bc
000001c0: 1b28 1ebf 294a 623d 439d 90bc 67a1 f9bd
000001d0: 569f d2be 534a 63be 9919 dabc 6651 43bb
000001e0: 159e cd3e 6899 763d b4c5 83bc 73bf 9d3b
000001f0: d68b 213e f85c 013d 7b56 243c 7bc3 db3b
00000200: 9145 1cbf b878 c1bc 63d6 033b 9f28 263b
00000210: f16c 2e3f 2f3c 37bd ec9f 78bd 6706 b73d
00000220: 7816 133f cbb0 87bd 6bbb ca3d 3caa b2bd
00000230: 55e2 a43e 9210 883d 1813 bd3c 2674 fbbd
00000240: 05dd 0d3f 6bef c13b 3cb5 13bd 81cf 3c3c
00000250: 63e3 ac3e d5c1 893c f9b7 8d3c b24b 223e
00000260: 4e6e c43e d1c2 773d 0e83 edbb e0a9 ca3d
00000270: 72f8 d13e b838 05bc 467c 513d 38cf 1b3e
00000280: fd40 70be 3e5f 94bc cb7e 57bc 0901 19b8
00000290: e4a2 e53e e734 9c3b 45c5 b93d 62eb 7e3d
000002a0: ae76 16bf 7710 59bd 3cb6 4b3c db88 a9bd
000002b0: ccfb 593f c3ef 98bd 9dd8 023b 5b0f 963c
000002c0: f1cf a93e ee87 8bbd 1c39 ed3c a883 c8bd
000002d0: a347 253e dcfc 983d 5d6a 03bb 8dde d8bd
000002e0: 9389 053e 681a 9abd d4a7 0ebb f572 3c3d
000002f0: d9d9 21bf ce2e b4bb 4ac8 233d c442 953d
00000300: d470 be3e bdd7 fb3d 6189 913c ce22 1fbe
00000310: ed57 bb3e a691 6b3c f0e5 97bd 6f0d 423e
00000320: 3830 273e 5d00 cabc 6b55 25bc 0ce7 3ebe
00000330: a4eb 063f 6d51 8a3d 45eb e33c f3f1 aa3b
00000340: 645f d03e cbbf 883b d1f0 e1bb 18fb 243e
00000350: b4a8 9dbd 6e20 683e d581 dd3c 5394 1cbe
00000360: d768 abbe ae89 df3a cb53 083c e53c 123e
00000370: b5db 2fbf 65aa d0bc e16b 803d 3116 be3d
00000380: b1dc afbe b94b 803c ffc9 8ebc bab4 f93d
00000390: 30d1 afbe c6b0 45be aa5d ad3d f383 78bd
000003a0: 23ce 8e3e d22a 37bc 8e40 6fbd 23aa 0ebe
000003b0: 2204 6b3f 05f5 233c c452 1d3b 5d96 d63b
000003c0: 94e8 333f f9e5 0dbd b07e ef3c e14c 873c
000003d0: 900d 7bbe 70da 3f3c 7998 763c 1b70 123e
000003e0: 4d8b 21be 35c4 7b3d b5b9 e0bc 6d6d 8c3d
000003f0: 7ebb 0bbe 902f 173d 8b5a 14ba a02c 193e
-0.61031145 -0.093887 0.02937297 0.045578778 0.17608632 -0.114614874 0.07005474 0.106912844
0.5341413 -0.018994043 0.0049813855 -0.16119455 0.29659343 -0.032893334 -0.16102646 -0.077412374
0.342363 0.13877876 0.16650537 0.0068732416 -0.0063751563 0.03706166 -0.0066342773 -0.03866756
-0.8377079 0.10622922 0.02442056 0.056606483 -0.6770936 -0.06294316 -0.025907127 0.10871313
-0.4264795 -0.0009544186 0.0032947669 -0.18707576 0.19289276 0.022560533 -0.0029383542 -0.11993004
0.585547 0.064051546 0.004297867 -0.026635075 0.69408834 0.04469852 -0.005255691 0.10364702
0.5662107 -0.012682894 0.013048314 -7.86349e-05 -0.41392893 0.014142458 0.010408709 0.1729986
0.093515344 0.028703982 -0.0037776392 -0.14803317 -0.34017682 -0.08237043 -0.045612272 -0.07809935
0.446454 -0.040902574 -0.0013625394 -0.06368264 -0.10933219 -0.05448727 -0.025267212 -0.10020724
-0.011122214 0.075091995 -0.015872883 0.086469285 0.2583928 0.03402247 0.018552426 0.027796147
0.7541625 -0.11721672 -0.0004023764 -0.09133953 0.04269779 -0.04993054 0.015413639 0.012883401
-0.007687077 0.05235837 0.07811192 -0.12324367 -0.2697354 -0.07450349 0.017920883 0.0458782
0.46425715 0.1063919 0.032736808 0.0451799 -0.758958 0.11754495 -0.0013755338 -0.03291356
-0.55564284 -0.064884014 -0.023943443 -0.16211149 -0.41003862 -0.009023769 -0.013468951 -0.022339247
-0.61779946 0.055246506 -0.017653113 -0.12188988 -0.4113719 -0.22196321 -0.026623534 -0.0029803156
0.4015967 0.060204893 -0.016085483 0.0048140823 0.15776 0.031582803 0.010030384 0.0067066527
-0.6104365 -0.023617133 0.0020116798 0.0025353802 0.6813498 -0.04473513 -0.06069939 0.08936768
0.5745616 -0.066255175 0.098990284 -0.08723876 0.32203928 0.066437855 0.023080394 -0.12278013
0.55415374 0.0059184334 -0.03606151 0.011524082 0.33767232 0.01681606 0.017299639 0.15849188
0.38365406 0.060488526 -0.007248289 0.09895682 0.4100986 -0.008131199 0.051143907 0.15215766
-0.23462291 -0.018111821 -0.013152788 -3.6479007e-05 0.44850838 0.0047670486 0.09070829 0.062236197
-0.5877484 -0.052994218 0.012433585 -0.08278056 0.85149837 -0.07467606 0.0019965537 0.018317869
0.3316646 -0.06813036 0.028957896 -0.097907364 0.16140608 0.07470104 -0.002005241 -0.10589323
0.13040762 -0.07524568 -0.0021767514 0.04600807 -0.63223034 -0.0054987436 0.039985932 0.07288125
0.37195456 0.12297008 0.017765703 -0.1554062 0.3659052 0.014377987 -0.07416904 0.18950437
0.16326988 -0.024658376 -0.010091166 -0.18642825 0.5270331 0.06753812 0.027822146 0.005216831
0.40697777 0.004173254 -0.0068951626 0.1611141 -0.07698193 0.22668621 0.027039448 -0.15290956
-0.33478424 0.0017054582 0.008320759 0.14281042 -0.6869462 -0.025471875 0.06270576 0.092815764
-0.34348062 0.015661107 -0.017430304 0.12192674 -0.34339285 -0.19305715 0.084651306 -0.06067271
0.27891645 -0.011179643 -0.058411174 -0.1393209 0.9180318 0.010007148 0.002400563 0.0065486864
0.7027676 -0.034643147 0.029235214 0.01651615 -0.24516892 0.011709794 0.015051001 0.14300577
-0.15775795 0.061466414 -0.027432302 0.06856809 -0.13645741 0.036910594 -0.0005659244 0.1495843

bias f4 [64]
00000000: 09b0 193f b913 aabe e432 43bf ac72 d9be
00000010: 30ba febe 1927 a2bc 5cb2 543f eee3 363f
00000020: ac6f 3d3f 1886 24be bdb7 f9be 254c 2cbf
00000030: 1302 e7be afde 1d3f ebbf 3fbe 500c d93e
00000040: 5fdb d0be 2ecc 293e 28aa 4c3d 9bfd 30be
00000050: ac93 54bf 83a4 9fbd f4d1 1abe 2083 633e
00000060: 7272 f8be 2c3f 3c3f 2217 4c3f 067a a33e
00000070: 4844 283f 77c8 563f d42c a7be 452f 0dbe
00000080: 244d 013f e299 21bf 084a 22bf cbfe 99be
00000090: 3c6f f5be d615 edbe 4599 adbe 1096 1ebf
000000a0: b9f3 493e 5941 f2be 9687 113f ecdd 3cbf
000000b0: cbb7 c7be 6f53 97be 2fe3 ffbd 0393 113f
000000c0: c666 2dbf 9b22 31bf dfd9 0dbf f5fe d9be
000000d0: a5f0 f6be ca7c 463f ba02 dd3e 8e7a 3b3f
000000e0: 19fb ab3e a033 373f 7f20 fabe ff45 3ebf
000000f0: db65 14bf b1f3 a93e 1108 0b3e 171a c43e
0.60034233 -0.33218172 -0.7624953 -0.424703 -0.49751425 -0.019794034 0.83084655 0.71441543
0.7399852 -0.16066778 -0.48772994 -0.6730369 -0.4511877 0.61667913 -0.18725555 0.42392206
-0.40792367 0.16581795 0.04996696 -0.17284243 -0.8303783 -0.0779505 -0.15119153 0.22217989
-0.48524815 0.7353389 0.797228 0.31929034 0.6572919 0.83899635 -0.3265139 -0.13787563
0.5050833 -0.6312543 -0.6339421 -0.30077204 -0.47936428 -0.46305722 -0.33905998 -0.6194773
0.19721879 -0.4731548 0.5684751 -0.73776126 -0.3900741 -0.29555842 -0.12494504 0.5686495
-0.67734945 -0.6919343 -0.5541057 -0.4257733 -0.48230472 0.77534163 0.43166143 0.7323388
0.3359001 0.7156315 -0.48852918 -0.74325556 -0.5796792 0.33193734 0.13577296 0.38301155

weight f4 [64, 64]
00000000: 0b92 283e 4b49 a0bb bb5a f9bd 1103 dbbd
00000010: 296d a0bd ef8c da3d 7bed 8ebd eed5 753e
00000020: 5500 fcbd 0868 1fbe 9914 aabe f63c a8bd
00000030: b07d abbd 59b6 8c3e d1da 9c3d 628c 123e
00000040: b1be ec3d 2949 0ebe 28bb 5a3e e03a abbd
00000050: 0be4 e6bc afc7 c33d 729b 12be da21 383e
00000060: 811e 04bd 6d87 6e3d 32fa 6fbe 5ed5 653d
00000070: 13d6 b9be 9b6f 013e d153 07be 4797 e0bd
00000080: e758 2cbc 64c7 863e 047b b63d 55a4 8dbe
00000090: e4fc 16be 6d1f 4d3e 5af7 b13d 7f72 273c
000000a0: d5b9 8dbd 288e 933c 3352 dbbd 227c 8abc
000000b0: 028a 0bbe 4d1a 21be 3809 213e 5866 6a3c
000000c0: 4ea7 b2be ad9f 7a3e dead 3c3d 9b6c 50be
000000d0: f83c 1dbd 1216 81be 88d1 a23e ca31 10bd
000000e0: 10af ed3d f240 9dbd 4fab 3bbe ce86 123e
000000f0: 88b6 81bc 4cdb 333c ebf9 1cbd a8d3 cebd
00000100: 7b10 203f 4ab1 dfbd a0b3 0fbf 43d8 6abd
00000110: 1ba9 2b3c 859f 63bd 6f8f 143f a478 153f
00000120: 3bb6 b3bd 3748 4bbe 501a e3be 85d0 f5be
00000130: 061f 93bd c7c9 fc3d f3a2 88be 463f 813c
00000140: fd54 a8be 4d3e 0a3d 4e67 cbbd 4656 8abe
00000150: e3b5 96be d8f2 bcbd 8c88 d83d 934b 773e
00000160: 262b 6ebd 07e5 e83e 594b 893e 0a3b 853d
00000170: aa46 af3d 6ff4 9b3e ba70 dc39 4eed aa3d
00000180: aa05 b33e bde1 b6be bd22 c1bd f379 0ebe
00000190: 59fb 9abe e38b 503d 2180 a6bd e76e 7ebe
000001a0: ae0d 0f3e 3daf 3e3c ad3f 8e3e fdef 8fbe
000001b0: a2f7 59be 46d1 9e3d 4e29 95bd 19ab 203e
000001c0: df21 14bf 8b19 a1be 69e2 31be 3574 2abe
000001d0: 969e 6f3c 6fff c13c 7fae 323e a153 803e
000001e0: de4f 3f3e 5fbd 303e e1e2 babe 7931 1dbf
000001f0: 62d0 bdbe 9aee a03e 3772 463d c14c 463e
00000200: d58f 45be 6a5c 8e3e bdb4 09be 7a5a 6b3d
00000210: 1bd6 65bc 088d a23d a7e5 083e 7114 ac3a
00000220: 6923 53be 5707 683d 1709 e13c 641d f53e
00000230: aa59 473e b4fc 9e3e 0c41 8a3d 672b 8bbc
00000240: 203b 7b3d cb29 763c 0f73 6c3e 9f2a 313e
00000250: 9944 31be 2958 ecbd 7e9f 8ebe a965 14be
00000260: daf0 8d3e 98b3 d3bd b1de 9bbe 08c4 91be
00000270: a795 a7be 698b 23be ba5c 933c 7c92 4a3d
00000280: dbd7 a93c 2515 cd3e 49a2 c53d bb91 c03c
00000290: ad87 103e 53fd c43e 3f03 833e 0251 ab3e
000002a0: de09 eabb 9b5d 48bd 22f4 0bbe 71dc 473e
000002b0: 7a56 9dbe 0798 07be 5982 433e 3afe de3d
000002c0: 343e 9d3d 6bbf b23e cd60 b2be 231d b73d
000002d0: c139 bd3e 7a95 ac3b 8233 443e 09d2 c23d
000002e0: 339a cb3d 5749 0cbe 988e 90be 27a4 263d
000002f0: d745 e7bc 9d7e 2e3e 6255 023e 9563 223e
00000300: 18bc debc 1741 cfbd 951a 0fbf c67e 31bd
00000310: 2306 33be a0ec 2abe 50c9 bc3e 43da 873e
00000320: b849 0e3e 1e8c 10be cdc7 f7bd e2f8 7dbe
00000330: b8b2 e83c 8dcf 053e b65d 49be 9341 b63d
00000340: 38ca e1bd e877 3dbc c219 c1bd ac7f 6a3d
00000350: f97b 54be 2ccc 2bbd b2de 443c 82f6 4db9
00000360: 1742 71be 8193 213e 97ee bcbd 183c c43d
00000370: 2ecd 5d3d 8869 253e f40f a3bd 59d8 fa3d
00000380: f67a c23e 6152 54bd ce4f 2abe 7d31 85be
00000390: 6a71 ddbd 7abb 4dbc 7661 0cbe 0cee 47be
000003a0: 6b9f 39bd 2aa9 a33d 7ad6 373e 7d13 d7be
000003b0: bdf4 51be 3387 8b3d 6f1d 7abe 7718 7a3e
000003c0: 2595 b7be d823 56be 3a33 8ebe a869 1d3e
000003d0: 0af2 00be dc0d 003e c70e a53e dfb0 a33e
000003e0: 45fb dd3d d00c 4f3d 0db4 96be 7fd9 19be
000003f0: 75d1 82be 7dc8 253e 46fe 833e 118b 9fbc
0.16461961 -0.0048915497 -0.121755086 -0.10693944 -0.07833321 0.10671412 -0.069788896 0.24007389
-0.12304751 -0.15567029 -0.3321884 -0.082147524 -0.08373582 0.2748287 0.076589234 0.14311364
0.11559809 -0.13895096 0.21360457 -0.08360839 -0.028184911 0.09559571 -0.1431711 0.17981663
-0.032255653 0.05823462 -0.23435286 0.056111686 -0.36296138 0.1264023 -0.13215567 -0.10966354
-0.010519243 0.26323998 0.08910182 -0.27664438 -0.14744908 0.20031519 0.08689757 0.010220169
-0.0692021 0.018012121 -0.10709038 -0.016904894 -0.13626865 -0.15732689 0.15726173 0.014306627
-0.34893268 0.24474974 0.04606425 -0.2035393 -0.038388222 -0.2521215 0.31800485 -0.035203733
0.11605656 -0.07678403 -0.18327068 0.14309236 -0.015834108 0.010977577 -0.038324278 -0.10098964
0.6252515 -0.10922487 -0.5613346 -0.05733515 0.01047733 -0.05557205 0.5803136 0.5838721
-0.08774992 -0.19851767 -0.44356012 -0.4801065 -0.071836516 0.123431735 -0.2668682 0.015777241
-0.3287734 0.03375082 -0.09931813 -0.27018946 -0.29435644 -0.09226006 0.10572919 0.24149923
-0.05814662 0.45487234 0.26815298 0.065054014 0.085584 0.30459926 0.00042045658 0.083460435
0.3496526 -0.357191 -0.09430454 -0.13913707 -0.30269888 0.050914656 -0.081299074 -0.24846993
0.13970062 0.01163846 0.27782956 -0.28112784 -0.2128587 0.077547595 -0.07283269 0.15690269
-0.57864183 -0.314648 -0.17371525 -0.16645892 0.014625212 0.02368137 0.17449377 0.25063804
0.1868281 0.1725974 -0.3650122 -0.61403614 -0.37073046 0.3143204 0.048448768 0.19365217
-0.19293149 0.2780488 -0.13447852 0.057459332 -0.0140280975 0.07937056 0.13368855 0.0013128651
-0.20618977 0.056647625 0.027470155 0.47873986 0.19467798 0.31052172 0.06750688 -0.01698847
0.061335683 0.015024613 0.23090766 0.17301415 -0.17311324 -0.11540253 -0.27856058 -0.14491905
0.27722818 -0.10336989 -0.30443338 -0.28469872 -0.32731363 -0.1597115 0.017988551 0.049456105
0.02073281 0.40055194 0.09650094 0.02350699 0.14114256 0.3847452 0.25588414 0.33460242
-0.0071422895 -0.048917394 -0.13667348 0.19517685 -0.3073004 -0.13241588 0.19092692 0.108883336
0.0767788 0.34911665 -0.34839478 0.08941104 0.36958125 0.0052668424 0.19160274 0.09512717
0.099415205 -0.13699852 -0.2823379 0.04068389 -0.028231544 0.17040487 0.12727883 0.158583
-0.0271893 -0.10119837 -0.55899936 -0.04333379 -0.1748281 -0.16691828 0.3687234 0.26533708
0.13895309 -0.1411595 -0.12098656 -0.24801973 0.028405532 0.13067456 -0.19664654 0.08899226
-0.11024898 -0.011564232 -0.09428741 0.057250664 -0.20750417 -0.04194276 0.012015985 -0.00019642155
-0.23560368 0.15778925 -0.09225195 0.095817745 0.054150753 0.16153538 -0.07962027 0.12248296
0.37984437 -0.051836375 -0.16632006 -0.2601432 -0.10812648 -0.012556905 -0.13709053 -0.19524401
-0.04531805 0.0799125 0.1795291 -0.42007056 -0.20503516 0.068128966 -0.2442529 0.24423395
-0.35855976 -0.20912111 -0.27773458 0.15372336 -0.1259233 0.12505287 0.32237837 0.3197088
0.108389415 0.05054933 -0.29434243 -0.15024374 -0.25550428 0.16189761 0.25779933 -0.019475492

bias f4 [64]
00000000: bc1c 6a3d a82e 873e fa52 85bd dcad ff3d
00000010: e8b1 27be eb40 803c d15a 83be 6732 803e
00000020: 675c 803c 0cbc 71bd 597a 903e 4d3c 7a3e
00000030: 92bd cdbd ef75 a6be ed40 c1bd 7f62 803e
00000040: add4 2f3e 66e8 a9bd ca5e 0ebe 43df ba3c
00000050: 8df3 11bc 030b 87bc 8db9 bbbd d200 94bd
00000060: d09a 31be 0c86 6a3d 429a 7fbe 1f8c 053e
00000070: 628d b33c a8fa 653e 171c 5d3e 09cb 68be
00000080: 2a39 debd c35f 4ebe 6a6b 943e 1395 663e
00000090: 3fe4 cebd 03ce 19be 9752 843e a758 88be
000000a0: a405 c63c fe62 89be 9380 cb3c 3aa8 9fbc
000000b0: 44ee 9cba 67de 41bd 1c24 143e 0f28 01be
000000c0: 1c44 35be df73 913d 8e47 c73d 2dd6 9fbd
000000d0: b43b f93d 05ea 31bd 4e1c 9abe ecde 183e
000000e0: 7d60 7f3e c71e 75be 0ecb 88be a4cd c83d
000000f0: afc7 30be 3eb6 f7bd 6059 22be e1d0 63be
0.05715631 0.26402783 -0.06509967 0.12484333 -0.1637646 0.015655955 -0.25655225 0.25038454
0.01566906 -0.059017226 0.28218344 0.24437065 -0.10045923 -0.3251185 -0.09436212 0.25075147
0.17170973 -0.082962796 -0.13903347 0.022811538 -0.008908165 -0.016484743 -0.091662504 -0.07226719
-0.17344213 0.057256743 -0.24961188 0.13041733 0.021918003 0.22458899 0.21592747 -0.22733702
-0.10850747 -0.20153718 0.289882 0.22517805 -0.10102128 -0.15019993 0.2584426 -0.26630136
0.024172612 -0.26833338 0.024841582 -0.019489396 -0.0011972864 -0.04733124 0.144669 -0.12612937
-0.17701763 0.07102179 0.09730445 -0.07804523 0.121695906 -0.04343607 -0.3009972 0.14928788
0.24939151 -0.23937522 -0.26717418 0.09804848 -0.17263673 -0.12095307 -0.15854406 -0.2224765

weight f4 [3, 64]
00000000: c67b 93be 58ea 57be e632 5b3e e234 6d3d
00000010: f8a9 b93e a16f a7be 4e8f b73e 5fe0 a83e
00000020: 90e9 8bbe 7452 9ebe 9dbc 91be 55aa bcbd
00000030: 6039 05be b252 b4be 911d a6be 795a 43bc
00000040: 1e65 06bc b80d 40bd 0c43 c53d e123 72be
00000050: d69c fabe 5554 cfbc cdd5 1b3d 51f6 80be
00000060: 5a16 9c3e 64b1 88be 7f42 74bb f5ed d0bd
00000070: 0b45 74be feaf 553d 2ad6 38be c0d4 193e
00000080: 38e4 be3b 6fac dcbe 19b6 b93e fa00 2d3e
00000090: decd 9cbb 124b 82be c5ca debc 980f d33d
000000a0: 41e2 aebe c2f9 adbe 5070 86be a47a c43a
000000b0: b9ce 6b3e 7648 f8bc b8fa 9dbe 6591 bfbd
000000c0: f8df 00bd 2aca 203e c03e 83bd b463 c5be
000000d0: 85a7 7bbe a951 03be c27f 473e fec9 1a3e
000000e0: b78e 80be 321b 703e 6bcd 9fbe cd86 05be
000000f0: f016 25be d4bd 973e 7085 62be 396d 5ebd
00000100: 4cf9 b1bd 0c7c 223e 48ef 24bd 881a 48bd
00000110: 501a 803a 2e63 b1bc 95cf 3abe 7d30 95bd
00000120: d5f3 623d a316 6fbd 0f1b 62be dedf d63d
00000130: c4f1 493e 757d efbb 01be 62bd 0d98 4ebe
00000140: 5d4b 91bc 5731 6e3d 5aec 82bd 3061 023e
00000150: fb23 fd3d b8dc 823e 50b6 a0bb 16db 213c
00000160: 9362 3c3e fd27 82bd 9b6a 68bd da96 1f3e
00000170: 0121 73be 4ee0 adbd af96 be3d 7bc4 bb3d
00000180: 4917 c43d c8e8 6cbe e90e 6cbe bcb2 b63d
00000190: 4c17 33bc 9eac cdbd 7033 303e 69d5 98bd
000001a0: 044b f73d a60c 853d 5bc9 9a3c 197f 003d
000001b0: 4cb6 15be 4aa1 6c3d e7c4 2ebc 727e c4bc
000001c0: 6df3 0ebd 44f4 37bd a24d ed3d 6aef 833c
000001d0: 6091 be3d f975 b83d 5583 893d 73b8 743d
000001e0: 82d0 9d3d e024 9d3d 694a 773e c241 92bd
000001f0: 2dbb 1c3a 40d2 463e 7808 4bbd 83ca 363b
00000200: 899e b33e 7bcd e83e aba4 ce3e 89aa b23e
00000210: 5820 fe3e c01c a93d d3cd 12bf 5ac7 bc3e
00000220: a6a1 06be 1acd bfbe 10bb e43e d98d de3e
00000230: a8ef b13d e901 05bf 3514 0abe 2ff0 923e
00000240: 3c7f e93e 071c e7be 3c5b d6be ccaf 573e
00000250: ceea 4dbe d675 37bd 8707 75be dc49 063f
00000260: 48e8 c6be 70a1 b7bd 3f3e d6be 2e9f d63e
00000270: 55dc 9b3b a886 0b3f fc1e 15bf ff0f 033f
00000280: 93a0 c13e e885 803e f8ac 20bf 6e73 f1be
00000290: ff09 9bbe afaa 0c3f 48d3 17bf 2da4 013f
000002a0: f9f6 e9bb 0d59 03bf dcec 0a3e 0f25 86be
000002b0: 21bf b6bd e192 87be c4d5 a53e 35c0 953e
000002c0: 4666 febe 084e 983d de37 023f 3044 85be
000002d0: c8f7 0dbf e07e 953e c723 e63e 07ac bbbe
000002e0: 39c6 e5be aed9 873e 8bb1 243f e377 bcbe
000002f0: fa16 cabe c6d2 373e 8da9 083f 66d6 ba3e
-0.2880537 -0.21085489 0.21406135 0.05791176 0.36262488 -0.32702354 0.3585152 0.32983682
-0.27326632 -0.30922282 -0.28464213 -0.09212176 -0.13010168 -0.35219342 -0.32444432 -0.011923426
-0.008202819 -0.046888083 0.09631929 -0.23646499 -0.4894778 -0.025308767 0.038045693 -0.25187925
0.30485803 -0.26697838 -0.003727108 -0.10201637 -0.23854463 0.052169792 -0.18050447 0.15022564
0.0058255456 -0.43100306 0.36271742 0.16894904 -0.0047852835 -0.254479 -0.027196297 0.10305709
-0.34156993 -0.33979613 -0.26257563 0.0014990163 0.23028077 -0.03030799 -0.30855346 -0.09353904
-0.031463593 0.1570212 -0.06408453 -0.3855263 -0.24575622 -0.1282412 0.1948233 0.15116116
-0.25108883 0.23447874 -0.3121141 -0.13039704 -0.16122031 0.29637015 -0.22121215 -0.05430338
-0.08690128 0.15867633 -0.04026726 -0.048853427 0.0009773467 -0.021653738 -0.18243249 -0.07284639
0.055408318 -0.058371197 -0.22080635 0.10491918 0.19721133 -0.007308657 -0.055356983 -0.2017519
-0.017736131 0.058152523 -0.06392737 0.12732387 0.12360378 0.2555902 -0.004904546 0.009878894
0.18396978 -0.063552834 -0.056742292 0.15584889 -0.23743059 -0.08490048 0.09306084 0.09168335
0.09574754 -0.23135674 -0.23052563 0.089208096 -0.010930847 -0.1004269 0.17207122 -0.0746258
0.12074855 0.06496553 0.018894842 0.03137121 -0.14620322 0.057771005 -0.010667062 -0.023986075
-0.034900118 -0.044910684 0.11587073 0.016105372 0.09305072 0.090068765 0.06714503 0.059746217
0.07705785 0.07673049 0.24149479 -0.071414486 0.0005978819 0.19416142 -0.049568623 0.0027891702
0.3508189 0.4546927 0.40360007 0.34895733 0.4963405 0.08257437 -0.5734531 0.36870843
-0.13147601 -0.37461168 0.44673967 0.43467596 0.08688289 -0.5195604 -0.13484271 0.2869887
0.45604885 -0.4513857 -0.4186648 0.21063155 -0.20109102 -0.04479011 -0.23928653 0.5245645
-0.38849092 -0.08966339 -0.41844365 0.4191832 0.0047564902 0.54502344 -0.58250403 0.51196283
0.3781782 0.25102162 -0.6276393 -0.47158378 -0.30281064 0.5494794 -0.59306765 0.5064114
-0.007140037 -0.51307756 0.13566917 -0.26200148 -0.08923174 -0.26479247 0.32389653 0.29248205
-0.49687403 0.07436758 0.50866497 -0.26028585 -0.5545621 0.2919836 0.4494917 -0.36654684
-0.44877794 0.26533264 0.6433341 -0.36810216 -0.39470655 0.17951497 0.53383714 0.36491698

bias f4 [3]
00000000: 3c0b 3e3d 052d 533c cabd 74bd
0.046397433 0.012889151 -0.05975131
