trained_bsde_model_lq/d3_z_net_1.pth (torch, 21817 bytes, 6 tensors)

fc_in.weight f4 [64, 4]
0.50285834 0.0072749523 -0.006107364 -0.08506802 -0.72470415 0.09524111 0.0065046726 0.041992422
-0.1772443 0.12560631 0.18732885 0.083460346 -1.0341291 -0.0012157161 0.014328502 0.015079543
-0.14240326 -0.13241026 0.01163632 0.080972396 1.1423779 0.022793708 -0.009104126 -0.017908927
-0.64615685 0.009285816 0.009130737 -0.056679577 0.08708589 -0.051009096 0.0135496 -0.122978136
-0.64389414 -0.009233426 -0.046010684 0.085536644 0.7867444 0.027718816 0.00077383727 -0.037566602
-0.6942723 0.016649075 0.0908107 -0.05661088 -0.014111721 0.055243347 0.003332362 -0.08754099
0.8584482 0.0029865028 0.0021005226 0.048162382 0.06323337 0.029611478 0.046044014 0.11658831
0.06305911 -0.02388857 -0.0056832526 0.08382668 -0.43212983 -0.12101036 -0.030507233 -0.07045151
-0.09495652 -0.019934505 0.073774554 -0.19011551 0.28626242 0.034635816 -0.030953063 0.095230475
-0.10238173 -0.20836279 -0.03136201 0.012233881 -0.59606725 0.00847268 0.0068314965 0.09067794
-0.07905375 0.07004303 -0.14561495 0.1577619 0.80421644 -0.092399344 -0.007864765 0.028714677
0.2110577 0.0007839411 0.012456744 0.09366965 -0.36599967 -0.023826342 -0.016500942 0.11195799
0.19988766 -0.0032929757 -0.0030869802 -0.092952885 -0.5691557 0.0059969486 -0.005150246 -0.07615096
0.19978921 -0.015558186 -0.0045123934 0.080786705 0.23406102 -0.051675864 -0.03611251 -0.112636946
-0.19338153 0.076926395 -0.016768308 -0.14934196 0.51571566 0.28942785 -0.17049444 -0.021399392
-0.40873477 0.011774562 0.022399485 0.08224294 0.7956001 0.0020250303 0.00021066249 0.054861497
0.033703245 0.09981898 -0.0413732 -0.26488408 0.20025551 -0.12350011 -0.045112424 -0.16537839
-0.3962984 -0.010441231 0.013825815 0.1164743 -0.1565393 -0.12776783 -0.006210053 0.012886126
0.0068809893 -0.18000232 -0.0142230755 0.042241435 0.36513603 -0.009453651 0.016286802 0.09765463
-0.072963305 -0.033366594 0.004278492 0.11451751 0.3362948 -0.053161666 -0.008156303 0.07802623
-0.103559405 -0.10368886 0.13719603 0.091237515 0.6659418 0.009129894 -0.0011645651 0.071673006
0.23343047 0.021224342 -0.038898602 0.12804075 0.9886484 -0.018042043 0.00816548 -0.005189226
0.2037145 0.15623179 -0.045101367 0.058040615 0.18063727 -0.08245598 -0.017242968 0.0903396
0.17969331 0.031908907 -0.020623373 -0.100319155 -0.79841167 0.11417112 -0.017189473 0.00045937317
0.2228107 0.11862335 0.023998696 0.060522288 0.30939198 0.07710387 -0.07287155 0.18072076
-0.89130884 -0.0044404278 0.012980685 0.04589456 -0.92075485 -0.06244987 -0.014660358 0.0062713316
0.024392415 0.14053522 0.03138019 -0.094076835 0.1992755 0.022897946 0.15671247 0.009545681
-0.7038351 -0.0655241 0.0034117536 0.032713097 -0.5300337 -0.031099044 0.009237737 -0.0468621
0.1429931 -0.042066142 0.06959821 -0.13612361 0.2475697 -0.017123234 0.08312588 0.0806509
0.1118019 -0.0131366635 -0.006535098 0.08892429 0.35716087 0.015913067 0.06761162 0.11898398
0.60396796 0.0008910052 0.0061508925 0.08898378 -0.93446887 0.01911967 -0.02874576 0.032823227
-0.3441546 -0.024047224 0.0016094223 -0.084328234 -0.4634721 0.016177183 0.018502137 -0.042792354
00000000: 53bb 003f b962 ee3b 4820 c8bb 2438 aebd
00000010: 3686 39bf c50d c33d 2625 d53b 3f00 2c3d
00000020: 887f 35be f19e 003e 22d3 3f3e 42ed aa3d
00000030: 585e 84bf aa58 9fba 18c2 6a3c 3010 773c
00000040: 29d2 11be 8e96 07be 43a6 3e3c dbd4 a53d
00000050: 7039 923f dfb9 ba3c 7929 15bc beb5 92bc
00000060: 896a 25bf 8923 183c 1699 153c d828 68bd
00000070: 165a b23d eaee 50bd 24ff 5d3c f6db fbbd
00000080: 3fd6 24bf cc47 17bc b375 3cbd d62d af3d
00000090: 1568 493f 9212 e33c 57db 4a3a 70df 19bd
000000a0: d4bb 31bf a463 883c f6fa b93d cfe0 67bd
000000b0: d934 67bc d946 623d c263 5a3b b148 b3bd
000000c0: 43c3 5b3f 34b9 433b eca8 093b eb45 453d
000000d0: 7f80 813d c593 f23c a698 3c3d dac5 ee3d
000000e0: 2225 813d f6b1 c3bc 943a babb 53ad ab3d
000000f0: 1f40 ddbe 48d4 f7bd 4eea f9bc e248 90bd
00000100: 9078 c2bd b04d a3bc 1d17 973d a4ad 42be
00000110: fd90 923e 49de 0d3d 4791 fdbc 3208 c33d
00000120: 83ad d1bd 0e5d 55be 7375 00bd 9e70 483c
00000130: dd97 18bf ffd0 0a3c bfda df3b 5bb5 b93d
00000140: efe6 a1bd b872 8f3d 161c 15be 568c 213e
00000150: 21e1 4d3f de3b bdbd 37db 00bc 0b3b eb3c
00000160: 821f 583e 6681 4d3a 5f17 4c3c e0d5 bf3d
00000170: 4f64 bbbe 762f c3bc fc2c 87bc 3b4a e53d
00000180: 5aaf 4c3e f7ce 57bb ef4e 4abb 155e bebd
00000190: 30b4 11bf 0d82 c43b 65c3 a8bb 09f5 9bbd
000001a0: 8b95 4c3e c3e7 7ebc b3dc 93bb 8073 a53d
000001b0: b1ad 6f3e 12aa 53bd b6ea 13bd 33ae e6bd
000001c0: cf05 46be 968b 9d3d b15d 89bc 19ed 18be
000001d0: f105 043f e32f 943e 1896 2ebe c74d afbc
000001e0: af45 d1be 18ea 403c 207f b73c fd6e a83d
000001f0: 73ac 4b3f 5fb6 043b 48e5 5c39 73b6 603d
00000200: 6a0c 0a3d e56d cc3d f276 29bd e39e 87be
00000210: c80f 4d3e a0ed fcbd cec7 38bd f458 29be
00000220: a0e7 cabe b211 2bbc ac85 623c 148a ee3d
00000230: d74b 20be 92d5 02be b37d cbbb 5420 533c
00000240: ec79 e13b 8752 38be e707 69bc 5b05 2d3d
00000250: 1cf3 ba3e 7ce3 1abc e66b 853c 27ff c73d
00000260: c96d 95bd 69ab 08bd 9832 8c3b 2888 ea3d
00000270: d52e ac3e 0cc0 59bd 04a2 05bc 37cc 9f3d
00000280: f416 d4bd d35a d4bd 1e7d 0c3e bcda ba3d
00000290: 297b 2a3f 8d95 153c 52a4 98ba 4cc9 923d
000002a0: 6608 6f3e acde ad3c 2454 1fbd 1d1d 033e
000002b0: 1018 7d3f e8cc 93bc 81c8 053c 620a aabb
000002c0: 899a 503e 3afb 1f3e 36bc 38bd ffbb 6d3d
000002d0: faf8 383e aede a8bd 2041 8dbc f803 b93d
000002e0: 8601 383e eab2 023d 59f2 a8bc 2174 cdbd
000002f0: b564 4cbf 8cd2 e93d f0d0 8cbc 06d8 f039
00000300: 7d28 643e cdf0 f23d ea98 c43c 38e6 773d
00000310: a068 9e3e a2e8 9d3d ae3d 95bd dd0e 393e
00000320: d12c 64bf 0281 91bb f0ac 543c effb 3b3d
00000330: 97b6 6bbf 6fcb 7fbd 0032 70bc be7f cd3b
00000340: 9ad2 c73c 77e8 0f3e 8488 003d 5bab c0bd
00000350: e00e 4c3e 7994 bb3c 3c79 203e 7d65 1c3c
00000360: 8a2e 34bf 8031 86bd ba97 5f3b 2bfe 053d
00000370: 4ab0 07bf 6cc3 febc e159 173c 79f2 3fbd
00000380: c96c 123e 8c4d 2cbd 8289 8e3d fd63 0bbe
00000390: e982 7d3e 0646 8cbc e73d aa3d 4d2c a53d
000003a0: 65f8 e43d 293b 57bc 6024 d6bb f01d b63d
000003b0: cadd b63e 1f5c 823c f677 8a3d dfad f33d
000003c0: a59d 1a3f 5992 693a 6d8d c93b 213d b63d
000003d0: 5a39 6fbf dba0 9c3c 3a7c ebbc a671 063d
000003e0: 0835 b0be affe c4bc 40f3 d23a 48b4 acbd
000003f0: 374c edbe 0386 843c cb91 973c 0947 2fbd

fc_in.bias f4 [64]
-0.54862016 0.90606076 0.5927945 0.6903439 0.94516724 -0.9330686 0.6364875 -0.15478708
0.88113976 -0.5853262 0.89805067 -0.03923197 -0.77893484 -0.3767518 -0.036934618 0.724116
0.13340187 -0.31590974 -1.2046293 0.781376 -0.80110437 -0.5549891 -0.21249384 0.57199496
-0.18965764 0.66618806 -0.3539644 -0.7374699 0.35561946 0.13802047 0.5213856 -0.78156906
0.03387522 -0.39014944 0.87386554 0.35227314 -0.5770986 -0.4291128 0.6051722 -0.39588562
0.76293236 -0.77021086 -0.63878924 -0.6468551 -0.89697963 -0.0825353 -0.34917212 0.91774386
-0.61093205 0.21427271 0.7390307 0.8359213 -0.61078 -0.60112524 0.27921498 0.45668042
-0.54935056 -0.56173056 -0.3041371 -0.6734601 -0.825051 0.76843935 0.5253719 0.39625487
00000000: 5f72 0cbf 99f3 673f 61c1 173f 61ba 303f
00000010: 7bf6 713f 95dd 6ebf d8f0 223f 8180 1ebe
00000020: 6092 613f f0d7 15bf a6e6 653f b4b1 20bd
00000030: 4668 47bf 9de5 c0be c148 17bd ab5f 393f
00000040: 809a 083e ecbe a1be 4b31 9abf 4208 483f
00000050: 2d15 4dbf c413 0ebf fc97 59be 436e 123f
00000060: 9d35 42be 4d8b 2a3f d23a b5be d4ca 3cbf
00000070: c113 b63e 3d55 0d3e 8779 053f e914 48bf
00000080: bec0 0a3d abc1 c7be a7b5 5f3f 255d b43e
00000090: bcbc 13bf acb4 dbbe 91ec 1a3f 85b1 cabe
000000a0: 894f 433f 8a2c 45bf b187 23bf 4c98 25bf
000000b0: 75a0 65bf 4408 a9bd b0c6 b2be 43f1 6a3f
000000c0: 0b66 1cbf 4e6a 5b3e 1e31 3d3f f0fe 553f
000000d0: 145c 1cbf 58e3 19bf 44f5 8e3e 04d2 e93e
000000e0: 3da2 0cbf 93cd 0fbf dcb7 9bbe e267 2cbf
000000f0: 8b36 53bf 71b8 443f c67e 063f ebe1 ca3e

layers.0.weight f4 [64, 64]
0.2611984 -0.22282974 -0.1691402 -0.3733203 -0.45114386 0.41964197 -0.1923376 0.03223991
-0.6674343 0.37349653 -0.19096291 -0.07979007 0.082088724 0.12832889 0.10939731 -0.13684568
0.076391116 0.0036224583 0.4074091 -0.4484679 0.22103363 0.298875 -0.12477014 -0.30904862
-0.0465739 -0.12596516 -0.07947544 0.3693466 -0.19454682 0.0930537 -0.14730917 0.15418062
0.11981976 -0.14870971 -0.6099902 0.14522521 0.21776836 -0.17514773 -0.09544172 0.018618992
0.009434148 -0.015280583 -0.05655446 0.42996484 0.34911278 -0.09193006 0.2962234 -0.27138868
-0.0067254915 -0.068271175 -0.8296482 -0.38743362 0.1907336 0.033160765 -0.042395238 -0.09573351
0.2939975 0.18886502 -0.053870037 0.13973755 0.071488686 -0.6279037 0.13576128 -0.0039710496
-0.18556653 0.30964056 -0.08366109 -0.103678964 0.05951882 0.31566778 0.14652885 -0.22650178
-0.074070014 0.14507443 -0.06914452 0.018875249 0.2943627 -0.047891777 0.1350104 -0.54009324
-0.013709282 0.13501833 0.010973481 0.30071583 0.046183694 -0.03873604 0.20456277 -0.17341284
-0.0042787525 -0.27616936 -0.07764534 -0.03202683 -0.14997588 0.07323226 -0.09947726 0.19263406
-0.062188573 -0.27067414 0.117410235 -0.20633069 -0.1429308 0.31827357 0.1062064 -0.18078876
-0.2112005 0.27863812 0.16653383 -0.14459863 0.12843652 0.12829693 -0.036681894 -0.20767199
0.41161266 0.2819262 0.13556626 -0.343512 -0.033891067 0.07115716 -0.2156655 -0.07884182
0.10002726 -0.079900585 -0.0523127 0.18652663 0.31352836 0.14027587 -0.26567784 -0.021715274
0.16909225 -0.28824672 -0.18118325 -0.12429523 -0.13083611 0.36566907 -0.29452327 0.1437987
-0.22065143 0.17647977 -0.41828868 0.053241424 0.5117794 -0.043945957 0.21039948 -0.15345417
-0.23245262 0.19840467 0.23166835 0.031406797 0.05479393 0.2881242 0.21726024 0.18803704
-0.1659679 -0.39009 0.16754323 0.21427782 -0.17416942 0.1715845 0.15491495 0.48691365
0.15901804 0.27206168 -0.064022645 -0.08239997 0.258861 0.22151262 0.025694782 0.030476145
-0.20242132 0.56472045 0.25795934 0.22344571 0.3374099 0.25621495 0.09896557 -0.5798811
0.20489696 -0.14573893 -0.17273483 -0.27676192 0.08676448 0.25544852 -0.17467119 -0.02614623
-0.08148138 0.40592542 0.08623784 0.04126069 0.34605747 -0.27796254 -0.09888098 -0.22023869
-0.01615951 0.040359143 -0.09186174 -0.11522647 -0.22345087 0.45393243 -0.1794488 0.017374257
-0.15278542 0.12828474 -0.24448808 -0.0049280147 0.33496007 0.07458945 0.004059775 -0.11363176
0.018005447 0.21704459 0.20234245 0.014025915 0.038048096 -0.21071345 0.15882155 0.0017729034
-0.27467898 -0.41972432 0.22323036 0.04871613 -0.051252358 -0.22534904 0.09045311 0.19906177
0.07693787 -0.07211801 -0.16104023 -0.19011037 -0.12531641 0.12938502 0.014874655 0.16420545
0.10369164 0.3894231 0.2624522 0.53041655 0.19715723 0.041174665 0.099128745 -0.24618824
0.19562046 -0.033790987 -0.32189283 -0.5253079 0.08515732 -0.038673516 -0.23060954 -0.3782803
0.06933141 0.4328897 -0.07479908 0.15417321 0.3668463 -0.17166612 -0.110967375 -0.084105596
00000000: ccbb 853e 7b2d 64be 1733 2dbe d723 bfbe
00000010: 54fc e6be 50db d63e 26f4 44be ff0d 043d
00000020: f9dc 2abf f03a bf3e c88b 43be fa68 a3bd
00000030: 221e a83d a668 033e b20b e03d 4621 0cbe
00000040: f272 9c3d c466 6d3b ed97 d03e 969d e5be
00000050: a456 623e 2506 993e 7d87 ffbd 9f3b 9ebe
00000060: 46c4 3ebd 03fd 00be 05c4 a2bd ff1a bd3e
00000070: 4837 47be f092 be3d 37d8 16be 86e1 1d3e
00000080: 1064 f53d 5c47 18be 5128 1cbf ebb5 143e
00000090: abfe 5e3e ed59 33be f376 c3bd db86 983c
000000a0: af91 1a3c 695b 7abc a6a5 67bd 5a24 dc3e
000000b0: e9be b23e d445 bcbd 98aa 973e 75f3 8abe
000000c0: 8361 dcbb c2d1 8bbd d363 54bf b35d c6be
000000d0: ab4f 433e 95d3 073d a1a6 2dbd ee0f c4bd
000000e0: d786 963e d565 413e d4a6 5cbd 5c17 0f3e
000000f0: a968 923d 4cbe 20bf 0105 0b3e 941f 82bb
00000100: 2705 3ebe 3589 9e3e 8156 abbd a355 d4bd
00000110: 02ca 733d 359f a13e a90b 163e 15f0 67be
00000120: 05b2 97bd 648e 143e a49b 8dbd 44a0 9a3c
00000130: b5b6 963e 2b2a 44bd 2b40 0a3e 8d43 0abf
00000140: e59c 60bc 3f42 0a3e 1eca 333c 6df7 993e
00000150: 1d2b 3d3d afa9 1ebd e778 513e 2393 31be
00000160: c734 8cbb 1266 8dbe 8504 9fbd 912e 03bd
00000170: 4793 19be ccfa 953d bcba cbbd dd41 453e
00000180: 72b9 7ebd cd95 8abe c774 f03d 5a48 53be
00000190: 745c 12be c1f4 a23e be82 d93d b020 39be
000001a0: f244 58be a8a9 8e3e d887 2a3e aa11 14be
000001b0: dd84 033e 4560 033e c13f 16bd f7a7 54be
000001c0: e5be d23e a258 903e e2d1 0a3e cee0 afbe
000001d0: 5cd1 0abd d8ba 913d 6bd7 5cbe d277 a1bd
000001e0: 18db cc3d eba2 a3bd d745 56bd d600 3f3e
000001f0: ca86 a03e 7aa4 0f3e ed06 88be 3be4 b1bc
00000200: 8526 2d3e 1395 93be 1a88 39be 7f8e febd
00000210: e7f9 05be fa38 bb3e c1cb 96be f73f 133e
00000220: 73f2 61be 1db7 343e ef29 d6be ae13 5a3d
00000230: fa03 033f ad00 34bd f672 573e 1723 1dbe
00000240: 0f08 6ebe 982a 4b3e 783a 6d3e 6aa4 003d
00000250: 9a6f 603d 0485 933e 7879 5e3e c88c 403e
00000260: 7df3 29be e0b9 c7be 7490 2b3e a56b 5b3e
00000270: 7859 32be d9b3 2f3e 06a2 1e3e bf4c f93e
00000280: a0d5 223e ab4b 8b3e 4e1e 83bd 51c1 a8bd
00000290: 6e89 843e 34d4 623e dd7d d23c 1ca9 f93c
000002a0: 8947 4fbe 8591 103f 3f13 843e f4ce 643e
000002b0: fec0 ac3e 9b2e 833e 76ae ca3d 1673 14bf
000002c0: 82d0 513e 963c 15be 66e1 30be bdb3 8dbe
000002d0: 93b1 b13d 26ca 823e 01dd 32be 9e30 d6bc
000002e0: b6df a6bd 75d5 cf3e 779d b03d f800 293d
000002f0: 722e b13e 1b51 8ebe 1c82 cabd 4086 61be
00000300: f360 84bc a14f 253d 0222 bcbd dbfb ebbd
00000310: 4ed0 64be d569 e83e 6dc1 37be 7554 8e3c
00000320: c873 1cbe 135d 033e 155b 7abe 2f7b a1bb
00000330: e37f ab3e 5bc2 983d dc07 853b c5b7 e8bd
00000340: 2980 933c f040 5e3e dc32 4f3e f4cc 653c
00000350: 52d8 1b3d 44c5 57be 1ea2 223e c460 e83a
00000360: b9a2 8cbe 1be6 d6be 8096 643e 918a 473d
00000370: feed 51bd e6c1 66be 7b3f b93d d9d6 4b3e
00000380: 9a91 9d3d 9bb2 93bd bbe7 24be 4bac 42be
00000390: f252 00be 827d 043e d3b4 733c 7925 283e
000003a0: 485c d43d 7762 c73e 2260 863e 61c9 073f
000003b0: 96e3 493e c4a6 283d 0304 cb3d c518 7cbe
000003c0: bb50 483e 6b68 0abd 23cf a4be 947a 06bf
000003d0: f666 ae3d 1f68 1ebd e824 6cbe f5ad c1be
000003e0: a0fd 8d3d b8a3 dd3e 4330 99bd 95df 1d3e
000003f0: 47d3 bb3e 3ec9 2fbe dd42 e3bd 8e3f acbd

layers.0.bias f4 [64]
-0.36320272 -0.066926025 -0.05143309 -0.13063754 -0.2588519 0.33182713 0.006762549 0.16799626
0.18629473 0.23207274 -0.11103519 -0.16828471 0.07114774 -0.26558423 0.15780757 0.17772272
-0.18965001 0.18980178 0.110862985 0.10056656 0.2789085 -0.2502927 0.13420455 -0.12597984
0.12867576 0.07361448 0.2500794 -0.011034743 -0.15556386 0.18048313 -0.20305361 0.16533093
-0.025188379 -0.3551091 -0.11821038 0.09349276 -0.26228455 0.13921247 -0.023852913 0.3001346
0.0062660533 0.25010362 0.12283175 -0.33853978 -0.1361784 0.29470345 0.23113337 0.47379845
0.18401478 0.06083884 0.30204183 0.10124255 -0.08531915 -0.07919384 0.13840036 0.2247806
-0.07460755 0.1745446 -0.25249758 0.14112888 -0.14399333 -0.1634402 0.1694496 0.2816958
00000000: b5f5 b9be 8310 89bd 81ab 52bd d9c5 05be
00000010: 3c88 84be 3fe5 a93e 5f98 dd3b 3607 2c3e
00000020: 0cc4 3e3e 7aa4 6d3e 6b66 e3bd d452 2cbe
00000030: e8b5 913d a8fa 87be 4f98 213e f2fc 353e
00000040: 9d33 42be 665b 423e 220c e33d d7f5 cd3d
00000050: 18cd 8e3e 5d26 80be eb6c 093e dc00 01be
00000060: 94c3 033e 30c3 963d 680a 803e 11cb 34bc
00000070: 224c 1fbe 92d0 383e 49ed 4fbe 834c 293e
00000080: dc57 cebc dcd0 b5be 4918 f2bd 2279 bf3d
00000090: 294a 86be b78d 0e3e 2f67 c3bc 3eab 993e
000000a0: 7753 cd3b 950d 803e 368f fb3d 1655 adbe
000000b0: 5a72 0bbe 5fe3 963e 3aae 6c3e b695 f23e
000000c0: 5f6e 3c3e 2632 793d 3aa5 9a3e 4158 cf3d
000000d0: cebb aebd 6130 a2bd d3b8 0d3e e32c 663e
000000e0: d8cb 98bd d2bb 323e 5d47 81be 1784 103e
000000f0: fd72 13be de5c 27be 3284 2d3e 6f3a 903e

fc_out.weight f4 [3, 64]
-0.09552912 0.27791044 -0.18014935 0.41711077 -0.11011714 0.11403203 -0.087055795 -0.18450044
0.2857081 0.35697615 -0.6850255 0.22316936 0.32641706 0.076764464 -0.043990895 -0.23596255
-0.0017188978 -0.23804554 -0.8281868 0.1270022 0.11726715 -0.33660462 0.08910131 0.035998847
-0.021291109 0.4154047 -0.2178165 0.51120996 -0.26123363 -0.5406645 -0.2446532 0.42823964
-0.2278268 -0.34692395 -0.1044274 -0.36719233 -0.31136256 -0.37351316 -0.41109005 -0.309478
-0.30438316 -0.2528082 0.69209206 -0.110178865 0.62184304 0.27648354 -0.24759962 -0.069768816
0.30121988 -0.22005676 -0.13953798 -0.2695294 -0.5873035 0.22362481 0.47345483 0.19577922
-0.17328422 0.4393882 0.28933078 -0.13684891 0.19799879 -0.50306433 -0.04228916 0.33316275
-0.1263467 0.013307178 -0.31310293 0.13466012 -0.13668407 0.025526408 -0.112146676 -0.116822876
-0.1769227 0.107763484 0.214102 -0.038995933 -0.19773489 0.15684165 -0.07516942 0.0232293
-0.24486278 0.001971033 0.19347823 -0.21207175 -0.08934168 -0.06793222 0.10160191 0.060472645
0.016087504 0.32352585 -0.16339749 -0.27211547 -0.4021064 -0.0441145 0.08351029 0.06177805
-0.10010743 -0.22645435 0.09596776 -0.14670211 0.23323707 -0.10536613 0.22489116 0.061791014
-0.24429983 0.30640775 -0.15374552 -0.17415293 0.19998008 0.07587788 0.09123613 0.2437334
0.0753331 -0.079239905 0.24854383 0.10402092 0.24848726 -0.25060526 0.10816774 0.022789922
0.31043997 -0.12973407 0.2850495 -0.11334451 -0.03396663 -0.03419572 -0.14366773 0.1911733
-0.648151 0.30177835 0.67766064 0.5529065 0.38426763 0.52562356 0.3780254 -0.6386827
0.5859373 0.30392915 -0.047457512 -0.5090602 -0.72486585 -0.55132425 -0.67281586 0.6282779
0.4003785 -0.6545292 0.018758906 -0.63726926 0.6954958 0.5423585 -0.6225108 0.689854
-0.53845984 0.60489655 0.43727365 -0.35499942 0.29043669 -0.552665 -0.6555954 0.34699133
-0.5352676 -0.58643603 0.5400065 -0.7901194 -0.37480426 0.5957537 0.50554717 -0.45425636
0.16211024 0.7494051 -0.41046616 -0.5768765 -0.4370181 0.5421513 0.6013482 0.6645749
0.6091533 0.5516936 0.58093625 0.44237846 -0.26825184 0.5852899 -0.51167274 -0.612339
-0.60146713 -0.4172111 -0.44050688 -0.6050697 0.28458425 -0.529818 -0.62422824 -0.33941415
00000000: c5a4 c3bd 474a 8e3e 1279 38be 8b8f d53e
00000010: 1885 e1bd a089 e93d 4f4a b2bd afed 3cbe
00000020: 5548 923e 94c5 b63e d55d 2fbf 8286 643e
00000030: 2320 a73e b036 9d3d cc2f 34bd 2ba0 71be
00000040: a44c e1ba 36c2 73be 0d04 54bf dd0c 023e
00000050: c229 f03d 7157 acbe bf7a b63d 8773 133d
00000060: b16a aebc edaf d43e 4a0b 5fbe a8de 023f
00000070: 6ac0 85be fd68 0abf 5e86 7abe 3a42 db3e
00000080: 6e4b 69be 04a0 b1be 08de d5bd a200 bcbe
00000090: ea6a 9fbe 1e3d bfbe 657a d2be e773 9ebe
000000a0: 1cd8 9bbe 1470 81be f22c 313f 75a5 e1bd
000000b0: 1b31 1f3f 408f 8d3e c18a 7dbe f4e2 8ebd
000000c0: 7e39 9a3e 8f56 61be 0be3 0ebe c2ff 89be
000000d0: 8659 16bf e7fd 643e ac68 f23e 597a 483e
000000e0: 6b71 31be 7df7 e03e 2a23 943e 1f22 0cbe
000000f0: 32c0 4a3e d3c8 00bf 6637 2dbd 4f94 aa3e
00000100: 0861 01be 5a06 5a3c 074f a0be 58e4 093e
00000110: e9f6 0bbe c21c d13c 28ad e5bd d540 efbd
00000120: 392b 35be 1ab3 dc3d 8e3d 5b3e 33ba 1fbd
00000130: 047b 4abe 199b 203e 6df2 99bd 5f4b be3c
00000140: 4fbd 7abe 722c 013b 281f 463e 5629 59be
00000150: c5f8 b6bd 0c20 8bbd aa14 d03d 2ab2 773d
00000160: f1c9 833c 2ea5 a53e ac51 27be b852 8bbe
00000170: e4e0 cdbe 68b1 34bd 7107 ab3d fb0a 7d3d
00000180: 2005 cdbd a6e3 67be bf8a c43d 1439 16be
00000190: b3d5 6e3e 33ca d7bd de49 663e 9318 7d3d
000001a0: bc29 7abe 7ae1 9c3e 776f 1dbe 2555 32be
000001b0: 94c7 4c3e dd65 9b3d 02da ba3d 4095 793e
000001c0: 3e48 9a3d 8848 a2bd 4682 7e3e ec08 d53d
000001d0: 7273 7e3e 554f 80be 0c87 dd3d eeb1 ba3c
000001e0: fdf1 9e3e 02d9 04be 02f2 913e 2b21 e8bd
000001f0: 9820 0bbd d010 0cbd a21d 13be efc2 433e
00000200: 39ed 25bf b182 9a3e 2b7b 2d3f 488b 0d3f
00000210: babe c43e 448f 063f 8c8c c13e b680 23bf
00000220: fdff 153f 9a9c 9b3e cf62 42bd c551 02bf
00000230: cf90 39bf 9623 0dbf a93d 2cbf d2d6 203f
00000240: 69fe cc3e 3a8f 27bf 47ac 993c 1424 23bf
00000250: 030c 323f 02d8 0a3f de5c 1fbf 469a 303f
00000260: 81d8 09bf 80da 1a3f 55e2 df3e 7cc2 b5be
00000270: 1eb4 943e 747b 0dbf 1ad5 27bf d9a8 b13e
00000280: 4c07 09bf ac20 16bf de3d 0a3f 4445 4abf
00000290: 58e6 bfbe 5183 183f 8a6b 013f 4a94 e8be
000002a0: 3a00 263e 03d9 3f3f 9f28 d2be 2eae 13bf
000002b0: d6c0 dfbe 6dca 0a3f f5f1 193f 9521 2a3f
000002c0: 78f1 1b3f cb3b 0d3f 3db8 143f 6e7f e23e
000002d0: 4e58 89be 8fd5 153f fcfc 02bf 40c2 1cbf
000002e0: c0f9 19bf b19c d5be 1e8a e1be d9e5 1abf
000002f0: 07b5 913e 27a2 07bf 6ccd 1fbf b1c7 adbe

fc_out.bias f4 [3]
-0.07756751 0.06615715 0.07272733
00000000: b7db 9ebd 667d 873d 11f2 943d
