trained_bsde_model_lq/d5_z_net_1.pth (torch, 22841 bytes, 6 tensors)

fc_in.weight f4 [64, 6]
000000 00 c4 82 be a8 9f 89 bb 66 20 4c 3c 0f d5 18 be
       -0.2554016 -0.0041999407 0.012458896 -0.14925025
000010 5d 64 07 bd 91 da bc bc 2e 62 a9 be 61 9a 25 bb
       -0.0330547 -0.02305344 -0.33082718 -0.002526902
000020 79 69 0c 3d 31 18 a4 3d 3d 8c 7a bd 61 51 8a 3d
       0.034280274 0.08012427 -0.061168898 0.06753803
000030 00 4e 61 be 3f bb 24 3c 6b e6 05 3c 55 d7 74 bc
       -0.22002411 0.010054409 0.008172612 -0.014943917
000040 c2 e7 54 3c b0 3d 00 3e 12 40 ff be 80 8a 45 be
       0.0129947085 0.12523532 -0.4985357 -0.19291115
000050 f5 c4 b5 3c 38 6f ee 3c 3d cf 52 3d 7a 6b 05 3e
       0.022188643 0.029105768 0.05146717 0.1302928
000060 41 5f 2a 3f 5b 3c 8c bc 5c 38 5c bd cc 8b 9e 3d
       0.66551596 -0.017118623 -0.053764686 0.07741508
000070 d2 51 c2 bd 03 94 0a 3d 6d 70 37 3f 81 e7 c1 3d
       -0.09488262 0.03383256 0.71655923 0.09467984
000080 23 29 55 3d c0 9e 16 3e c9 82 d5 bc ec 0c cd bc
       0.052041184 0.14708996 -0.02606334 -0.025030576
000090 1c 8f 24 be 02 19 45 3d 42 41 f9 3c ab aa 1f 3d
       -0.16070217 0.048119552 0.030426625 0.03898112
0000a0 55 a5 95 bd ab b0 aa bd be 0a b9 3e ae 3a 0a be
       -0.07306925 -0.08334478 0.36141008 -0.13498947
0000b0 fe d2 35 bd 0e 73 03 be 85 b4 90 bc 4f 33 2d bd
       -0.04439067 -0.12836859 -0.017664203 -0.04228526
0000c0 9d 0b 10 bf 72 21 90 3c ef 9d 4f 3d fe 66 11 3e
       -0.5626772 0.017594073 0.050687727 0.14199445
0000d0 0e eb 41 bd 41 4b 89 3c 4d de 22 3f d5 39 cb bc
       -0.047343306 0.016759517 0.63620454 -0.02480785
0000e0 31 01 85 3c 54 45 85 bd cc b1 ac bd e1 a0 5d bc
       0.01623592 -0.06507364 -0.084323496 -0.013527126
0000f0 95 29 33 3e 97 1f dd 3c 1b 8d de bc e3 78 af 39
       0.17496331 0.026992602 -0.027166894 0.0003346867
000100 8e 93 63 bd ee fc d2 3d b8 16 6f 3f 28 3f a0 3c
       -0.05556064 0.10302149 0.9339404 0.019561365
000110 06 d7 cf bb 56 05 15 bc 9f b3 9d 3d 01 6f ae 3d
       -0.0063427715 -0.0090955105 0.07700276 0.08517266
000120 27 a5 7b 3e 28 76 63 bd 7c 1b 86 3d f5 a0 ce ba
       0.2457472 -0.055532604 0.06548211 -0.0015764522
000130 82 02 b3 bb 15 2a 97 3d da 8e be bd 09 b7 12 be
       -0.0054629454 0.073810734 -0.093045905 -0.14327635
000140 91 75 89 3d ef 67 d5 3d 54 06 fe 3d ff 06 a0 bd
       0.06711877 0.104202144 0.12403551 -0.078138344
000150 9a f3 21 3f 44 d9 90 bd 3d ff 72 3d 7e 8f c2 3d
       0.6326233 -0.0707269 0.059325445 0.09500025
000160 11 c2 03 3d 62 dd d5 3d 86 fa 16 3f 3b 03 17 3c
       0.032167498 0.10442616 0.5897602 0.009217079
000170 67 c4 ee 39 1b 9d e8 bd ca d5 d3 3c 58 c9 a6 bd
       0.0004554123 -0.113580905 0.025858779 -0.08143872
000180 4a 7f d9 be 02 6b 6e bc 59 74 6d 3d 8e 7d 84 3d
       -0.42479926 -0.01455188 0.057972286 0.0646926
000190 da af ec 3c b7 0d d8 bd 3a 45 d2 3e 7f 38 39 bb
       0.028892446 -0.10549491 0.4106844 -0.0028262434
0001a0 8a 61 61 bc 83 19 2a be 21 04 9e bd 00 25 0a bd
       -0.013756165 -0.16611294 -0.07715631 -0.033726692
0001b0 3b 1b e1 3e 94 be c0 bd a1 a0 b9 3d 6e fc 2a bd
       0.43966088 -0.0941135 0.09063841 -0.041744642
0001c0 62 5f f5 3d 38 0f 80 bd a6 a5 2b 3e f8 f7 58 3d
       0.119810835 -0.06252903 0.16762409 0.052970856
0001d0 9e e3 c9 3c 96 e4 91 bd 9c 9b 1f bd 75 90 8d 3c
       0.02464467 -0.071236774 -0.03896676 0.017280797
0001e0 8e 21 e6 be 85 bb 15 3c ba 53 c3 3c ff c5 3b bd
       -0.44947475 0.009138946 0.023843635 -0.04584312
0001f0 1d 1f 1e bc 98 b6 d6 3d 54 62 32 bf f8 6d 87 ba
       -0.009650973 0.10484046 -0.69681287 -0.0010332456
000200 1c 9b c9 3b c2 40 82 bd 99 53 a6 3d 41 7d bd bd
       0.0061525237 -0.06360008 0.08121414 -0.09252406
000210 69 96 54 bf 09 5f 24 3b 15 eb 5e 3b b6 77 71 3d
       -0.8304201 0.002508106 0.0034014632 0.058952056
000220 3d 5e af bc c1 b9 7c 3d d1 d7 37 3f 2a 28 10 bc
       -0.021407241 0.061700586 0.71813685 -0.008798638
000230 3a ca 97 3b 34 c9 84 bd 20 05 db 3c e8 4e 4d bc
       0.0046322616 -0.06483689 0.026735842 -0.01253102
000240 0e b3 bd 3e 08 dd d4 bc 5a 2f 41 3d f2 b5 be 3d
       0.3705067 -0.025984302 0.0471643 0.09312047
000250 0d 9a 15 be 6b fc a5 3d 90 3b 5a 3e 7b 67 9e 3a
       -0.14609547 0.081047855 0.21311784 0.0012085283
000260 81 ef ff bc 6b 77 8b bc 0e cd 2b bc 89 f7 0e 3e
       -0.031242134 -0.017024716 -0.010485901 0.13961615
000270 db f1 79 bd d1 64 cf bd 87 2a b0 3d 65 d4 a4 bd
       -0.061021667 -0.10126651 0.086018614 -0.080483235
000280 0e de d7 bd 17 f8 68 3d 04 0e 79 3f 9a 9a 76 3c
       -0.105404004 0.056877222 0.9728701 0.015051508
000290 85 f7 58 3b ac 33 c1 3d 83 8c 05 3d ed f1 84 bb
       0.0033106518 0.09433684 0.032604706 -0.00405716
0002a0 4e 00 22 bf c1 43 25 bd fc c9 4f bb 4d 53 f3 bc
       -0.63281715 -0.04034782 -0.0031706085 -0.029702807
0002b0 3b 5e ea bc 69 6c 91 bd 2e 8d 1b be 33 fe 0f 3d
       -0.028609386 -0.07100756 -0.15190575 0.035154533
0002c0 bf 73 b1 3c a8 60 95 bd fb 79 22 ba a6 70 ad 3d
       0.021661637 -0.07293826 -0.0006197986 0.084687516
0002d0 9b fa de be 85 04 9c 3c 7c 2b 5c 3b f9 8b 89 bd
       -0.43550572 0.019045124 0.0033595255 -0.06716151
0002e0 7d 05 02 3e af e3 a7 3d 38 4b 87 bf a1 7d 29 b9
       0.12697406 0.08197724 -1.056983 -0.00016163896
0002f0 2a 74 86 3b de a0 86 bb 35 16 b3 bc 40 d1 b9 3c
       0.0041032033 -0.0041085323 -0.021861175 0.022682786
000300 9a 35 8b be d5 71 02 3d 26 6a d5 bd 79 0f bd bb
       -0.27189332 0.03184684 -0.10420637 -0.0057696667
000310 0e be f0 3d e9 f4 2f 3e 5a 00 98 be dc 9a 08 3c
       0.11755 0.1718327 -0.29687768 0.008337703
000320 1c 46 fb bc 8a f4 bc bd 34 6f 4e 3b ce b6 71 3d
       -0.03067308 -0.092263296 0.0031499388 0.059012227
000330 ef fa 89 be 76 57 33 3d 87 0a 29 3e 0e 0c 6e bd
       -0.2694926 0.04378458 0.16507922 -0.058116965
000340 69 80 ea bd 9a 71 8d 3c 22 a6 a8 3e 22 23 62 3d
       -0.114502735 0.017266084 0.3293925 0.055209287
000350 a8 4c c0 bc 94 bf 30 bc aa a6 94 bd fa 0a 02 be
       -0.023474053 -0.010787863 -0.07258351 -0.126995
000360 33 00 d8 be f2 1d 38 bd 66 7b 87 bb c1 bc 05 bd
       -0.42187652 -0.044950433 -0.0041345833 -0.032650713
000370 35 da cd 3d 05 25 f6 bb 87 b7 17 bf 77 03 ad 3c
       0.10051385 -0.0075117373 -0.59264416 0.021119816
000380 9d b6 61 bd b7 60 c0 3d 4b b9 22 bd ba a2 e3 bd
       -0.055105794 0.09393447 -0.03972749 -0.11115022
000390 ba 81 55 bf a8 97 c8 bc 19 91 1c 3c 82 45 68 3d
       -0.8340107 -0.024486378 0.009556078 0.056706913
0003a0 ba 8a 40 3d ab 3a 24 bc 11 9f d3 3e de 45 41 3c
       0.0470073 -0.010023753 0.41332296 0.011796443
0003b0 c8 cd 4d bc da 05 0f bd 02 d4 b7 bb 11 61 bb bd
       -0.012561269 -0.03491769 -0.00560999 -0.09149373
0003c0 36 69 8a be 83 cf a5 bd 9a a5 8d bd de 48 c8 bc
       -0.27033395 -0.0809622 -0.069163516 -0.024448808
0003d0 74 f9 30 be ac 29 4b bd f3 d6 f9 be ab a9 1f bc
       -0.17282659 -0.04960029 -0.48796806 -0.009745042
0003e0 fb 10 b4 bb 14 38 e6 bd aa 6a 17 bd bf 7e 84 3c
       -0.0054951883 -0.11241165 -0.036966957 0.016173718
0003f0 f6 7a 45 be ae 76 52 bc ef a7 d2 bc 9a 2c c9 3d
       -0.19285187 -0.012845678 -0.025714843 0.0982296

fc_in.bias f4 [64]
000000 e5 1e da 3e 0a e6 b5 3e 8c c3 93 3e 41 19 79 3f
       0.42601696 0.35527068 0.28860128 0.9730416
000010 a2 21 29 bf 05 3d 55 bf fe 88 cc 3d bc e0 25 bf
       -0.66066945 -0.83296233 0.09987067 -0.6479604
000020 e3 24 21 3f 39 8f 00 bf 63 3d 3f be 86 5d 55 bf
       0.6294691 -0.5021854 -0.18675761 -0.8334583
000030 99 9b 27 be bf d6 44 3f 4a ae 3f bf dc 6a 21 bf
       -0.1636795 0.76890177 -0.7487532 -0.6305368
000040 fa dc f0 3e 21 d7 11 bf 09 aa 49 bf 86 e5 97 bd
       0.47043592 -0.56968886 -0.7877508 -0.07416825
000050 80 c8 d8 3e 24 87 31 3f c9 de 25 3f b6 53 f4 be
       0.4234047 0.69346833 0.6479307 -0.47720116
000060 c6 a8 42 bf 6d 3c 9f be 48 8a 9b 3e 9d 32 50 bf
       -0.7603878 -0.3110079 0.30378938 -0.8132723
000070 62 de e3 3e 3e c7 77 3e 76 e9 21 3f b9 76 3a 3f
       0.44505602 0.24197099 0.6324686 0.72837406
000080 0f ee 77 3f 25 ee b9 3e 86 bd 28 3f 94 ae cb be
       0.96847624 0.36314502 0.6591419 -0.3978163
000090 d9 97 b4 3e 1b c3 35 3f f3 e5 26 3f 63 0e bb be
       0.352721 0.7100083 0.65194625 -0.36534414
0000a0 db 63 5b 3f 0f 08 c9 3e 99 79 1c 3e fb c7 46 bf
       0.8569924 0.3926396 0.15280761 -0.77648896
0000b0 92 65 14 bf a0 e8 10 3f 90 42 2b bf 20 d2 61 3f
       -0.57967484 0.5660496 -0.6689844 0.8821125
0000c0 1e 63 1c 3f 81 39 48 bf 40 a7 53 bf 2b 9d f6 3e
       0.6108874 -0.78212744 -0.8267708 0.48166785
0000d0 24 ef 49 bf 80 08 f4 3e d8 7b 3c 3f cd 77 41 3f
       -0.78880525 0.47662735 0.7362647 0.75573426
0000e0 f9 87 99 be 58 6f d0 bd 97 56 cc be bd 25 3a bf
       -0.2998655 -0.10177487 -0.39909813 -0.72713834
0000f0 ef e6 29 bf b6 eb 0c bf 0b 2d 0e bd ee 8e 20 3e
       -0.66368 -0.55047166 -0.034710925 0.15679523

layers.0.weight f4 [64, 64]
000000 4b 92 4e 3e 5e 29 8f 3d cb 2b 17 bb 5f 23 b2 3d
       0.20172994 0.06990312 -0.0023066874 0.08698153
000010 41 94 69 bd fb a2 1c bf 86 65 50 bd 67 67 65 bd
       -0.05702615 -0.6118619 -0.05087807 -0.056006815
000020 69 3d 6b bd dc 87 be bd ae 2e 39 be 7a 97 6a be
       -0.057431612 -0.09303257 -0.18084213 -0.22909346
000030 b8 af ca 3d 3e d0 99 3e ec 1b 36 be 3d f0 0d be
       0.09896797 0.3004169 -0.17784089 -0.13861175
000040 33 d1 57 3e e8 55 16 3e 61 7a f6 bb e4 b2 3b be
       0.21075897 0.14681208 -0.007521913 -0.1832996
000050 f7 07 49 3d c3 22 6d 3c e1 8f ab bd 00 27 42 3e
       0.04907986 0.01447362 -0.08377052 0.1896019
000060 7d 27 0f be 95 e1 58 bd 6d 37 34 3e ec a0 51 bf
       -0.13979907 -0.052949507 0.17599268 -0.8188617
000070 54 c4 2f 3e 36 cb 19 be a6 1c 32 3e 04 e4 8a 3e
       0.17164737 -0.15018925 0.17393741 0.27127087
000080 41 ad 2a bc 44 d7 bc 3c 4d 5c 6c 3c c3 d7 13 be
       -0.0104172835 0.023051865 0.014426303 -0.14437775
000090 4b 02 06 3f 91 aa 51 bb 3d d2 d5 3e cf 8f 56 3e
       0.5234725 -0.0031992535 0.41761962 0.20953296
0000a0 e3 0a 56 3e cd 1c 11 3f 24 fc 1d be b4 df e2 be
       0.2090259 0.5668457 -0.15428215 -0.44311297
0000b0 e4 b3 13 3e 4a 36 59 3d 04 ba 8d be d5 f7 83 3e
       0.14424092 0.05303029 -0.2768098 0.25775018
0000c0 4c 91 12 3e af f3 af be 63 64 89 bc c3 99 62 3e
       0.14313239 -0.34365603 -0.0167715 0.22128968
0000d0 2a 7d e8 bd fc 01 76 3c c9 fd 9b 3d c7 47 a8 3d
       -0.11351998 0.015015122 0.07616765 0.082168154
0000e0 f3 1f 1b 3e 06 e3 04 3e 51 79 dc bd 2f c2 17 be
       0.15148906 0.12977228 -0.10765327 -0.14820169
0000f0 7f 1c 2d be 94 8a 75 be 09 21 35 be ee 1d 37 be
       -0.16905402 -0.23978645 -0.17688383 -0.17882511
000100 26 bc a6 be 93 06 c8 bd d7 21 9e bd db 7c e4 3c
       -0.3256542 -0.09766879 -0.07721298 0.027891567
000110 1f 17 29 3e db 1e c5 3e 49 98 3a be 82 4b 32 3d
       0.16512726 0.38500103 -0.18222155 0.04352904
000120 f5 46 b6 3b 4d 26 bb 3c 0b d9 7f 3d 95 02 64 3e
       0.005562658 0.022845412 0.062462848 0.2226661
000130 4e b7 a4 bd c6 b8 e8 3d 1f 6c 74 3d 8b b9 3b 3d
       -0.08042775 0.11363368 0.059673425 0.045831244
000140 62 5a 1d be 46 c6 b8 3d 0e 9f a9 3e 0a fd 5b be
       -0.1536651 0.09022193 0.33129162 -0.21483245
000150 3e ff d9 bd 81 61 1e be 01 da 82 be 31 08 97 3e
       -0.10644387 -0.15466882 -0.2555695 0.29498437
000160 a5 93 1d 3e dd a4 55 3d bc 64 b7 3c 7c 98 f7 3e
       0.15388353 0.05215918 0.022386901 0.48358524
000170 b4 45 2a be 36 7f 2e be 59 07 d1 bd 49 05 30 be
       -0.16628152 -0.17040715 -0.102064796 -0.17189516
000180 ba a3 76 ba 0a ab 50 be 7a a7 fb bd e0 69 af bd
       -0.00094085524 -0.20377746 -0.12287803 -0.08565116
000190 b0 70 6c bd fe f7 90 be db 53 9c 3d 0d c5 f6 bd
       -0.057724655 -0.28314203 0.07633182 -0.12049303
0001a0 bd c0 a7 be c2 02 d8 be e1 69 a6 3d ce 44 ba 3d
       -0.32764235 -0.42189604 0.081256635 0.09095155
0001b0 39 29 44 3e 71 45 cd be 7d 6c a1 bd 24 0f b7 bd
       0.1915635 -0.40092042 -0.078820206 -0.08938435
0001c0 2f 03 79 be 41 9a 10 3e 02 05 74 3e 5c ad 73 be
       -0.2431762 0.14121343 0.23830035 -0.237966
0001d0 45 4c 82 3e 9a 3d 33 be d4 cd 23 bd 62 05 1a be
       0.25448814 -0.17503968 -0.039991215 -0.15041116
0001e0 fd 36 24 3e c0 b8 dc 3d 0e 1e 33 3d 4f e0 fc 3e
       0.16036601 0.10777426 0.043729834 0.49389884
0001f0 5f c6 65 3e b5 7d 88 3b 08 cf 44 3e cd 92 26 3d
       0.22438954 0.004165376 0.19219601 0.040667344
000200 fc 97 02 be b6 df 2d bc 57 34 88 be 22 9e 9c 3e
       -0.1275329 -0.010612419 -0.26602432 0.30589396
000210 07 11 ba bd 95 51 42 be 28 f0 e3 3c 92 29 d6 3c
       -0.09085279 -0.18976434 0.027824476 0.02614287
000220 f4 87 97 3e 69 07 c7 bd 9b 51 a2 bd 65 c6 f6 be
       0.29595912 -0.0971821 -0.07925721 -0.48198238
000230 5e 51 c7 bd 41 0f 2d 3e 6c af 6a bd 81 1d 95 be
       -0.097323164 0.1690035 -0.0572962 -0.29124072
000240 cf 9f fc 3e c3 ac 75 be c5 1d 91 be 9a 51 4b be
       0.49340674 -0.23991685 -0.28343025 -0.19855347
000250 e6 97 80 3c e6 6f 51 3e 4d 07 6e 3e 50 85 b5 be
       0.01569743 0.20452842 0.23244973 -0.35453272
000260 0e 8d 58 be 10 02 94 be 05 31 69 3e 0d f6 b7 be
       -0.21147558 -0.28907824 0.22772606 -0.3592991
000270 72 55 e0 3e 11 6d c3 be 5e b5 66 3d fa f6 3e 3e
       0.4381519 -0.3816915 0.05632531 0.18648902
000280 4d 81 05 3e ac f5 1a be 82 0e 74 bd d8 28 24 be
       0.13037606 -0.15132779 -0.05958415 -0.16031206
000290 5d 55 3a 3e 24 66 2f 3f 69 19 16 3f a9 bd a3 3c
       0.18196626 0.6851523 0.5863252 0.019987898
0002a0 4b a4 8c 3e a2 99 9a 3d a0 b7 61 3e f5 55 bf be
       0.27469096 0.075488344 0.22042704 -0.37370268
0002b0 7d e0 98 bd fc cf 82 bd 2d 14 8a bd 69 62 db 3e
       -0.07464693 -0.06387326 -0.067421295 0.42848518
0002c0 ff 9a bb 3d 11 95 31 be f6 b8 82 be 9c 84 74 3e
       0.091604225 -0.1734202 -0.2553174 0.23878711
0002d0 0d a3 ec 3d f0 6c 86 3e 2f a3 c6 3e 11 85 02 bc
       0.11554537 0.26254988 0.38796374 -0.007966296
0002e0 30 df e9 bd f6 9d 9f 3c 90 73 cf bb 9a 44 93 be
       -0.11419523 0.019484501 -0.006330915 -0.28763276
0002f0 48 09 63 bd 36 63 d7 3c 2e d6 a8 bd 53 73 38 3d
       -0.055428773 0.026292425 -0.082439765 0.045031857
000300 06 33 90 3d fd 13 96 be bc 88 c0 3d a4 54 b6 3e
       0.07040982 -0.29312125 0.0940108 0.3561145
000310 84 5e a0 be 23 8e 9b be cf 98 3a 3e 85 98 82 3c
       -0.3132211 -0.3038188 0.18222354 0.015941868
000320 ac 2a a7 3e 01 73 9b be f4 61 84 be dc 01 2b bf
       0.32649744 -0.3036118 -0.25855982 -0.6679971
000330 48 5d d5 bc eb 0c 90 3e cb 23 20 be a1 06 84 3d
       -0.026045457 0.28134856 -0.15638654 0.06446577
000340 65 b7 ac 3e 53 74 65 be 5e 78 b2 3d 2a 11 d2 bd
       0.3373367 -0.22407655 0.087143645 -0.1025718
000350 81 d7 c5 bd 75 5a 1c 3f fb 85 19 be 12 fd c1 be
       -0.09660245 0.61075526 -0.14992516 -0.3788839
000360 20 53 6a be bf 0f 07 be 75 a5 88 3e 56 bd 16 bf
       -0.22883272 -0.131896 0.26688734 -0.58882654
000370 dd a1 ed 3e ae 7e 62 be d9 f1 89 3e 2c d2 8d 3e
       0.46412554 -0.22118637 0.26942328 0.2769941
000380 03 65 33 3e 22 b8 03 3e 3a d6 2c 3e bd c3 38 bd
       0.17519002 0.1286321 0.16878596 -0.045108546
000390 29 32 5d 3c c0 7c f7 3e a5 6d 02 3f f8 64 65 3e
       0.013500729 0.48337364 0.50948554 0.22401798
0003a0 f9 16 9b 3e ef 06 8d 3d 9d 4e 5c 3e 76 b1 99 be
       0.30290964 0.06886088 0.21514364 -0.30018204
0003b0 ad 95 54 be 69 e2 4d 3e 33 05 7d bd 1a 48 66 3e
       -0.20760222 0.201059 -0.061772536 0.22488442
0003c0 ea b8 ba 3e 5f 0d af be 31 92 98 be c6 f1 42 3e
       0.36469203 -0.3418989 -0.29799035 0.19037542
0003d0 e4 7d c2 be a0 80 e6 bd 5c 04 d0 3e 6c 5d 5b bb
       -0.37986672 -0.11255002 0.40628326 -0.0033472432
0003e0 13 0f cf bd 28 59 a9 3b 82 ed 5c be 72 7a 46 be
       -0.10110297 0.005168099 -0.21574977 -0.19382647
0003f0 0f d5 61 bd 85 ea 7f be 23 ee 69 3e 55 f8 4d 3e
       -0.05513483 -0.24991806 0.22844748 0.20114262

layers.0.bias f4 [64]
000000 e0 19 bc 3d 32 a6 e3 bb 45 48 31 3e bf 57 66 3d
       0.09184623 -0.0069473023 0.17312725 0.056236025
000010 89 12 93 bd 40 e5 3b be 90 4d 30 3e a3 a1 e8 bd
       -0.0718127 -0.1834917 0.17217088 -0.11358955
000020 21 2a e8 bd a6 c0 f8 3c 65 56 9f 3d cc e2 43 3e
       -0.113361605 0.0303653 0.0778015 0.19129485
000030 6f 9a 0c 3e e9 bd 84 3e 56 f3 be bd aa 90 99 3e
       0.13730787 0.2592614 -0.093237564 0.29993182
000040 cd 20 1b 3d ec 41 2a bd 3d 04 18 3e 4c 4e 0d be
       0.03787308 -0.041566774 0.14845367 -0.13799399
000050 b4 ee 6c 3d a6 7a 2a 3e 87 0c 05 be 2c 5b f3 bd
       0.057844833 0.16648349 -0.1299306 -0.11882624
000060 2a 25 0c 3e dc fe 17 bd c3 0c 37 3d bb 85 80 be
       0.13686052 -0.037108287 0.044689905 -0.25102028
000070 71 45 ad 3d d2 d8 26 be d5 23 3b be 66 d6 37 3e
       0.084605105 -0.16293648 -0.18275388 0.1795288
000080 17 c5 3a 3e ed 6e 5e 3c ad 3f 1a 3e 43 9a 12 3d
       0.18239246 0.013576251 0.15063353 0.035791647
000090 8e 5a 28 be d0 da dd bd 7b 92 29 3e 88 0b 22 be
       -0.16440794 -0.10832751 0.16559784 -0.15824711
0000a0 4c e2 39 be 38 b8 19 be 46 52 10 3d 2b 17 16 3e
       -0.18152732 -0.1501168 0.035234712 0.14657275
0000b0 13 7a 3d bc 06 cb b9 3d 35 ed 22 3e 3d a4 29 3d
       -0.011564749 0.09071927 0.159108 0.041416395
0000c0 4a bd ec 3d d9 c8 a1 3d 55 23 1c be 92 22 4c 3e
       0.115595415 0.07899637 -0.15247853 0.19935063
0000d0 a8 74 52 3d 14 74 18 be 21 ba d8 3c aa 39 b1 3d
       0.051380783 -0.1488803 0.02645594 0.08653577
0000e0 fe c3 74 be ac 3b 70 be 47 2b c0 3d 56 ce de bd
       -0.2390289 -0.23460263 0.093832545 -0.10879199
0000f0 a4 0f d8 bc 40 bf 0f 3e cf ac 6f 3e bd 40 9b be
       -0.026374646 0.140378 0.23405765 -0.3032283

fc_out.weight f4 [5, 64]
000000 12 78 4e bf 33 9f e8 be c9 5e eb be d2 58 b9 be
       -0.8065196 -0.4543396 -0.45970753 -0.36200577
000010 71 cb a0 bd e2 c3 98 be 77 54 fe bc fe 7a cc be
       -0.07851303 -0.29836947 -0.031046135 -0.39937586
000020 f1 60 4d bf 1d 72 62 3e 82 09 07 be 3a 27 0b bf
       -0.80226046 0.22113843 -0.1318722 -0.5435673
000030 88 c7 0b bd 27 2b 25 3e ed 24 f3 3e de 19 95 3d
       -0.034125835 0.16129743 0.4748911 0.072803244
000040 b2 96 10 bf 78 c6 86 3c 52 9b c0 be b1 ff d4 3e
       -0.5647994 0.01645206 -0.376185 0.41601327
000050 69 f0 cd 3e ff 5e c6 3d a0 ed b0 3d cd ad 28 be
       0.4022248 0.09686088 0.08639073 -0.1647255
000060 3d 4e d4 be 58 1d 0a 3f 2c 82 0b be 69 ce 4b 3e
       -0.4146594 0.53951025 -0.13623875 0.19902958
000070 2f 5a f7 3e 0a 3a 2a 3e 64 1a c7 be c6 ef 0d 3e
       0.48310992 0.16623703 -0.38887322 0.13860998
000080 77 b2 03 3e 93 1e 03 be f4 22 27 3e 70 1e 07 3d
       0.12861048 -0.12804632 0.16321927 0.03298801
000090 ec 75 27 bd ae ee b8 3e c1 4c 68 bd a0 17 5f be
       -0.040883943 0.36119598 -0.056713823 -0.21786356
0000a0 ec 8e 97 bd f5 42 da 3b f7 ed f4 bc d9 ff 9d 3e
       -0.07400307 0.006660814 -0.029898627 0.3085926
0000b0 1e 82 e2 be db 16 b4 3e 7b bf e8 be a2 9d 72 be
       -0.44239897 0.35173687 -0.45458588 -0.23692945
0000c0 af 80 be 3d b9 83 8e 3e a4 fc 1b bd 85 3d 0a bf
       0.09301888 0.2783487 -0.038082734 -0.5400012
0000d0 99 fb f8 be 20 7e 61 bf ff a2 ff be 71 0d 05 3e
       -0.48629454 -0.88083076 -0.49929044 0.12993409
0000e0 bd 8d 26 be fa 5c a7 bd e4 5f 2b 3f b9 aa 02 3e
       -0.16265006 -0.08172031 0.6694319 0.12760438
0000f0 c0 72 0d 3f 6e c0 88 bd dd 75 04 be 55 a3 b2 ba
       0.5525322 -0.06677328 -0.12935586 -0.0013628999
000100 3e 23 ae bc 81 0e 06 be e6 49 2e be 83 1a 54 3e
       -0.02125704 -0.1309147 -0.17020378 0.20713238
000110 eb 12 4a be 85 25 2d 3e ce ae 72 be 9d f9 a1 3c
       -0.19733779 0.16908844 -0.23699495 0.019772345
000120 2a 3c 28 be a5 88 27 be e1 e1 89 bd 51 3c 91 3d
       -0.16429201 -0.1636072 -0.06732536 0.070915826
000130 e4 eb cd bd 70 0a 71 be 5c 26 2b 3e 56 19 b8 3d
       -0.10054758 -0.23539138 0.16713852 0.089892074
000140 d2 76 4f 3e 05 ed 0d 3e cf 1a 1f be eb ce 66 be
       0.2026017 0.13859947 -0.1553757 -0.2253987
000150 3e 31 5c be 38 b4 99 bb 39 47 59 3e c2 4c 3c be
       -0.2150316 -0.004690673 0.21218576 -0.18388656
000160 2e b3 b5 3c 7b 82 49 3e 72 aa 55 be f1 dd 95 3d
       0.022180166 0.1967868 -0.20865801 0.073177226
000170 a9 65 8f 3e 78 f3 ac bd 9e 36 69 bd ed 51 3d be
       0.28007248 -0.084448755 -0.056936853 -0.18488283
000180 92 f5 9a 3d c8 57 8b 3e 65 45 9e 3e d4 53 a0 bd
       0.0756637 0.2721541 0.3091232 -0.07828489
000190 c4 a9 53 3e 35 ea e5 bd 5e b5 89 3d 63 13 c5 3c
       0.20670229 -0.11226312 0.06724046 0.024057096
0001a0 ba 91 ca bc a8 f3 b8 bd 6e 4c 7d 3e f4 55 f1 bd
       -0.024727691 -0.09030849 0.24736187 -0.117839724
0001b0 26 f3 35 3e 90 29 13 be 8c a8 06 bc 7d c9 ef bd
       0.17768535 -0.14371324 -0.008218896 -0.11708353
0001c0 22 f6 84 be 5c 28 65 3d 5b 3e 36 be 91 cc 4f 3e
       -0.25969034 0.055946693 -0.17797224 0.2029288
0001d0 b7 60 f3 3d 1a 01 a0 3e 36 e4 23 3d 0d ed 65 3d
       0.11883681 0.3125084 0.04001256 0.056134272
0001e0 32 83 b9 3c 77 d5 7b 3e 0f 3c 0f bd f2 cf 16 bd
       0.022645567 0.24593149 -0.034969386 -0.036819406
0001f0 08 d0 ae 3e a1 23 88 be ef 9d b3 bc 8f f1 86 bc
       0.3414309 -0.26589683 -0.021925895 -0.016472606
000200 7e 0b 63 bf 37 68 0d 3f 2a ba 0e 3f ff a0 2d be
       -0.8868941 0.55237144 0.55752814 -0.16955946
000210 4b 3f 2f bf aa 3c 13 3f 12 91 67 3e 96 8f d8 3e
       -0.6845595 0.5751444 0.22613934 0.42297047
000220 cb a3 0f bf ae ea 0b 3f ae b8 5c bf 24 44 a5 3e
       -0.56109303 0.5465497 -0.862193 0.3227855
000230 f6 91 d2 be 97 2b f1 3e 63 17 24 bf 42 21 10 3f
       -0.41126984 0.4710357 -0.64098185 0.5630075
000240 5d a1 3c 3f 17 a5 84 3f e6 0b ec bd 6e 5a ea 3e
       0.7368372 1.0362881 -0.11525707 0.45772117
000250 fd b9 db be 68 c1 db be 86 02 1d bf ea d9 17 3f
       -0.42915335 -0.42920995 -0.61331975 0.59316885
000260 c7 6a 08 bf 9c 2b 86 be 68 35 df 3e 00 94 4b bf
       -0.5328793 -0.26205146 0.43595433 -0.79522705
000270 59 4f ed be c1 77 8b bf 75 0c 77 bf c4 55 70 3f
       -0.463496 -1.0895921 -0.9650338 0.9388087
000280 78 60 5e bd fe 86 d4 be 0d ee 62 3d f2 ec 8a be
       -0.05429122 -0.4150924 0.055402804 -0.271339
000290 8f 68 98 be ad 07 08 bf 1c ef 04 3f 6a 63 b5 be
       -0.29767272 -0.5313671 0.5192735 -0.3542741
0002a0 32 65 54 bf a2 6f 27 bf 22 d1 52 bf 13 92 ba be
       -0.8296691 -0.65404713 -0.8235036 -0.3643957
0002b0 8c e9 5d 3f 3d 80 93 3e e7 60 b8 be d1 cc f1 be
       0.8668449 0.28808776 -0.3601143 -0.47226575
0002c0 ce 3e 8d bf f2 b0 64 3f 08 3b 2c be 6a 74 43 3f
       -1.1034791 0.893325 -0.16819394 0.7634951
0002d0 4c b6 c2 be 79 e7 e6 be f5 4e 1c 3f 0c 3f be 3d
       -0.38029706 -0.45098475 0.6105798 0.09289369
0002e0 76 2d fd be 3e 82 08 bf 0d 6f f0 3e 23 07 97 3e
       -0.49448746 -0.53323734 0.46959725 0.29497632
0002f0 69 cf 3a 3e 55 73 1d bf 19 36 65 bf 05 26 29 be
       0.18243183 -0.6150411 -0.8953567 -0.1651841
000300 25 72 5f 3e 2f 0a 3d 3f 78 78 c5 bd f3 38 b2 3e
       0.21820886 0.73843664 -0.09642118 0.34809074
000310 ff 1b 67 bf 42 5d 29 3d c1 b2 0d bf 23 c3 77 3f
       -0.90277094 0.041348703 -0.5535088 0.9678213
000320 2f c9 a4 be 07 fe f2 bd 23 78 b5 be 5e 92 43 3f
       -0.3218474 -0.11864858 -0.3544322 0.76395214
000330 37 0f 06 bf 8d cc 94 be e9 74 cb bd b7 75 fb 3e
       -0.52366966 -0.2906231 -0.09934408 0.49113247
000340 1d 82 c9 be 6e fe cb be fd 4e 00 3e 10 97 2d 3f
       -0.3935708 -0.39842552 0.12530132 0.6780863
000350 e8 1e 0d bf d4 22 23 3f 4b 50 04 bf cf 8f 12 be
       -0.55125284 0.6372502 -0.5168502 -0.14312671
000360 3f 7e 0e 3f a5 4d 22 bf 0e 67 cc 3e be 37 27 be
       0.55661386 -0.63399726 0.39922374 -0.16329858
000370 30 e5 0f 3f 27 e5 7a 3e 15 02 1d 3f af 22 73 be
       0.5620909 0.24501477 0.613313 -0.237437
000380 13 35 8f 3f 3e 75 52 bf 04 05 67 3e 0f 7c 84 be
       1.1188072 -0.8221015 0.22560507 -0.258759
000390 41 34 95 3f 15 77 91 3f 12 c7 f6 be 32 46 06 bf
       1.1656572 1.1364466 -0.48198754 -0.5245086
0003a0 8e 56 fe 3e 54 e7 d8 3e 39 18 72 3d ae 21 4c bf
       0.4967541 0.4236399 0.05910513 -0.7973889
0003b0 c0 80 e1 be ba 09 76 3f 96 c3 ce bd ff 8b 0a 3f
       -0.4404354 0.9610859 -0.10095899 0.5411987
0003c0 97 3e 12 be d1 24 4d bd 60 74 37 3f d7 4b 90 3e
       -0.14281689 -0.05008394 0.7166195 0.2818286
0003d0 f4 27 89 bf 73 1c 11 be 15 be 02 bf e8 69 91 3f
       -1.0715318 -0.14171009 -0.5107129 1.1360445
0003e0 31 be 49 bf 0b c4 26 bf 43 a0 28 bf 01 55 72 bf
       -0.78805834 -0.6514289 -0.6586954 -0.94660956
0003f0 58 5c 55 3f 65 30 bc 3d a6 f4 1a 3f 77 8f d9 be
       0.8334403 0.09188918 0.60529554 -0.42492267

fc_out.bias f4 [5]
000000 5f 40 e1 bc a0 9c a5 3c 7b c1 73 3d e4 5f 2b 3d
       -0.027496515 0.020216286 0.05951069 0.041839495
000010 5b b6 10 3d
       0.035330158
