trained_bsde_model_lq/d5_z_net.pth (torch, 24289 bytes, 6 tensors)

weight f4 [64, 6]
000000 12 b6 11 bf 47 27 1d bc 84 b4 ba bb ec b0 8d bd
       -0.5691844 -0.009591884 -0.0056977887 -0.06918511
000010 7b 08 8e 3d ed 67 21 bd 9c 16 34 3f 5d c7 b3 3c
       0.06935211 -0.039405752 0.70347 0.02194565
000020 55 15 c1 3c 35 34 7b 3c 46 fb ba bd f7 1a 0e be
       0.023569742 0.015332271 -0.09129958 -0.13877474
000030 a0 f6 dc be d6 dd da 3d c3 fe f5 3c b1 b4 c1 bd
       -0.4315691 0.10686843 0.030028706 -0.09458292
000040 a2 a7 5a bd 23 72 21 be ef f7 c6 3c 87 df 1a bd
       -0.053382523 -0.15766196 0.024288146 -0.03781083
000050 80 8b 8b 3d e0 94 b4 bc a4 fc 8a 3c c4 94 1a bc
       0.06813717 -0.022043645 0.016966172 -0.009434883
000060 2f 1e fa be 3e 4b 44 bd 69 b9 9c bc a0 f0 08 3d
       -0.48851153 -0.04792332 -0.01913138 0.033432603
000070 97 6a 02 be 16 89 75 bc 04 bc 07 bf 5b d8 1b 3d
       -0.12735973 -0.014986297 -0.53021264 0.03804813
000080 c9 45 9b 3c 69 ea 82 3d 7b b5 94 bc f4 33 c8 bd
       0.018954175 0.063923664 -0.018152943 -0.09775534
000090 bf e5 85 3e 3c 1f 99 3b e3 d1 44 bc 5a d2 93 3d
       0.26151845 0.004672913 -0.0120129315 0.07217856
0000a0 87 f9 6d 3c ed 8c c1 3c f1 b8 0c 3f 19 a9 11 bd
       0.014524824 0.023626769 0.549697 -0.035561655
0000b0 bb e1 97 3d 01 c0 1a 3e 8f 47 92 bc f5 a7 96 3d
       0.074161015 0.15112306 -0.017856387 0.07356254
0000c0 ea 87 4b 3f 2b 3e c5 bd 62 5d 03 3d 1d 96 ad 3d
       0.79504263 -0.09630998 0.03207148 0.084758975
0000d0 b0 d9 aa 3d 4c c9 3e bd cc c6 51 3f 9e cc 3b ba
       0.08342302 -0.04657869 0.81943965 -0.0007163974
0000e0 44 32 c6 3c 47 12 00 be 46 62 d8 bd de 12 27 bc
       0.02419389 -0.12506972 -0.10565619 -0.010197369
0000f0 ed fc 17 bf fd f4 93 bc aa b6 d8 bb b4 03 a5 3c
       -0.5937031 -0.018061155 -0.006613572 0.020143367
000100 6a 86 04 3e d5 64 51 bd d0 f7 0b bf d7 e3 0b bd
       0.129419 -0.05112155 -0.54675007 -0.034152832
000110 6a 87 54 3d 4d 9b f0 bd 50 26 53 bd 2a a7 0d 3e
       0.051886953 -0.11748371 -0.05155021 0.138333
000120 6b 9e 23 3f 88 1b 09 be 1b 30 93 bd f1 02 90 3d
       0.639136 -0.13389409 -0.0718691 0.07031811
000130 3b 8e 88 bd 0c ae 90 bd 8d 58 e3 3d 69 8d 36 3d
       -0.06667753 -0.07064447 0.11100874 0.044568453
000140 73 92 ed bb ff d2 65 3c a4 d7 36 bc 80 1e 8a 3d
       -0.007250124 0.014027356 -0.011159811 0.06744099
000150 70 db 17 bf 9a c8 5b bc eb 0d c1 bc 16 c9 ec bc
       -0.5931921 -0.013414526 -0.023566207 -0.028904479
000160 ca 20 e3 3b f9 4d ef 3d 90 64 ef be b9 f2 6a bc
       0.006931399 0.11684794 -0.4675641 -0.014340096
000170 fa 8b 2f bc 8c 3f 4b bc 64 99 bb bb d8 06 9b 3d
       -0.010714525 -0.0124052875 -0.0057250727 0.07569665
000180 c6 e6 2c 3f a7 b3 34 bd 74 71 0c 3d f4 3c d8 3d
       0.6753963 -0.044116642 0.034287885 0.10558501
000190 24 f9 ff bd 3f fd 2c 3d e0 97 b0 3d ba 62 0a 3c
       -0.12498692 0.0422337 0.08622718 0.00844639
0001a0 40 10 94 3d 26 10 48 3d fb 3d b2 3c de 27 6a 3c
       0.07229662 0.048843525 0.02175807 0.014291732
0001b0 75 23 c5 be 63 b7 19 be fa ee 2c 3d 6d 37 46 3e
       -0.38503614 -0.15011363 0.042220093 0.19357081
0001c0 61 ae b7 bc 40 a5 85 3b 6c 62 82 bf ac 03 7a bc
       -0.022422018 0.004078537 -1.0186286 -0.0152596645
0001d0 00 50 c6 39 21 b2 58 3d 3e f2 09 bc 8f b4 10 3d
       0.00037825108 0.052904252 -0.008419571 0.035328444
0001e0 0a 60 2d 3f 9b 66 35 bb b2 7f 8b 3c 84 55 a4 bc
       0.6772467 -0.0027679566 0.017028663 -0.020060308
0001f0 82 8e 18 3e 40 70 68 3d d6 e2 f4 3e 32 d8 b1 3c
       0.14898112 0.056747675 0.47829312 0.021709535
000200 67 ff ba 3b b7 b1 30 bd 86 d9 5d 3d b5 88 59 bd
       0.005706716 -0.043138232 0.054162525 -0.05310889
000210 2f d1 31 be ac 6c 84 bc af bc d8 ba 63 2a 80 bc
       -0.17364953 -0.0161651 -0.0016535724 -0.015645212
000220 3f f8 7c bd 3f bf ae bc c6 65 33 3f 20 28 32 3d
       -0.061760183 -0.021331428 0.7007717 0.043495297
000230 2f f5 ad 3b fe e3 86 3c 87 64 da bd 55 2d c1 bc
       0.005308769 0.016466137 -0.10663705 -0.023581186
000240 1a 55 08 3f c1 f2 0e 3e d2 38 c2 3d 8a 79 82 bd
       0.53254855 0.13959791 0.09483494 -0.06370838
000250 72 71 97 3c 2b f3 8a 3d a5 74 2f 3f c0 b4 47 bd
       0.018486712 0.06784662 0.6853736 -0.04875636
000260 44 3b fb 3a 1f 90 83 bd 58 ed 09 3e a2 6b 54 bd
       0.0019167443 -0.06423973 0.13469446 -0.05186046
000270 68 8c d9 be ba 2f 14 bc ae f2 18 3c 79 da 90 bd
       -0.42489934 -0.009044582 0.009335203 -0.0707292
000280 f7 f7 70 bd 45 95 bb 3c 45 83 6e bf c3 97 09 3d
       -0.058830228 0.022898326 -0.9316905 0.033591997
000290 d6 a4 22 3c 9c 3b 09 3e 3a f4 80 bb 7c 6d 28 3a
       0.009926995 0.13401645 -0.003935364 0.0006425006
0002a0 5d 6d 4b bf a0 90 83 bc 80 1a 06 3c 2c 25 29 bb
       -0.7946375 -0.016060174 0.008185029 -0.002580951
0002b0 7d 9e a0 3d 7c 13 18 bd 86 47 43 bf 03 98 1b bb
       0.07842729 -0.037127957 -0.7628101 -0.002374173
0002c0 26 bb 59 ba ac 1e 87 bd 8d d4 eb bb ab b2 4b bc
       -0.00083057804 -0.06597647 -0.007196969 -0.0124327345
0002d0 c0 3c 1a 3f ee 2f dd bc 0f bc 8d bc b9 f6 ca bd
       0.6024895 -0.027000394 -0.017301587 -0.0991034
0002e0 7c b4 ff bc ba 01 f8 bd a6 8d 77 be db 28 e9 3c
       -0.031213991 -0.12109704 -0.24175128 0.028461864
0002f0 ee be 94 3d b0 8e 78 3d 55 75 36 3e b8 c3 79 3d
       0.072629794 0.060682952 0.17818196 0.060977668
000300 f3 99 22 bf f8 e3 03 3e f7 ca 0a bd f3 02 fd bc
       -0.6351616 0.12879932 -0.03388497 -0.030885195
000310 7a fe b9 3d be b7 b0 3d 11 d8 bd be 19 ea c8 3c
       0.09081741 0.08628796 -0.37078908 0.024525689
000320 28 27 0b 3d 73 a4 20 bc a9 a0 7b 3c c7 61 ea bd
       0.03397289 -0.009804833 0.015358129 -0.11444431
000330 b4 64 ad be d5 34 99 bd e8 ad 21 3d a5 50 d3 bd
       -0.33865893 -0.0748078 0.03947249 -0.10318116
000340 0a 3c 48 3d 7c 1d 4c bd 75 f2 0c bf bb 67 7b bd
       0.048885383 -0.049832806 -0.5505746 -0.061378222
000350 86 ba 5e 3d 22 b6 1a 3c 4b 1d 4a be 3f fb 45 bc
       0.0543771 0.009442838 -0.19737737 -0.0120838275
000360 7f 6b 1b 3f bd 19 6a bd 1f 89 9d 3d 05 44 19 be
       0.607109 -0.057153452 0.076921694 -0.14967354
000370 45 e5 97 3d 3f 0d 81 bd e6 98 26 3d af b0 9b bc
       0.074167766 -0.063013546 0.04067316 -0.019005148
000380 e3 bb 51 bc 19 eb be bc ec e1 5f 3c 30 a1 45 bb
       -0.012801143 -0.023305463 0.013664704 -0.003015589
000390 e5 e5 3b be 47 6d 10 be ea a2 0a 3e a1 db cd bc
       -0.18349417 -0.14104186 0.1353871 -0.025129141
0003a0 2d 6c 2c 3e 88 5e d7 3d 5b 86 1e bf 41 20 29 bc
       0.16838141 0.10516077 -0.6192376 -0.010322631
0003b0 13 d9 8f bc cb 09 26 3d 76 f3 24 3e 11 dc 15 3d
       -0.017559564 0.040536683 0.16108498 0.036586825
0003c0 a5 2a 2c be 8a d7 fb bc 4c 42 db bc 0c 1d 8e bc
       -0.16813143 -0.030742425 -0.026765011 -0.017347835
0003d0 0c 8f f7 bc 6a 31 e0 bc 59 ea 00 3e 9f dc 6b bd
       -0.030219577 -0.027367312 0.12589397 -0.057583448
0003e0 83 e4 b3 3c 28 18 0d bd 97 b4 1f 3d 28 7f 4e bd
       0.021959549 -0.034446865 0.038990583 -0.050414234
0003f0 8c 92 50 3f 83 86 2a bc 49 e6 16 bb 0c b6 86 3c
       0.8147361 -0.010408047 -0.0023025444 0.016444229

bias f4 [64]
000000 e8 2d e9 3e 09 05 35 bf 7b 5b 56 3f 61 05 59 bc
       0.45542836 -0.7071081 0.8373334 -0.013245911
000010 be ab e7 3e ce d7 e6 3e 04 fc 22 be 51 f1 25 bf
       0.45248216 0.4508652 -0.15916449 -0.64821345
000020 7f 59 51 bf a7 db 5d bf 61 3c 20 3f 9d 49 3a 3f
       -0.81777185 -0.8666329 0.6259213 0.72768575
000030 39 75 3c bf 36 28 8f bd 4f da f4 3e 14 3c a9 3e
       -0.7361637 -0.069900915 0.47822806 0.33053648
000040 2c cc 4d bf 9a 73 87 bd ba db 3c 3f 18 40 4a 3f
       -0.80389667 -0.06613846 0.73772776 0.7900405
000050 61 1e 38 bf a6 5c bf be 33 4f ff 3d dd 42 15 bf
       -0.71921355 -0.37375373 0.12466278 -0.5830515
000060 95 30 2f bf 81 09 37 bf 51 89 93 3e 13 2e 62 3f
       -0.68433505 -0.71498877 0.28815702 0.88351554
000070 0a 99 15 3f 68 53 02 3f 1c 18 23 bf 67 c3 05 3f
       0.58436644 0.5090852 -0.63708663 0.52251285
000080 c1 5c 36 3f c6 9f 9e 3e a2 3a d7 3e 1d 90 3e 3f
       0.7123528 0.30981272 0.4203692 0.7443865
000090 b4 20 4f bf 9e 1c d5 bc 60 9d 50 3f 58 1a 2b 3f
       -0.80909276 -0.026014622 0.81490135 0.6683707
0000a0 85 9f 01 3e 53 bc 1b be 2a 91 2e bf e4 dd 83 3f
       0.12658508 -0.15208559 -0.6819025 1.0302091
0000b0 46 10 1d 3f 21 0d 4a bf 0b 4c 07 3f 10 ec 03 3f
       0.61352956 -0.78926283 0.5285041 0.5153208
0000c0 9a a4 9a 3d c8 48 4b 3d 80 50 3c bf 8c 91 20 3f
       0.075509265 0.049629956 -0.73560333 0.62722087
0000d0 00 a0 b8 3d 03 f9 34 3d 40 69 2c bf 9e b9 38 bc
       0.090148926 0.04418279 -0.673481 -0.011274723
0000e0 60 ef 3f 3f b6 52 47 3f b0 6e 78 3d 17 e4 c9 be
       0.7497463 0.7786058 0.060652435 -0.3943183
0000f0 7c ff 42 3f a2 30 3e bf e7 43 50 3f f9 0d c2 be
       0.7617109 -0.7429296 0.8135361 -0.37901285

weight f4 [64, 64]
000000 b4 9a 4a be 90 21 71 3e d1 2c 08 bf 6c 85 78 be
       -0.19785577 0.2354796 -0.53193384 -0.24269646
000010 52 c3 5d be e0 87 76 be 92 05 ff bd 0c f6 5c 3e
       -0.2165654 -0.2407527 -0.12452234 0.21578234
000020 fc 35 50 3f 76 5d a4 bd 12 04 47 be b0 b5 21 be
       0.81332374 -0.08025639 -0.19435146 -0.15791965
000030 b3 cd 5d 3e 6f d5 6f bd a6 73 d1 3c ca 48 d8 3d
       0.216605 -0.058553156 0.02556784 0.105607584
000040 65 6d 8b 3e 72 49 07 be 8f 37 92 be 6c 23 2d bf
       0.272319 -0.13211611 -0.28558013 -0.67632174
000050 45 37 c1 3e 63 49 1f bc ce 20 47 be a8 c5 ee 3d
       0.3773748 -0.009722087 -0.19446108 0.11658794
000060 e6 6a ba 3c 16 ad e3 3e 52 81 ce be 0b 81 c8 be
       0.022756051 0.44467992 -0.4033304 -0.39160952
000070 4f 4a 3b be f3 c4 29 bf 7b 95 0f 3e 9f 69 d5 3d
       -0.18290065 -0.66316146 0.14021866 0.10420536
000080 c7 37 b3 bd b4 8f ed 3d fb c7 09 be 5e 61 25 bf
       -0.08750873 0.11599675 -0.13455193 -0.64601696
000090 56 48 18 3e ac 5a b4 bc 60 e4 9e be 96 51 2f 3e
       0.14871344 -0.022015892 -0.3103361 0.17120966
0000a0 4f 3e 0c 3e 14 c0 46 3d c0 e8 54 3e 02 8e 0c bf
       0.13695644 0.048523024 0.20791912 -0.54904187
0000b0 20 14 b4 be 6c 6e e9 3e 9b eb 3a be 4d b9 11 bf
       -0.35171604 0.45592058 -0.18253939 -0.5692337
0000c0 4d 41 1a 3e e8 20 80 3e a6 dd e3 3d 7c dd 54 be
       0.15063973 0.25025105 0.111262605 -0.20787615
0000d0 ea fe ca 3d 66 5a ba bc cc 2b 8f 3d f4 d6 0c be
       0.09911902 -0.022748183 0.069907755 -0.13753873
0000e0 2e c7 91 be 6b 02 bb be ee c5 e8 3d 3d ac 1c be
       -0.28472275 -0.36525282 0.11365877 -0.15300079
0000f0 e3 c8 5a be ee 68 a3 3e eb 86 27 bf 8e 8d 5f 3e
       -0.21365695 0.31915992 -0.65440243 0.21831343
000100 da 16 0d bd ef 7b 8e bd 8b 9d 78 3e d7 a8 5e bd
       -0.03444562 -0.06957232 0.24278848 -0.054360237
000110 f9 97 36 3e a8 1f 43 3e 6f 70 c9 3d 32 58 a4 be
       0.1783141 0.19055045 0.09835898 -0.32098538
000120 2e f6 b3 be 25 a0 e7 be a5 06 0c 3f 53 19 14 bd
       -0.35148758 -0.45239368 0.5469764 -0.036156964
000130 d5 63 91 be f9 5f 34 be 6b 8f 8e 3e 95 79 be 3c
       -0.28396478 -0.17614736 0.27843794 0.023251334
000140 0a 06 51 be 34 77 1a 3e de 71 28 3f 4d ae 17 3f
       -0.2041246 0.15084535 0.6579875 0.59250337
000150 e4 79 e3 be 8c f5 fb bd 45 51 04 be 91 c2 ec be
       -0.44428933 -0.12302694 -0.12921627 -0.46242192
000160 52 dc 7c be fe c1 8e be 69 43 16 be 80 ec ec 3e
       -0.2469342 -0.2788238 -0.14674152 0.46274185
000170 ce f6 23 3f 40 96 c6 3c a5 79 7c be eb 52 ac 3d
       0.6404847 0.024241567 -0.24655779 0.08414253
000180 0f 11 c1 3d e5 b7 08 3e 8a 9d 5a 3e fd 8b bd 3e
       0.09427082 0.133514 0.21349159 0.37020865
000190 80 c2 84 be 2c a4 88 3d 75 1b c3 3e 6f 5d d8 3d
       -0.25929642 0.06671938 0.38106886 0.10564696
0001a0 21 ea e6 bd fd dd d9 bd 3a fa 5b be 18 3a cf 3e
       -0.11275125 -0.10638044 -0.21482173 0.4047401
0001b0 e8 29 c5 3e 17 d9 a7 bd 26 1b a3 3e e1 5d c5 3c
       0.38508534 -0.081957035 0.3185665 0.024092617
0001c0 d9 e3 78 3e 4d fb 78 bd b1 c6 20 bf 86 69 aa 3d
       0.24305667 -0.060786534 -0.6280318 0.08320908
0001d0 47 7b 63 3e 99 3d 29 3e 9b a5 09 3e 61 07 0a bc
       0.22214995 0.16527404 0.1344208 -0.008424611
0001e0 07 96 be 3e 80 cf cd 3e 2b 74 35 3e 2d 8a a2 be
       0.37223837 0.40197372 0.17720096 -0.31746045
0001f0 53 c8 ca 3e d7 22 97 be d3 99 3a 3e 66 e0 1f be
       0.3960596 -0.29518768 0.18222742 -0.15612945
000200 ca 08 74 bb 7f aa 30 bd 53 e4 0d be 7a 9a 80 3d
       -0.0037236684 -0.043131348 -0.1385663 0.06279464
000210 a4 70 9b be 8b 7d 8b be 5b 82 46 3d 81 49 c2 bc
       -0.30359375 -0.2724422 0.04846416 -0.02371669
000220 4f a8 d3 3e 32 c2 0c 3f 37 00 ac be 8a 87 27 bd
       0.41339347 0.5498382 -0.33593914 -0.040900744
000230 87 d3 94 3e b9 16 c7 bd 89 80 2a 3c f4 c5 d7 bd
       0.29067633 -0.09721131 0.010406622 -0.105358034
000240 12 b1 e1 bd d0 34 74 bd ed b5 b1 be 0b ff 37 bf
       -0.110201016 -0.05962068 -0.3470911 -0.7187354
000250 bb cc e1 3e 18 dc 52 3d db e4 0a 3e 3f 61 1c be
       0.4410151 0.05147943 0.13563864 -0.15271471
000260 25 a1 0b 3e 0b ce d2 3e f2 3e e8 3c 4a 44 12 bf
       0.1363569 0.41172823 0.028350327 -0.5713545
000270 26 d5 50 be 5b a4 9a be 25 5a 8d 3e 53 87 ad bd
       -0.2039381 -0.30203518 0.27607837 -0.08473077
000280 51 a2 81 be 5e bb 9e bd be c5 36 3e eb 18 52 be
       -0.2531915 -0.07750581 0.1784887 -0.20517318
000290 0d 46 ff 3e 25 24 2f 3d 8b d6 28 be 6e 74 72 be
       0.49858132 0.04275908 -0.16488092 -0.23677227
0002a0 2a 12 26 3e 23 88 13 3d fa 54 cf 3e 2b c8 fd be
       0.16217867 0.036018502 0.4049452 -0.4956678
0002b0 30 18 cb be f5 6d 12 3d 51 74 2a bd 20 a4 af be
       -0.3966689 0.035749394 -0.041614834 -0.34304905
0002c0 55 4b 38 3e 96 c5 9e 3d eb 82 5a 3d 21 dc 46 be
       0.17997487 0.0775253 0.05334751 -0.1941991
0002d0 65 ca 98 3c fa 5d 35 3d 42 7f 7f 3d 52 c7 a3 3d
       0.018651197 0.044279076 0.062377222 0.07997002
0002e0 e1 e4 21 be 49 25 80 be 01 20 42 3d 3f f6 d9 3c
       -0.15809967 -0.25028446 0.047393803 0.026606677
0002f0 d0 6e 14 bf ac 50 40 3e 9c a3 33 3d 4e c3 72 3e
       -0.57981586 0.18780774 0.043857202 0.23707315
000300 60 74 c8 bc 69 18 14 bf c2 4c c0 3c 34 f1 d6 3d
       -0.024469554 -0.57849747 0.023474101 0.104952246
000310 66 f2 80 3e 46 85 7f 3d 06 98 44 bd 47 90 0c bd
       0.25184935 0.06238296 -0.047996543 -0.03431728
000320 06 2f 28 bf bb ee 1a bf d1 8a 18 3e 95 59 e4 3e
       -0.6569675 -0.60520524 0.14896704 0.44599596
000330 5e ba 72 be be 84 54 bd f0 f9 cf 3e 97 d4 1b be
       -0.23703906 -0.051884405 0.40620375 -0.15217815
000340 85 0f 51 3b ed 2e 96 3d cc fc 4c 3c fc 11 1e 3f
       0.003190012 0.07333169 0.012511443 0.6174619
000350 a8 8a 1e be 1e bf da 3c 87 ae a0 bd 5d 9e 0d be
       -0.1548258 0.02670246 -0.078457884 -0.13829942
000360 9f 8e bf 3d 4e 59 ac be 5a e4 3e bd 6b 8a 27 3f
       0.09353375 -0.33661884 -0.04660449 0.65445584
000370 12 c8 5e 3e 76 16 36 3e 27 68 a7 be ad ab 8a 3e
       0.21756008 0.17782006 -0.3269665 0.27084103
000380 59 92 31 3f 24 49 41 bd 6c c4 8e bc 96 c1 a5 3e
       0.69363934 -0.047188893 -0.017427646 0.32374257
000390 c8 68 8f be 4d b3 09 3d 66 af a1 3e 89 d4 9c 3e
       -0.2800963 0.03361826 0.3157913 0.306309
0003a0 c3 03 eb 3d 62 a6 70 3d 11 f1 c2 bd 4d 80 bc 3d
       0.11475327 0.058752425 -0.09518636 0.09204159
0003b0 8d 4a d5 bd c1 3e af be 0e 40 32 3e 7d e9 36 3d
       -0.1041461 -0.34227565 0.17407247 0.044656266
0003c0 48 a6 dc 3c 8c ad a0 bc a1 11 88 be fe 6c 66 3e
       0.026934758 -0.019614004 -0.2657595 0.22502515
0003d0 c2 65 8b be 3e 80 67 be b2 4e bb be 4f cc e4 bd
       -0.27226073 -0.22607514 -0.36583477 -0.11171781
0003e0 e2 9c fe 3e 3b 0e b4 3e cf 12 51 be fd 21 a3 3c
       0.49729067 0.35167107 -0.20417331 0.019913668
0003f0 e0 3b c7 3c 82 c4 3b 3d 22 0b c5 3e b3 39 01 bd
       0.024320543 0.0458417 0.38485056 -0.031549167

bias f4 [64]
000000 e0 db 16 be b6 de 8d 3d 8d 42 39 be 00 fa 0b 3e
       -0.14732313 0.06927244 -0.18091793 0.13669586
000010 5a 70 83 bc a0 53 ff bd 9b 29 7c bd 54 37 71 bd
       -0.016044784 -0.12467122 -0.061563116 -0.058890656
000020 3d dd 22 3e 60 c7 99 3e 69 59 ec 3c e9 a3 12 be
       0.15904708 0.30034924 0.028851228 -0.1432034
000030 e3 0d b5 bd 79 5e 40 3e 6e ab db bd be 82 22 be
       -0.08840539 0.18786038 -0.10726057 -0.15870187
000040 24 6b 21 3e 3c ab e4 bc 52 5c 30 3d 13 41 d4 3d
       0.15763527 -0.027913682 0.043056794 0.103639744
000050 ef f9 2b 3e 49 91 45 3e 02 37 32 be 8c be 65 3d
       0.16794561 0.19293703 -0.17403796 0.056089923
000060 f8 0f bc bd dc 10 54 3e dd c5 67 3e 1a 1f a0 3d
       -0.09182733 0.20709556 0.22634073 0.07818432
000070 0c bc 12 3d 9a 05 67 bd 67 a3 1c be 73 73 37 3e
       0.035823867 -0.056401826 -0.15296708 0.17915134
000080 d5 db 51 bd 5b 84 52 3e c4 4a 2b be 2b 20 ca bd
       -0.05123504 0.20558302 -0.1672774 -0.09869417
000090 1b bd aa 3c ca 28 e0 bc 20 83 cf 3d 37 35 9c 3d
       0.020842126 -0.0273632 0.10132432 0.076273374
0000a0 51 1a 9d 3e 86 54 20 3d 86 6c 23 bc dd 92 ae 3d
       0.3068414 0.039143108 -0.0099746045 0.08524106
0000b0 4a 0a 8c be d8 b8 e6 3d 1e 08 b9 bc 93 ce af bc
       -0.273516 0.11265725 -0.022586878 -0.021460807
0000c0 35 f7 cb bd 7b be 6e 3e 98 71 01 be 5b 7d 8d be
       -0.099592604 0.2331485 -0.12640989 -0.276347
0000d0 93 b4 8f 3e 24 f8 3d be 02 d5 6a 3d 1a 51 1c 3e
       0.28067455 -0.1855169 0.057332046 0.15265313
0000e0 08 45 54 be b9 9d 0c 3e c6 be a0 3e df b2 90 bd
       -0.20729458 0.13732041 0.3139555 -0.07065367
0000f0 df d2 97 3d 93 1c 0a 3c 15 c7 87 3d 29 d1 92 3e
       0.07413267 0.008429664 0.06629769 0.28675202

weight f4 [5, 64]
000000 84 25 1f 3e 44 43 f9 be 3f ac b1 be 45 df 72 3e
       0.15541655 -0.48684132 -0.34701726 0.23717983
000010 fa 24 00 3f 47 e6 08 be 4e 83 dd 3e ca dc f0 3b
       0.5005642 -0.13369094 0.4326424 0.007350539
000020 8c 2b c2 3e 23 3f 3c bd 6d 9a a8 3e 87 5a fb 3e
       0.3792385 -0.04595865 0.32930318 0.49092504
000030 cf 39 0a bd b4 a2 a2 bc 79 62 5f 3e 86 00 34 3e
       -0.033746537 -0.019852974 0.21814908 0.17578325
000040 a6 4a 86 3e 19 19 0b bf 4d 4a e8 be b8 02 1f 3d
       0.26228827 -0.5433517 -0.45369187 0.038820952
000050 c2 f1 95 be aa 54 a4 be c3 4d 16 3f a9 62 2d 3d
       -0.2928601 -0.32095844 0.58712405 0.042330418
000060 9b 39 a6 3e 82 f7 2c 3e a1 96 c9 3d d8 d1 20 3e
       0.32465824 0.16891292 0.09843183 0.15705049
000070 31 58 67 3e 6a 4f db bc 49 9c ed bd 46 fb 98 3e
       0.22592236 -0.026771266 -0.11602075 0.29879206
000080 ec 4f 5c bf 45 45 52 3e a5 5c 3b 3c ca 97 94 3d
       -0.8605945 0.20534237 0.011435662 0.07255514
000090 bc 18 4d bf 4a 47 8f bd 97 eb af be f5 56 68 be
       -0.80115867 -0.06996019 -0.34359428 -0.22689421
0000a0 fa b6 87 be 7f f6 a2 3e 93 ad 25 3d 37 78 e1 3d
       -0.26506788 0.31828687 0.040448736 0.11009257
0000b0 cc c8 b0 be 47 b0 89 3e 47 6c f4 3d f7 3a f8 be
       -0.34528196 0.268923 0.11934715 -0.48482487
0000c0 5b 88 13 be 90 5d bd 3e 7b 44 5b 3e ab ba 87 be
       -0.14407484 0.36985445 0.21412842 -0.26509604
0000d0 40 29 02 bd 59 61 22 3d 4b d9 3c 3d 0a 45 8e 3e
       -0.03177762 0.03964362 0.046105664 0.27787048
0000e0 a9 10 84 3e 8a bb 37 3f 55 68 61 3d 84 7b 32 3d
       0.2579396 0.71770537 0.05503114 0.043574825
0000f0 32 f1 97 bf 9d bd 82 3e 04 9f 95 be 8c 77 87 be
       -1.1870482 0.25535288 -0.29222882 -0.26458395
000100 b6 4f 7c be 74 d4 fe 3d 69 59 ed bd 16 e0 b6 bc
       -0.24639782 0.12442866 -0.11589319 -0.02232365
000110 6b 25 2e 3d 4d 83 22 39 11 c6 a1 3e 43 44 e8 3e
       0.042516153 0.00015498437 0.31596425 0.4536458
000120 c7 c6 ea bd 05 59 0c 3e 0e f6 f6 bd f1 13 44 bd
       -0.11463695 0.13705833 -0.1205865 -0.04787058
000130 c0 fe 2f be 4f 16 bb 3d e7 83 9f 3c a3 75 17 3d
       -0.17187023 0.091351144 0.019472076 0.03697742
000140 c3 8b 26 3e f8 96 c7 3e 5e 36 ab 3d 8b e7 fb 3c
       0.16264252 0.38982368 0.08359979 0.030750057
000150 c6 f4 ba 3d c5 f2 03 3e e7 b1 3a 3e 75 c0 21 be
       0.09128718 0.12885578 0.18231927 -0.15796073
000160 93 46 72 bc 03 4b 11 be ad df 13 be 60 79 28 be
       -0.014787334 -0.14188771 -0.14440794 -0.16452551
000170 2d 21 19 3c ba 03 d9 bd 4a 95 62 bb 49 5d c5 bc
       0.009346289 -0.10596414 -0.0034573846 -0.024092333
000180 c5 67 a1 be 91 0a a8 3e 5c 68 0f 3e 8d 9d 87 3e
       -0.31524482 0.32820562 0.14004654 0.2648739
000190 87 b6 a6 3e 40 3b 08 3e 97 8c 4f bd a4 76 1d 3e
       0.32561132 0.13303852 -0.050671186 0.15377289
0001a0 11 29 5c 3d b8 d8 dd 3d 48 59 51 be 0e dd 92 be
       0.0537501 0.108323514 -0.20444214 -0.28684276
0001b0 95 13 96 be c4 11 04 be d5 56 8c 3e 4b ac 17 be
       -0.29311815 -0.12897402 0.27409998 -0.14811818
0001c0 9a aa 16 be 29 5c 14 be 58 95 11 3e 02 54 88 be
       -0.14713517 -0.14488281 0.14217126 -0.26626593
0001d0 a8 d2 95 be 85 f4 d0 3d 43 41 e4 3d 90 1e 00 be
       -0.2926228 0.102028884 0.1114526 -0.12511659
0001e0 32 6b 22 be b3 f0 f1 bc 10 74 66 be bc 34 43 3e
       -0.15861204 -0.02953372 -0.22505212 0.19063085
0001f0 97 bc 99 be 37 bb 4b be 5e e9 16 3d 16 8f c1 3d
       -0.30026695 -0.19895636 0.03684365 0.094511196
000200 03 59 c7 3e 99 bb 3c 3f 8a 69 45 bf dd 70 51 3e
       0.38935098 0.7372375 -0.77114165 0.2045321
000210 07 9a 8c 3e 96 87 85 bd 9f c6 e0 3e d6 e2 d4 bd
       0.27461264 -0.065200016 0.43901536 -0.10394828
000220 43 d9 2c 3f b6 46 0f 3f 6e 22 ed 3d ce c3 87 be
       0.67519015 0.5596727 0.115788326 -0.26516575
000230 fd 1c 32 bf 1a d4 26 3f d8 c7 74 3f 4d c9 5f 3f
       -0.6957548 0.6516739 0.9561744 0.87416536
000240 a5 b7 47 3f b4 73 18 3f 22 27 54 bf 2b 0a ee 3d
       0.78014594 0.5955155 -0.8287221 0.11623033
000250 36 86 4e bf d0 07 3e 3f 36 d6 12 bf ab b1 09 bf
       -0.8067354 0.7423067 -0.5735811 -0.53786725
000260 52 0e 9c 3e be 63 4e bf f0 3b 09 3f 1c 6e 0b 3f
       0.30479676 -0.80620944 0.5360708 0.5446489
000270 50 11 0b bf 5a 09 30 3f a3 49 08 3e 90 56 2d bf
       -0.5432329 0.6876427 0.1330934 -0.6771021
000280 b6 08 50 3d 06 18 8d 3e 28 12 41 bf c6 37 16 3f
       0.050789557 0.2755739 -0.7541833 0.58678854
000290 b3 e9 04 bf 55 8e 0e 3f d7 10 37 bf 86 76 70 ba
       -0.51919097 0.5568593 -0.7151007 -0.0009172935
0002a0 b4 a3 71 3f f2 0b 62 3c 4e 09 4b bf 34 18 7b bf
       0.94390416 0.013796793 -0.7931107 -0.98083806
0002b0 9d 9e 65 3e bf da c5 bd 85 4d 90 be 9b 8d 22 bf
       0.22423787 -0.09660863 -0.28184143 -0.6349732
0002c0 0f 99 28 3f 25 38 04 bd 66 b0 84 be 09 e8 13 3f
       0.6585855 -0.032280106 -0.2591583 0.5777593
0002d0 35 16 a5 3e 12 a3 d1 be a5 3c 4d bf 9e 29 72 3f
       0.32243505 -0.40944725 -0.8017066 0.9459475
0002e0 e0 d8 fb 3e 1b 09 5c bf 3a 52 0b 3e fb 89 40 bf
       0.491889 -0.85951394 0.13605586 -0.7521054
0002f0 5b 09 90 3e 82 f2 12 bd 38 57 dc 3e b1 d0 04 bf
       0.28132138 -0.035875805 0.43035293 -0.5188094
000300 dd dc 55 3f 91 ed 31 3e b4 28 da 3e e2 87 de 3d
       0.83540136 0.1737578 0.4260918 0.10865761
000310 ef 73 4f 3f 80 d3 f5 be 9a 5e ad 3d 65 b4 01 bf
       0.81036276 -0.48012924 0.084653094 -0.50665885
000320 03 04 30 3f 21 a5 28 bf 7e 46 11 bf cd 5b 9a 3c
       0.6875612 -0.65876967 -0.5674819 0.018842602
000330 24 4d 1b bf bb e4 15 bf 42 e8 a2 be a8 95 0b 3f
       -0.6066458 -0.5855214 -0.31817824 0.5452523
000340 a9 20 11 bf 8d 6f 11 3f 1d 50 48 3e fb 3b 52 bf
       -0.5669046 0.5681084 0.19561811 -0.8212277
000350 c1 07 1d bf c3 2d d5 3e f6 dd 1c 3f 07 87 3c bf
       -0.61339957 0.41636476 0.61276186 -0.73643535
000360 50 59 33 bf ec 6a df be 00 6a a9 be 03 65 8b 3d
       -0.70058155 -0.43636262 -0.33088684 0.06806376
000370 c6 81 21 3f 2f 7a 37 bf b5 62 d9 be 52 df cf be
       0.63088644 -0.7167081 -0.4245812 -0.40600067
000380 4a b4 19 3f f0 c3 3e bf 19 e8 27 3c 0e 6c 51 bf
       0.60040724 -0.74517727 0.0102482075 -0.81805503
000390 07 3d 13 bf 8a 24 5a 3e 2a 4f 0e 3f fd 6d 51 3f
       -0.57514995 0.21303001 0.55589545 0.81808454
0003a0 d6 a5 9f 3e 72 26 61 3f cd 7d 69 3d d7 eb 10 3f
       0.3118121 0.8794929 0.05700474 0.56609863
0003b0 c6 81 39 bf 9a 22 c8 be 75 91 8b 3f 74 85 0b bf
       -0.72463644 -0.390889 1.0903765 -0.5450051
0003c0 56 70 94 be 08 c8 81 bf 4b 03 40 bf a1 02 cc 3e
       -0.28991956 -1.013917 -0.75005025 0.39845756
0003d0 b5 ee 4e 3f dd c5 2b bf 11 ab 0e 3f de 9a 41 be
       0.8083299 -0.6709879 0.55729777 -0.18906733
0003e0 14 4b da be f1 d3 e9 bd a2 a1 ee 3e dc ae cc be
       -0.42635405 -0.11417378 0.4660769 -0.39977157
0003f0 73 f5 cb be 6f aa 30 bf 33 86 8a be 02 70 10 bf
       -0.398357 -0.6901006 -0.2705551 -0.5642091

bias f4 [5]
000000 67 7c a2 3b 57 1c a1 3c 7e 09 1d bd ae 67 24 3d
       0.0049586776 0.019666834 -0.03833913 0.04013794
000010 89 3f bc 3c
       0.022979515
